…
 average_sampled_train [ 'Is busy' ] = average_sampled_train . apply ( is_busy_2 , axis = 1 ) average_sampled_train . sample ( 20 ) .dataframe tbody tr th:only-of-type { vertical-align: middle; } .dataframe tbody tr th { vertical-align: top; } .dataframe thead th { text-align: right; } Name Average wait time Time Wait time Weather Temperature Max temperature Min temperature Pressure Humidity Wind degree Wind speed Cloud id IsWeekend IsHoliday Hour modify Is busy 6302 Dumbo the Flying Elephant 24.476950 2020-10-03 17:19:47.471631 40.0 Clouds 23.73 24.00 24.00 1012 78 90.0 6.0 75 12 1 1 Evening [0, 0, 1] 10102 Siren's Revenge 5.000000 2020-10-21 13:22:34.657099 5.0 Clouds 18.36 19.44 19.44 1018 88 340.0 5.0 90 18 0 0 Afternoon [0, 1, 0] 5149 The Many Adventures of Winnie the Pooh 21.727129 2020-10-08 13:17:12.792022 20.0 Clouds 23.83 25.00 25.00 1022 53 20.0 9.0 75 10 0 1 Afternoon [0, 1, 0] 8802 Jet Packs 34.943639 2020-10-17 13:21:49.642192 40.0 Clouds 21.54 22.00 22.00 1023 56 10.0 5.0 20 16 1 0 Afternoon [0, 0, 1] 12292 Rex\u2019s Racer 56.937984 2020-09-04 13:17:48.730671 90.0 Clouds 33.22 36.67 36.67 1012 45 170.0 6.0 91 28 0 0 Afternoon [0, 0, 1] 4527 Seven Dwarfs Mine Train 52.788310 2020-10-09 11:21:36.066646 45.0 Clouds 23.20 24.00 24.00 1021 53 10.0 6.0 23 9 0 0 Morning [1, 0, 0] 13143 Slinky Dog Spin 24.613601 2020-09-22 16:21:22.856577 20.0 Clouds 24.80 25.00 25.00 1014 61 60.0 6.0 40 29 0 0 Evening [0, 1, 0] 5309 The Many Adventures of Winnie the Pooh 21.727129 2020-10-22 17:23:25.739682 40.0 Clouds 19.46 20.00 20.00 1016 68 10.0 8.0 40 10 0 0 Evening [0, 0, 1] 5307 The Many Adventures of Winnie the Pooh 21.727129 2020-10-22 15:23:48.253335 10.0 Clouds 22.51 23.33 23.33 1016 56 340.0 5.0 13 10 0 0 Afternoon [1, 0, 0] 12042 Roaring Rapids 31.629555 2020-09-25 21:18:18.834521 5.0 Rain 22.66 23.00 23.00 1014 69 10.0 5.0 100 23 0 0 Night [1, 0, 0] 5539 Voyage to the Crystal Grotto 17.301459 2020-09-18 17:18:57.544340 40.0 Clouds 19.43 20.00 20.00 1018 88 270.0 3.0 40 11 0 0 Evening [0, 0, 1] 11842 Roaring Rapids 31.629555 2020-09-08 14:21:00.395020 20.0 Clouds 33.61 35.00 35.00 1010 49 180.0 8.0 20 23 0 0 Afternoon [1, 0, 0] 6323 Dumbo the Flying Elephant 24.476950 2020-10-05 17:20:52.785435 30.0 Clouds 20.67 21.11 21.11 1020 52 10.0 8.0 36 12 0 1 Evening [0, 0, 1] 11943 Roaring Rapids 31.629555 2020-09-17 16:20:41.428588 25.0 Rain 21.05 21.67 21.67 1010 100 350.0 7.0 75 23 0 0 Evening [1, 0, 0] 5281 The Many Adventures of Winnie the Pooh 21.727129 2020-10-20 10:24:19.155382 20.0 Clouds 21.59 22.00 22.00 1025 53 50.0 6.0 40 10 0 0 Morning [0, 1, 0] 9435 Buzz Lightyear Planet Rescue 7.097039 2020-10-19 15:24:32.051678 10.0 Clouds 21.24 23.33 23.33 1023 56 30.0 5.0 40 17 0 0 Afternoon [0, 1, 0] 1890 \u201cOnce Upon a Time\u201d Adventure 7.246127 2020-09-17 10:21:16.322591 5.0 Rain 22.64 23.00 23.00 1010 88 40.0 7.0 75 4 0 0 Morning [0, 1, 0] 9942 Siren's Revenge 5.000000 2020-10-07 17:21:19.897009 5.0 Clouds 21.37 22.00 22.00 1021 56 20.0 8.0 20 18 0 1 Evening [0, 1, 0] 2997 Hunny Pot Spin 9.258114 2020-09-12 09:22:28.558742 5.0 Clouds 26.08 27.78 27.78 1013 78 330.0 3.0 20 7 1 0 Morning [0, 1, 0] 13470 Slinky Dog Spin 24.613601 2020-10-19 12:25:41.694352 40.0 Clouds 20.87 22.78 22.78 1024 56 20.0 6.0 40 29 0 0 Afternoon [0, 0, 1] cat_vars = [ 'Name' , 'IsWeekend' , 'IsHoliday' , 'Hour modify' , 'Weather' ] num_vars = [ 'Temperature' , 'Pressure' , 'Humidity' , 'Cloud' , 'Wind degree' , ] X_train , X_test , y_train , y_test = generate_training_data ( average_sampled_train , 'Is busy' , cat_vars 
…
lse ))) # output layer model . add ( Dense ( units = 1 )) model . add ( Activation ( 'linear' )) \"\"\"Output layer has a single neuron (predicted Bitcoin price). We use Linear activation function which activation is proportional to the input.\"\"\" BATCH_SIZE = 64 model . compile ( loss = 'mean_squared_error' , optimizer = 'adam' , metrics = [ 'mae' , 'mse' ]) model . summary () Model: \"sequential\" _________________________________________________________________ Layer (type) Output Shape Param # ================================================================= bidirectional (Bidirectional (None, 10, 20) 960 _________________________________________________________________ dropout (Dropout) (None, 10, 20) 0 _________________________________________________________________ bidirectional_1 (Bidirection (None, 10, 40) 6560 _________________________________________________________________ dropout_1 (Dropout) (None, 10, 40) 0 _________________________________________________________________ bidirectional_2 (Bidirection (None, 10, 40) 9760 _________________________________________________________________ dropout_2 (Dropout) (None, 10, 40) 0 _________________________________________________________________ bidirectional_3 (Bidirection (None, 20) 4080 _________________________________________________________________ dense (Dense) (None, 1) 21 _________________________________________________________________ activation (Activation) (None, 1) 0 ================================================================= Total params: 21,381 Trainable params: 21,381 Non-trainable params: 0 _________________________________________________________________ Train model \u00b6 def plot_history ( history ) : hist = pd . DataFrame ( history . history ) hist [ 'epoch' ] = history . epoch plt . figure () plt . xlabel ( 'Epoch' ) plt . ylabel ( 'Mean Abs Er
…
e ))) # output layer model . add ( Dense ( units = 1 )) model . add ( Activation ( 'linear' )) \"\"\"Output layer has a single neuron (predicted Bitcoin price). We use Linear activation function which activation is proportional to the input.\"\"\" BATCH_SIZE = 64 model . compile ( loss = 'mean_squared_error' , optimizer = 'adam' , metrics = [ 'mae' , 'mse' ]) model . summary () Model: \"sequential_3\" _________________________________________________________________ Layer (type) Output Shape Param # ================================================================= bidirectional_12 (Bidirectio (None, 3, 6) 144 _________________________________________________________________ dropout_9 (Dropout) (None, 3, 6) 0 _________________________________________________________________ bidirectional_13 (Bidirectio (None, 3, 12) 624 _________________________________________________________________ dropout_10 (Dropout) (None, 3, 12) 0 _________________________________________________________________ bidirectional_14 (Bidirectio (None, 3, 12) 912 _________________________________________________________________ dropout_11 (Dropout) (None, 3, 12) 0 _________________________________________________________________ bidirectional_15 (Bidirectio (None, 6) 384 _________________________________________________________________ dense_3 (Dense) (None, 1) 7 _________________________________________________________________ activation_3 (Activation) (None, 1) 0 ================================================================= Total params: 2,071 Trainable params: 2,071 Non-trainable params: 0 _________________________________________________________________ history = model . fit ( X_train , y_train , epochs = 1000 , callbacks =[ early_stop ] , validation_split = 0.1 , shuffle = False ) plot_history ( history ) Epoch 1/1000 1/1 [=========================
…
