…
train ) average_sampled_train [ 'Is busy' ] = average_sampled_train . apply ( is_busy_2 , axis = 1 ) average_sampled_train . sample ( 20 ) .dataframe tbody tr th:only-of-type { vertical-align: middle; } .dataframe tbody tr th { vertical-align: top; } .dataframe thead th { text-align: right; } Name Average wait time Time Wait time Weather Temperature Max temperature Min temperature Pressure Humidity Wind degree Wind speed Cloud id IsWeekend IsHoliday Hour modify Is busy 13204 Slinky Dog Spin 24.613601 2020-09-27 15:19:38.869181 40.0 Clouds 24.82 26.11 26.11 1015 78 40.0 5.0 75 29 1 1 Afternoon [0, 0, 1] 3335 Hunny Pot Spin 9.258114 2020-10-09 13:20:34.934157 10.0 Clouds 24.59 25.00 25.00 1020 44 20.0 5.0 16 7 0 0 Afternoon [0, 1, 0] 10658 Shipwreck Shore 5.008681 2020-10-17 11:22:39.121594 5.0 Clear 20.34 21.00 21.00 1024 56 360.0 6.0 0 19 1 0 Morning [0, 1, 0] 2160 \u201cOnce Upon a Time\u201d Adventure 7.246127 2020-10-11 11:21:48.801419 5.0 Clouds 23.34 23.89 23.89 1016 56 40.0 4.0 40 4 1 1 Morning [0, 1, 0] 11860 Roaring Rapids 31.629555 2020-09-10 10:20:16.261789 20.0 Clouds 31.39 32.78 32.78 1008 62 160.0 4.0 76 23 0 0 Morning [1, 0, 0] 2992 Hunny Pot Spin 9.258114 2020-09-11 15:18:17.428365 5.0 Clouds 23.95 25.00 25.00 1008 83 110.0 4.0 90 7 0 0 Afternoon [0, 1, 0] 11075 Pirates of the Caribbean Battle for the Sunken... 20.969055 2020-10-02 10:22:38.662643 40.0 Clouds 26.25 26.67 26.67 1014 65 140.0 4.0 20 20 0 1 Morning [0, 0, 1] 11169 Pirates of the Caribbean Battle for the Sunken... 20.969055 2020-10-09 12:24:19.516068 15.0 Clouds 24.09 25.00 25.00 1021 47 360.0 6.0 20 20 0 0 Afternoon [1, 0, 0] 8079 Stitch Encounter 15.070565 2020-10-03 17:19:47.471647 15.0 Clouds 23.73 24.00 24.00 1012 78 90.0 6.0 75 15 1 1 Evening [0, 1, 0] 2482 Alice in Wonderland Maze 5.017730 2020-09-18 09:25:01.995252 5.0 Rain 19.62 20.00 20.00 1018 82 330.0 4.0 100 5 0 0 Morning [0, 1, 0] 5505 Voyage to the Crystal Grotto 17.301459 2020-09-15 15:18:48.496307 10.0 Rain 23.03 23.33 23.33 1010 94 150.0 3.0 40 11 0 0 Afternoon [1, 0, 0] 8430 Jet Packs 34.943639 2020-09-14 18:19:06.567386 40.0 Rain 22.65 23.00 23.00 1013 94 220.0 3.0 75 16 0 0 Evening [0, 0, 1] 11374 Explorer Canoes 26.490385 2020-09-05 09:33:30.360833 5.0 Clear 31.06 34.44 34.44 1011 58 90.0 2.0 0 21 1 0 Morning [1, 0, 0] 9856 Siren's Revenge 5.000000 2020-10-01 09:33:02.313813 5.0 Clouds 25.68 28.89 28.89 1015 69 20.0 4.0 17 18 0 1 Morning [0, 1, 0] 6244 Dumbo the Flying Elephant 24.476950 2020-09-28 12:21:14.161007 5.0 Clouds 26.75 27.22 27.22 1015 61 100.0 5.0 40 12 0 0 Afternoon [1, 0, 0] 12970 Slinky Dog Spin 24.613601 2020-09-07 13:17:55.833556 30.0 Clouds 33.90 36.11 36.11 1005 41 310.0 8.0 20 29 0 0 Afternoon [0, 0, 1] 10944 Pirates of the Caribbean Battle for the Sunken... 20.969055 2020-09-21 15:19:21.264789 50.0 Clouds 27.00 27.78 27.78 1015 50 120.0 4.0 100 20 0 0 Afternoon [0, 0, 1] 9653 Siren's Revenge 5.000000 2020-09-14 12:20:05.878090 5.0 Clouds 27.49 29.44 29.44 1014 69 80.0 3.0 40 18 0 0 Afternoon [0, 1, 0] 13795 Woody\u2019s Roundup 17.469040 2020-09-23 08:54:36.402435 5.0 Rain 21.58 22.00 22.00 1014 78 70.0 3.0 20 30 0 0 Morning [1, 0, 0] 4720 The Many Adventures of Winnie the Pooh 21.727129 2020-09-01 15:18:22.137361 25.0 Clouds 31.26 33.33 33.33 1003 79 20.0 8.0 40 10 0 0 Afternoon [0, 1, 0] cat_vars = [ 'Name' , 'IsWeekend' , 'IsHoliday' , 'Hour modify' , 'Weather' ] num_vars = [ 'Temperature' , 'Pressure' , 'Humidity' , 'Cloud' , 'Wind degree' , ] X_train , X_test , y_train , y_test = generate_training_data ( average_sampled_train 
…
del.add(Bidirectional(LSTM(WINDOW_SIZE, return_sequences=False))) # output layer model.add(Dense(units=1)) model.add(Activation('linear')) \"\"\"Output layer has a single neuron (predicted Bitcoin price). We use Linear activation function which activation is proportional to the input.\"\"\" BATCH_SIZE = 64 model.compile(loss='mean_squared_error', optimizer='adam') model.summary() Model: \"sequential\" _________________________________________________________________ Layer (type) Output Shape Param # ================================================================= bidirectional (Bidirectional (None, 149, 298) 179992 _________________________________________________________________ dropout (Dropout) (None, 149, 298) 0 _________________________________________________________________ bidirectional_1 (Bidirection (None, 149, 596) 1423248 _________________________________________________________________ dropout_1 (Dropout) (None, 149, 596) 0 _________________________________________________________________ bidirectional_2 (Bidirection (None, 298) 889232 _________________________________________________________________ dense (Dense) (None, 1) 299 _________________________________________________________________ activation (Activation) (None, 1) 0 ================================================================= Total params: 2,492,771 Trainable params: 2,492,771 Non-trainable params: 0 _________________________________________________________________ Train model \u00b6 history = model.fit(X_train, y_train, epochs=30, batch_size=BATCH_SIZE, shuffle=False, validation_split=0.1) Epoch 1/30 76/76 [==============================] - 8s 100ms/st
…
