{"format": "graph-model", "generatedBy": "1.14.0", "convertedBy": "TensorFlow.js Converter v3.6.0", "signature": {"inputs": {"placeholder_1:0": {"name": "placeholder_1:0", "dtype": "DT_FLOAT", "tensorShape": {"dim": [{"size": "-1"}, {"size": "-1"}, {"size": "-1"}, {"size": "3"}]}}, "placeholder:0": {"name": "placeholder:0", "dtype": "DT_FLOAT", "tensorShape": {"dim": [{"size": "-1"}, {"size": "-1"}, {"size": "-1"}, {"size": "3"}]}}}, "outputs": {"Identity:0": {"name": "Identity:0", "dtype": "DT_FLOAT", "tensorShape": {"dim": [{"size": "-1"}, {"size": "-1"}, {"size": "-1"}, {"size": "3"}]}}}}, "modelTopology": {"node": [{"name": "statefulpartitionedcall_style_params_transformer_expand_conv3_conv_stylenorm_conv_weights", "op": "Const", "attr": {"dtype": {"type": "DT_FLOAT"}, "value": {"tensor": {"dtype": "DT_FLOAT", "tensorShape": {"dim": [{"size": "1"}, {"size": "1"}, {"size": "100"}, {"size": "3"}]}}}}}, {"name": "statefulpartitionedcall_style_params_transformer_expand_conv3_conv_stylenorm_conv_biases", "op": "Const", "attr": {"value": {"tensor": {"dtype": "DT_FLOAT", "tensorShape": {"dim": [{"size": "3"}]}}}, "dtype": {"type": "DT_FLOAT"}}}, {"name": "StatefulPartitionedCall/transformer/expand/conv3/conv/StyleNorm/ExpandDims/dim", "op": "Const", "attr": {"dtype": {"type": "DT_INT32"}, "value": {"tensor": {"dtype": "DT_INT32", "tensorShape": {}}}}}, {"name": "StatefulPartitionedCall/transformer/expand/conv3/conv/StyleNorm/ExpandDims_1/dim", "op": "Const", "attr": {"value": {"tensor": {"dtype": "DT_INT32", "tensorShape": {}}}, "dtype": {"type": "DT_INT32"}}}, {"name": "StatefulPartitionedCall/transformer/expand/conv3/strided_slice/stack", "op": "Const", "attr": {"value": {"tensor": {"dtype": "DT_INT32", "tensorShape": {"dim": [{"size": "1"}]}}}, "dtype": {"type": "DT_INT32"}}}, {"name": "StatefulPartitionedCall/transformer/expand/conv3/strided_slice/stack_1", "op": "Const", "attr": {"value": {"tensor": {"dtype": "DT_INT32", "tensorShape": {"dim": [{"size": "1"}]}}}, "dtype": {"type": "DT_INT32"}}}, {"name": "StatefulPartitionedCall/transformer/expand/conv3/strided_slice/stack_2", "op": "Const", "attr": {"value": {"tensor": {"dtype": "DT_INT32", "tensorShape": {"dim": [{"size": "1"}]}}}, "dtype": {"type": "DT_INT32"}}}, {"name": "statefulpartitionedcall_style_params_transformer_expand_conv2_conv_stylenorm_conv_weights", "op": "Const", "attr": {"value": {"tensor": {"dtype": "DT_FLOAT", "tensorShape": {"dim": [{"size": "1"}, {"size": "1"}, {"size": "100"}, {"size": "32"}]}}}, "dtype": {"type": "DT_FLOAT"}}}, {"name": "statefulpartitionedcall_style_params_transformer_expand_conv2_conv_stylenorm_conv_biases", "op": "Const", "attr": {"value": {"tensor": {"dtype": "DT_FLOAT", "tensorShape": {"dim": [{"size": "32"}]}}}, "dtype": {"type": "DT_FLOAT"}}}, {"name": "StatefulPartitionedCall/transformer/expand/conv2/conv/StyleNorm/ExpandDims/dim", "op": "Const", "attr": {"value": {"tensor": {"dtype": "DT_INT32", "tensorShape": {}}}, "dtype": {"type": "DT_INT32"}}}, {"name": "StatefulPartitionedCall/transformer/expand/conv2/conv/StyleNorm/ExpandDims_1/dim", "op": "Const", "attr": {"value": {"tensor": {"dtype": "DT_INT32", "tensorShape": {}}}, "dtype": {"type": "DT_INT32"}}}, {"name": "StatefulPartitionedCall/transformer/expand/conv2/mul/x", "op": "Const", "attr": {"value": {"tensor": {"dtype": "DT_INT32", "tensorShape": {}}}, "dtype": {"type": "DT_INT32"}}}, {"name": "StatefulPartitionedCall/transformer/expand/conv2/strided_slice/stack", "op": "Const", "attr": {"value": {"tensor": {"dtype": "DT_INT32", "tensorShape": {"dim": [{"size": "1"}]}}}, "dtype": {"type": "DT_INT32"}}}, {"name": "StatefulPartitionedCall/transformer/expand/conv2/strided_slice/stack_1", "op": "Const", "attr": {"value": {"tensor": {"dtype": "DT_INT32", "tensorShape": {"dim": [{"size": "1"}]}}}, "dtype": {"type": "DT_INT32"}}}, {"name": "StatefulPartitionedCall/transformer/expand/conv2/strided_slice/stack_2", "op": "Const", "attr": {"value": {"tensor": {"dtype": "DT_INT32", "tensorShape": {"dim": [{"size": "1"}]}}}, "dtype": {"type": "DT_INT32"}}}, {"name": "StatefulPartitionedCall/transformer/expand/conv2/mul_1/x", "op": "Const", "attr": {"dtype": {"type": "DT_INT32"}, "value": {"tensor": {"dtype": "DT_INT32", "tensorShape": {}}}}}, {"name": "statefulpartitionedcall_style_params_transformer_expand_conv1_conv_stylenorm_conv_weights", "op": "Const", "attr": {"value": {"tensor": {"dtype": "DT_FLOAT", "tensorShape": {"dim": [{"size": "1"}, {"size": "1"}, {"size": "100"}, {"size": "64"}]}}}, "dtype": {"type": "DT_FLOAT"}}}, {"name": "statefulpartitionedcall_style_params_transformer_expand_conv1_conv_stylenorm_conv_biases", "op": "Const", "attr": {"value": {"tensor": {"dtype": "DT_FLOAT", "tensorShape": {"dim": [{"size": "64"}]}}}, "dtype": {"type": "DT_FLOAT"}}}, {"name": "StatefulPartitionedCall/transformer/expand/conv1/conv/StyleNorm/ExpandDims/dim", "op": "Const", "attr": {"value": {"tensor": {"dtype": "DT_INT32", "tensorShape": {}}}, "dtype": {"type": "DT_INT32"}}}, {"name": "StatefulPartitionedCall/transformer/expand/conv1/conv/StyleNorm/ExpandDims_1/dim", "op": "Const", "attr": {"value": {"tensor": {"dtype": "DT_INT32", "tensorShape": {}}}, "dtype": {"type": "DT_INT32"}}}, {"name": "StatefulPartitionedCall/transformer/expand/conv1/mul/x", "op": "Const", "attr": {"value": {"tensor": {"dtype": "DT_INT32", "tensorShape": {}}}, "dtype": {"type": "DT_INT32"}}}, {"name": "StatefulPartitionedCall/transformer/expand/conv1/strided_slice/stack", "op": "Const", "attr": {"dtype": {"type": "DT_INT32"}, "value": {"tensor": {"dtype": "DT_INT32", "tensorShape": {"dim": [{"size": "1"}]}}}}}, {"name": "StatefulPartitionedCall/transformer/expand/conv1/strided_slice/stack_1", "op": "Const", "attr": {"value": {"tensor": {"dtype": "DT_INT32", "tensorShape": {"dim": [{"size": "1"}]}}}, "dtype": {"type": "DT_INT32"}}}, {"name": "StatefulPartitionedCall/transformer/expand/conv1/strided_slice/stack_2", "op": "Const", "attr": {"value": {"tensor": {"dtype": "DT_INT32", "tensorShape": {"dim": [{"size": "1"}]}}}, "dtype": {"type": "DT_INT32"}}}, {"name": "StatefulPartitionedCall/transformer/expand/conv1/mul_1/x", "op": "Const", "attr": {"value": {"tensor": {"dtype": "DT_INT32", "tensorShape": {}}}, "dtype": {"type": "DT_INT32"}}}, {"name": "statefulpartitionedcall_style_params_transformer_residual_residual5_conv2_stylenorm_conv_weights", "op": "Const", "attr": {"dtype": {"type": "DT_FLOAT"}, "value": {"tensor": {"dtype": "DT_FLOAT", "tensorShape": {"dim": [{"size": "1"}, {"size": "1"}, {"size": "100"}, {"size": "128"}]}}}}}, {"name": "statefulpartitionedcall_style_params_transformer_residual_residual5_conv2_stylenorm_conv_biases", "op": "Const", "attr": {"value": {"tensor": {"dtype": "DT_FLOAT", "tensorShape": {"dim": [{"size": "128"}]}}}, "dtype": {"type": "DT_FLOAT"}}}, {"name": "StatefulPartitionedCall/transformer/residual/residual5/conv2/StyleNorm/ExpandDims/dim", "op": "Const", "attr": {"value": {"tensor": {"dtype": "DT_INT32", "tensorShape": {}}}, "dtype": {"type": "DT_INT32"}}}, {"name": "StatefulPartitionedCall/transformer/residual/residual5/conv2/StyleNorm/ExpandDims_1/dim", "op": "Const", "attr": {"value": {"tensor": {"dtype": "DT_INT32", "tensorShape": {}}}, "dtype": {"type": "DT_INT32"}}}, {"name": "statefulpartitionedcall_style_params_transformer_residual_residual5_conv1_stylenorm_conv_weights", "op": "Const", "attr": {"value": {"tensor": {"dtype": "DT_FLOAT", "tensorShape": {"dim": [{"size": "1"}, {"size": "1"}, {"size": "100"}, {"size": "128"}]}}}, "dtype": {"type": "DT_FLOAT"}}}, {"name": "statefulpartitionedcall_style_params_transformer_residual_residual5_conv1_stylenorm_conv_biases", "op": "Const", "attr": {"value": {"tensor": {"dtype": "DT_FLOAT", "tensorShape": {"dim": [{"size": "128"}]}}}, "dtype": {"type": "DT_FLOAT"}}}, {"name": "StatefulPartitionedCall/transformer/residual/residual5/conv1/StyleNorm/ExpandDims/dim", "op": "Const", "attr": {"value": {"tensor": {"dtype": "DT_INT32", "tensorShape": {}}}, "dtype": {"type": "DT_INT32"}}}, {"name": "StatefulPartitionedCall/transformer/residual/residual5/conv1/StyleNorm/ExpandDims_1/dim", "op": "Const", "attr": {"value": {"tensor": {"dtype": "DT_INT32", "tensorShape": {}}}, "dtype": {"type": "DT_INT32"}}}, {"name": "statefulpartitionedcall_style_params_transformer_residual_residual4_conv2_stylenorm_conv_weights", "op": "Const", "attr": {"value": {"tensor": {"dtype": "DT_FLOAT", "tensorShape": {"dim": [{"size": "1"}, {"size": "1"}, {"size": "100"}, {"size": "128"}]}}}, "dtype": {"type": "DT_FLOAT"}}}, {"name": "statefulpartitionedcall_style_params_transformer_residual_residual4_conv2_stylenorm_conv_biases", "op": "Const", "attr": {"dtype": {"type": "DT_FLOAT"}, "value": {"tensor": {"dtype": "DT_FLOAT", "tensorShape": {"dim": [{"size": "128"}]}}}}}, {"name": "StatefulPartitionedCall/transformer/residual/residual4/conv2/StyleNorm/ExpandDims/dim", "op": "Const", "attr": {"value": {"tensor": {"dtype": "DT_INT32", "tensorShape": {}}}, "dtype": {"type": "DT_INT32"}}}, {"name": "StatefulPartitionedCall/transformer/residual/residual4/conv2/StyleNorm/ExpandDims_1/dim", "op": "Const", "attr": {"value": {"tensor": {"dtype": "DT_INT32", "tensorShape": {}}}, "dtype": {"type": "DT_INT32"}}}, {"name": "statefulpartitionedcall_style_params_transformer_residual_residual4_conv1_stylenorm_conv_weights", "op": "Const", "attr": {"value": {"tensor": {"dtype": "DT_FLOAT", "tensorShape": {"dim": [{"size": "1"}, {"size": "1"}, {"size": "100"}, {"size": "128"}]}}}, "dtype": {"type": "DT_FLOAT"}}}, {"name": "statefulpartitionedcall_style_params_transformer_residual_residual4_conv1_stylenorm_conv_biases", "op": "Const", "attr": {"value": {"tensor": {"dtype": "DT_FLOAT", "tensorShape": {"dim": [{"size": "128"}]}}}, "dtype": {"type": "DT_FLOAT"}}}, {"name": "StatefulPartitionedCall/transformer/residual/residual4/conv1/StyleNorm/ExpandDims/dim", "op": "Const", "attr": {"dtype": {"type": "DT_INT32"}, "value": {"tensor": {"dtype": "DT_INT32", "tensorShape": {}}}}}, {"name": "StatefulPartitionedCall/transformer/residual/residual4/conv1/StyleNorm/ExpandDims_1/dim", "op": "Const", "attr": {"value": {"tensor": {"dtype": "DT_INT32", "tensorShape": {}}}, "dtype": {"type": "DT_INT32"}}}, {"name": "statefulpartitionedcall_style_params_transformer_residual_residual3_conv2_stylenorm_conv_weights", "op": "Const", "attr": {"value": {"tensor": {"dtype": "DT_FLOAT", "tensorShape": {"dim": [{"size": "1"}, {"size": "1"}, {"size": "100"}, {"size": "128"}]}}}, "dtype": {"type": "DT_FLOAT"}}}, {"name": "statefulpartitionedcall_style_params_transformer_residual_residual3_conv2_stylenorm_conv_biases", "op": "Const", "attr": {"dtype": {"type": "DT_FLOAT"}, "value": {"tensor": {"dtype": "DT_FLOAT", "tensorShape": {"dim": [{"size": "128"}]}}}}}, {"name": "StatefulPartitionedCall/transformer/residual/residual3/conv2/StyleNorm/ExpandDims/dim", "op": "Const", "attr": {"dtype": {"type": "DT_INT32"}, "value": {"tensor": {"dtype": "DT_INT32", "tensorShape": {}}}}}, {"name": "StatefulPartitionedCall/transformer/residual/residual3/conv2/StyleNorm/ExpandDims_1/dim", "op": "Const", "attr": {"dtype": {"type": "DT_INT32"}, "value": {"tensor": {"dtype": "DT_INT32", "tensorShape": {}}}}}, {"name": "statefulpartitionedcall_style_params_transformer_residual_residual3_conv1_stylenorm_conv_weights", "op": "Const", "attr": {"value": {"tensor": {"dtype": "DT_FLOAT", "tensorShape": {"dim": [{"size": "1"}, {"size": "1"}, {"size": "100"}, {"size": "128"}]}}}, "dtype": {"type": "DT_FLOAT"}}}, {"name": "statefulpartitionedcall_style_params_transformer_residual_residual3_conv1_stylenorm_conv_biases", "op": "Const", "attr": {"value": {"tensor": {"dtype": "DT_FLOAT", "tensorShape": {"dim": [{"size": "128"}]}}}, "dtype": {"type": "DT_FLOAT"}}}, {"name": "StatefulPartitionedCall/transformer/residual/residual3/conv1/StyleNorm/ExpandDims/dim", "op": "Const", "attr": {"value": {"tensor": {"dtype": "DT_INT32", "tensorShape": {}}}, "dtype": {"type": "DT_INT32"}}}, {"name": "StatefulPartitionedCall/transformer/residual/residual3/conv1/StyleNorm/ExpandDims_1/dim", "op": "Const", "attr": {"value": {"tensor": {"dtype": "DT_INT32", "tensorShape": {}}}, "dtype": {"type": "DT_INT32"}}}, {"name": "statefulpartitionedcall_style_params_transformer_residual_residual2_conv2_stylenorm_conv_weights", "op": "Const", "attr": {"value": {"tensor": {"dtype": "DT_FLOAT", "tensorShape": {"dim": [{"size": "1"}, {"size": "1"}, {"size": "100"}, {"size": "128"}]}}}, "dtype": {"type": "DT_FLOAT"}}}, {"name": "statefulpartitionedcall_style_params_transformer_residual_residual2_conv2_stylenorm_conv_biases", "op": "Const", "attr": {"value": {"tensor": {"dtype": "DT_FLOAT", "tensorShape": {"dim": [{"size": "128"}]}}}, "dtype": {"type": "DT_FLOAT"}}}, {"name": "StatefulPartitionedCall/transformer/residual/residual2/conv2/StyleNorm/ExpandDims/dim", "op": "Const", "attr": {"value": {"tensor": {"dtype": "DT_INT32", "tensorShape": {}}}, "dtype": {"type": "DT_INT32"}}}, {"name": "StatefulPartitionedCall/transformer/residual/residual2/conv2/StyleNorm/ExpandDims_1/dim", "op": "Const", "attr": {"value": {"tensor": {"dtype": "DT_INT32", "tensorShape": {}}}, "dtype": {"type": "DT_INT32"}}}, {"name": "statefulpartitionedcall_style_params_transformer_residual_residual2_conv1_stylenorm_conv_weights", "op": "Const", "attr": {"value": {"tensor": {"dtype": "DT_FLOAT", "tensorShape": {"dim": [{"size": "1"}, {"size": "1"}, {"size": "100"}, {"size": "128"}]}}}, "dtype": {"type": "DT_FLOAT"}}}, {"name": "statefulpartitionedcall_style_params_transformer_residual_residual2_conv1_stylenorm_conv_biases", "op": "Const", "attr": {"dtype": {"type": "DT_FLOAT"}, "value": {"tensor": {"dtype": "DT_FLOAT", "tensorShape": {"dim": [{"size": "128"}]}}}}}, {"name": "StatefulPartitionedCall/transformer/residual/residual2/conv1/StyleNorm/ExpandDims/dim", "op": "Const", "attr": {"value": {"tensor": {"dtype": "DT_INT32", "tensorShape": {}}}, "dtype": {"type": "DT_INT32"}}}, {"name": "StatefulPartitionedCall/transformer/residual/residual2/conv1/StyleNorm/ExpandDims_1/dim", "op": "Const", "attr": {"value": {"tensor": {"dtype": "DT_INT32", "tensorShape": {}}}, "dtype": {"type": "DT_INT32"}}}, {"name": "statefulpartitionedcall_style_params_transformer_residual_residual1_conv2_stylenorm_conv_weights", "op": "Const", "attr": {"value": {"tensor": {"dtype": "DT_FLOAT", "tensorShape": {"dim": [{"size": "1"}, {"size": "1"}, {"size": "100"}, {"size": "128"}]}}}, "dtype": {"type": "DT_FLOAT"}}}, {"name": "statefulpartitionedcall_style_params_transformer_residual_residual1_conv2_stylenorm_conv_biases", "op": "Const", "attr": {"value": {"tensor": {"dtype": "DT_FLOAT", "tensorShape": {"dim": [{"size": "128"}]}}}, "dtype": {"type": "DT_FLOAT"}}}, {"name": "StatefulPartitionedCall/transformer/residual/residual1/conv2/StyleNorm/ExpandDims/dim", "op": "Const", "attr": {"value": {"tensor": {"dtype": "DT_INT32", "tensorShape": {}}}, "dtype": {"type": "DT_INT32"}}}, {"name": "StatefulPartitionedCall/transformer/residual/residual1/conv2/StyleNorm/ExpandDims_1/dim", "op": "Const", "attr": {"value": {"tensor": {"dtype": "DT_INT32", "tensorShape": {}}}, "dtype": {"type": "DT_INT32"}}}, {"name": "statefulpartitionedcall_style_params_transformer_residual_residual1_conv1_stylenorm_conv_weights", "op": "Const", "attr": {"value": {"tensor": {"dtype": "DT_FLOAT", "tensorShape": {"dim": [{"size": "1"}, {"size": "1"}, {"size": "100"}, {"size": "128"}]}}}, "dtype": {"type": "DT_FLOAT"}}}, {"name": "statefulpartitionedcall_style_params_transformer_residual_residual1_conv1_stylenorm_conv_biases", "op": "Const", "attr": {"value": {"tensor": {"dtype": "DT_FLOAT", "tensorShape": {"dim": [{"size": "128"}]}}}, "dtype": {"type": "DT_FLOAT"}}}, {"name": "StatefulPartitionedCall/transformer/residual/residual1/conv1/StyleNorm/ExpandDims/dim", "op": "Const", "attr": {"value": {"tensor": {"dtype": "DT_INT32", "tensorShape": {}}}, "dtype": {"type": "DT_INT32"}}}, {"name": "StatefulPartitionedCall/transformer/residual/residual1/conv1/StyleNorm/ExpandDims_1/dim", "op": "Const", "attr": {"dtype": {"type": "DT_INT32"}, "value": {"tensor": {"dtype": "DT_INT32", "tensorShape": {}}}}}, {"name": "StatefulPartitionedCall/transformer/contract/MirrorPad/paddings", "op": "Const", "attr": {"value": {"tensor": {"dtype": "DT_INT32", "tensorShape": {"dim": [{"size": "4"}, {"size": "2"}]}}}, "dtype": {"type": "DT_INT32"}}}, {"name": "StatefulPartitionedCall/transformer/contract/MirrorPad_1/paddings", "op": "Const", "attr": {"value": {"tensor": {"dtype": "DT_INT32", "tensorShape": {"dim": [{"size": "4"}, {"size": "2"}]}}}, "dtype": {"type": "DT_INT32"}}}, {"name": "StatefulPartitionedCall/transformer/contract/MirrorPad_2/paddings", "op": "Const", "attr": {"value": {"tensor": {"dtype": "DT_INT32", "tensorShape": {"dim": [{"size": "4"}, {"size": "2"}]}}}, "dtype": {"type": "DT_INT32"}}}, {"name": "StatefulPartitionedCall/transformer/residual/residual1/MirrorPad/paddings", "op": "Const", "attr": {"value": {"tensor": {"dtype": "DT_INT32", "tensorShape": {"dim": [{"size": "4"}, {"size": "2"}]}}}, "dtype": {"type": "DT_INT32"}}}, {"name": "statefulpartitionedcall_transformer_residual_residual1_conv1_weights", "op": "Const", "attr": {"value": {"tensor": {"dtype": "DT_FLOAT", "tensorShape": {"dim": [{"size": "3"}, {"size": "3"}, {"size": "128"}, {"size": "128"}]}}}, "dtype": {"type": "DT_FLOAT"}}}, {"name": "StatefulPartitionedCall/transformer/residual/residual1/conv1/StyleNorm/moments/mean/reduction_indices", "op": "Const", "attr": {"value": {"tensor": {"dtype": "DT_INT32", "tensorShape": {"dim": [{"size": "2"}]}}}, "dtype": {"type": "DT_INT32"}}}, {"name": "StatefulPartitionedCall/transformer/residual/residual1/conv1/StyleNorm/moments/variance/reduction_indices", "op": "Const", "attr": {"value": {"tensor": {"dtype": "DT_INT32", "tensorShape": {"dim": [{"size": "2"}]}}}, "dtype": {"type": "DT_INT32"}}}, {"name": "StatefulPartitionedCall/transformer/residual/residual1/conv1/StyleNorm/batchnorm/add/y", "op": "Const", "attr": {"value": {"tensor": {"dtype": "DT_FLOAT", "tensorShape": {}}}, "dtype": {"type": "DT_FLOAT"}}}, {"name": "statefulpartitionedcall_style_params_transformer_residual_residual1_conv1_stylenorm_conv_1_weights", "op": "Const", "attr": {"value": {"tensor": {"dtype": "DT_FLOAT", "tensorShape": {"dim": [{"size": "1"}, {"size": "1"}, {"size": "100"}, {"size": "128"}]}}}, "dtype": {"type": "DT_FLOAT"}}}, {"name": "statefulpartitionedcall_style_params_transformer_residual_residual1_conv1_stylenorm_conv_1_biases", "op": "Const", "attr": {"value": {"tensor": {"dtype": "DT_FLOAT", "tensorShape": {"dim": [{"size": "128"}]}}}, "dtype": {"type": "DT_FLOAT"}}}, {"name": "StatefulPartitionedCall/transformer/residual/residual1/conv1/StyleNorm/ExpandDims_2/dim", "op": "Const", "attr": {"value": {"tensor": {"dtype": "DT_INT32", "tensorShape": {}}}, "dtype": {"type": "DT_INT32"}}}, {"name": "StatefulPartitionedCall/transformer/residual/residual1/conv1/StyleNorm/ExpandDims_3/dim", "op": "Const", "attr": {"value": {"tensor": {"dtype": "DT_INT32", "tensorShape": {}}}, "dtype": {"type": "DT_INT32"}}}, {"name": "StatefulPartitionedCall/transformer/residual/residual1/MirrorPad_1/paddings", "op": "Const", "attr": {"value": {"tensor": {"dtype": "DT_INT32", "tensorShape": {"dim": [{"size": "4"}, {"size": "2"}]}}}, "dtype": {"type": "DT_INT32"}}}, {"name": "statefulpartitionedcall_transformer_residual_residual1_conv2_weights", "op": "Const", "attr": {"value": {"tensor": {"dtype": "DT_FLOAT", "tensorShape": {"dim": [{"size": "3"}, {"size": "3"}, {"size": "128"}, {"size": "128"}]}}}, "dtype": {"type": "DT_FLOAT"}}}, {"name": "StatefulPartitionedCall/transformer/residual/residual1/conv2/StyleNorm/moments/mean/reduction_indices", "op": "Const", "attr": {"value": {"tensor": {"dtype": "DT_INT32", "tensorShape": {"dim": [{"size": "2"}]}}}, "dtype": {"type": "DT_INT32"}}}, {"name": "StatefulPartitionedCall/transformer/residual/residual1/conv2/StyleNorm/moments/variance/reduction_indices", "op": "Const", "attr": {"value": {"tensor": {"dtype": "DT_INT32", "tensorShape": {"dim": [{"size": "2"}]}}}, "dtype": {"type": "DT_INT32"}}}, {"name": "StatefulPartitionedCall/transformer/residual/residual1/conv2/StyleNorm/batchnorm/add/y", "op": "Const", "attr": {"value": {"tensor": {"dtype": "DT_FLOAT", "tensorShape": {}}}, "dtype": {"type": "DT_FLOAT"}}}, {"name": "statefulpartitionedcall_style_params_transformer_residual_residual1_conv2_stylenorm_conv_1_weights", "op": "Const", "attr": {"value": {"tensor": {"dtype": "DT_FLOAT", "tensorShape": {"dim": [{"size": "1"}, {"size": "1"}, {"size": "100"}, {"size": "128"}]}}}, "dtype": {"type": "DT_FLOAT"}}}, {"name": "statefulpartitionedcall_style_params_transformer_residual_residual1_conv2_stylenorm_conv_1_biases", "op": "Const", "attr": {"value": {"tensor": {"dtype": "DT_FLOAT", "tensorShape": {"dim": [{"size": "128"}]}}}, "dtype": {"type": "DT_FLOAT"}}}, {"name": "StatefulPartitionedCall/transformer/residual/residual1/conv2/StyleNorm/ExpandDims_2/dim", "op": "Const", "attr": {"value": {"tensor": {"dtype": "DT_INT32", "tensorShape": {}}}, "dtype": {"type": "DT_INT32"}}}, {"name": "StatefulPartitionedCall/transformer/residual/residual1/conv2/StyleNorm/ExpandDims_3/dim", "op": "Const", "attr": {"value": {"tensor": {"dtype": "DT_INT32", "tensorShape": {}}}, "dtype": {"type": "DT_INT32"}}}, {"name": "StatefulPartitionedCall/transformer/residual/residual2/MirrorPad/paddings", "op": "Const", "attr": {"value": {"tensor": {"dtype": "DT_INT32", "tensorShape": {"dim": [{"size": "4"}, {"size": "2"}]}}}, "dtype": {"type": "DT_INT32"}}}, {"name": "statefulpartitionedcall_transformer_residual_residual2_conv1_weights", "op": "Const", "attr": {"value": {"tensor": {"dtype": "DT_FLOAT", "tensorShape": {"dim": [{"size": "3"}, {"size": "3"}, {"size": "128"}, {"size": "128"}]}}}, "dtype": {"type": "DT_FLOAT"}}}, {"name": "StatefulPartitionedCall/transformer/residual/residual2/conv1/StyleNorm/moments/mean/reduction_indices", "op": "Const", "attr": {"value": {"tensor": {"dtype": "DT_INT32", "tensorShape": {"dim": [{"size": "2"}]}}}, "dtype": {"type": "DT_INT32"}}}, {"name": "StatefulPartitionedCall/transformer/residual/residual2/conv1/StyleNorm/moments/variance/reduction_indices", "op": "Const", "attr": {"value": {"tensor": {"dtype": "DT_INT32", "tensorShape": {"dim": [{"size": "2"}]}}}, "dtype": {"type": "DT_INT32"}}}, {"name": "StatefulPartitionedCall/transformer/residual/residual2/conv1/StyleNorm/batchnorm/add/y", "op": "Const", "attr": {"value": {"tensor": {"dtype": "DT_FLOAT", "tensorShape": {}}}, "dtype": {"type": "DT_FLOAT"}}}, {"name": "statefulpartitionedcall_style_params_transformer_residual_residual2_conv1_stylenorm_conv_1_weights", "op": "Const", "attr": {"value": {"tensor": {"dtype": "DT_FLOAT", "tensorShape": {"dim": [{"size": "1"}, {"size": "1"}, {"size": "100"}, {"size": "128"}]}}}, "dtype": {"type": "DT_FLOAT"}}}, {"name": "statefulpartitionedcall_style_params_transformer_residual_residual2_conv1_stylenorm_conv_1_biases", "op": "Const", "attr": {"dtype": {"type": "DT_FLOAT"}, "value": {"tensor": {"dtype": "DT_FLOAT", "tensorShape": {"dim": [{"size": "128"}]}}}}}, {"name": "StatefulPartitionedCall/transformer/residual/residual2/conv1/StyleNorm/ExpandDims_2/dim", "op": "Const", "attr": {"value": {"tensor": {"dtype": "DT_INT32", "tensorShape": {}}}, "dtype": {"type": "DT_INT32"}}}, {"name": "StatefulPartitionedCall/transformer/residual/residual2/conv1/StyleNorm/ExpandDims_3/dim", "op": "Const", "attr": {"value": {"tensor": {"dtype": "DT_INT32", "tensorShape": {}}}, "dtype": {"type": "DT_INT32"}}}, {"name": "StatefulPartitionedCall/transformer/residual/residual2/MirrorPad_1/paddings", "op": "Const", "attr": {"dtype": {"type": "DT_INT32"}, "value": {"tensor": {"dtype": "DT_INT32", "tensorShape": {"dim": [{"size": "4"}, {"size": "2"}]}}}}}, {"name": "statefulpartitionedcall_transformer_residual_residual2_conv2_weights", "op": "Const", "attr": {"value": {"tensor": {"dtype": "DT_FLOAT", "tensorShape": {"dim": [{"size": "3"}, {"size": "3"}, {"size": "128"}, {"size": "128"}]}}}, "dtype": {"type": "DT_FLOAT"}}}, {"name": "StatefulPartitionedCall/transformer/residual/residual2/conv2/StyleNorm/moments/mean/reduction_indices", "op": "Const", "attr": {"value": {"tensor": {"dtype": "DT_INT32", "tensorShape": {"dim": [{"size": "2"}]}}}, "dtype": {"type": "DT_INT32"}}}, {"name": "StatefulPartitionedCall/transformer/residual/residual2/conv2/StyleNorm/moments/variance/reduction_indices", "op": "Const", "attr": {"value": {"tensor": {"dtype": "DT_INT32", "tensorShape": {"dim": [{"size": "2"}]}}}, "dtype": {"type": "DT_INT32"}}}, {"name": "StatefulPartitionedCall/transformer/residual/residual2/conv2/StyleNorm/batchnorm/add/y", "op": "Const", "attr": {"value": {"tensor": {"dtype": "DT_FLOAT", "tensorShape": {}}}, "dtype": {"type": "DT_FLOAT"}}}, {"name": "statefulpartitionedcall_style_params_transformer_residual_residual2_conv2_stylenorm_conv_1_weights", "op": "Const", "attr": {"value": {"tensor": {"dtype": "DT_FLOAT", "tensorShape": {"dim": [{"size": "1"}, {"size": "1"}, {"size": "100"}, {"size": "128"}]}}}, "dtype": {"type": "DT_FLOAT"}}}, {"name": "statefulpartitionedcall_style_params_transformer_residual_residual2_conv2_stylenorm_conv_1_biases", "op": "Const", "attr": {"value": {"tensor": {"dtype": "DT_FLOAT", "tensorShape": {"dim": [{"size": "128"}]}}}, "dtype": {"type": "DT_FLOAT"}}}, {"name": "StatefulPartitionedCall/transformer/residual/residual2/conv2/StyleNorm/ExpandDims_2/dim", "op": "Const", "attr": {"value": {"tensor": {"dtype": "DT_INT32", "tensorShape": {}}}, "dtype": {"type": "DT_INT32"}}}, {"name": "StatefulPartitionedCall/transformer/residual/residual2/conv2/StyleNorm/ExpandDims_3/dim", "op": "Const", "attr": {"value": {"tensor": {"dtype": "DT_INT32", "tensorShape": {}}}, "dtype": {"type": "DT_INT32"}}}, {"name": "StatefulPartitionedCall/transformer/residual/residual3/MirrorPad/paddings", "op": "Const", "attr": {"value": {"tensor": {"dtype": "DT_INT32", "tensorShape": {"dim": [{"size": "4"}, {"size": "2"}]}}}, "dtype": {"type": "DT_INT32"}}}, {"name": "statefulpartitionedcall_transformer_residual_residual3_conv1_weights", "op": "Const", "attr": {"dtype": {"type": "DT_FLOAT"}, "value": {"tensor": {"dtype": "DT_FLOAT", "tensorShape": {"dim": [{"size": "3"}, {"size": "3"}, {"size": "128"}, {"size": "128"}]}}}}}, {"name": "StatefulPartitionedCall/transformer/residual/residual3/conv1/StyleNorm/moments/mean/reduction_indices", "op": "Const", "attr": {"value": {"tensor": {"dtype": "DT_INT32", "tensorShape": {"dim": [{"size": "2"}]}}}, "dtype": {"type": "DT_INT32"}}}, {"name": "StatefulPartitionedCall/transformer/residual/residual3/conv1/StyleNorm/moments/variance/reduction_indices", "op": "Const", "attr": {"value": {"tensor": {"dtype": "DT_INT32", "tensorShape": {"dim": [{"size": "2"}]}}}, "dtype": {"type": "DT_INT32"}}}, {"name": "StatefulPartitionedCall/transformer/residual/residual3/conv1/StyleNorm/batchnorm/add/y", "op": "Const", "attr": {"dtype": {"type": "DT_FLOAT"}, "value": {"tensor": {"dtype": "DT_FLOAT", "tensorShape": {}}}}}, {"name": "statefulpartitionedcall_style_params_transformer_residual_residual3_conv1_stylenorm_conv_1_weights", "op": "Const", "attr": {"value": {"tensor": {"dtype": "DT_FLOAT", "tensorShape": {"dim": [{"size": "1"}, {"size": "1"}, {"size": "100"}, {"size": "128"}]}}}, "dtype": {"type": "DT_FLOAT"}}}, {"name": "statefulpartitionedcall_style_params_transformer_residual_residual3_conv1_stylenorm_conv_1_biases", "op": "Const", "attr": {"value": {"tensor": {"dtype": "DT_FLOAT", "tensorShape": {"dim": [{"size": "128"}]}}}, "dtype": {"type": "DT_FLOAT"}}}, {"name": "StatefulPartitionedCall/transformer/residual/residual3/conv1/StyleNorm/ExpandDims_2/dim", "op": "Const", "attr": {"value": {"tensor": {"dtype": "DT_INT32", "tensorShape": {}}}, "dtype": {"type": "DT_INT32"}}}, {"name": "StatefulPartitionedCall/transformer/residual/residual3/conv1/StyleNorm/ExpandDims_3/dim", "op": "Const", "attr": {"value": {"tensor": {"dtype": "DT_INT32", "tensorShape": {}}}, "dtype": {"type": "DT_INT32"}}}, {"name": "StatefulPartitionedCall/transformer/residual/residual3/MirrorPad_1/paddings", "op": "Const", "attr": {"value": {"tensor": {"dtype": "DT_INT32", "tensorShape": {"dim": [{"size": "4"}, {"size": "2"}]}}}, "dtype": {"type": "DT_INT32"}}}, {"name": "statefulpartitionedcall_transformer_residual_residual3_conv2_weights", "op": "Const", "attr": {"value": {"tensor": {"dtype": "DT_FLOAT", "tensorShape": {"dim": [{"size": "3"}, {"size": "3"}, {"size": "128"}, {"size": "128"}]}}}, "dtype": {"type": "DT_FLOAT"}}}, {"name": "StatefulPartitionedCall/transformer/residual/residual3/conv2/StyleNorm/moments/mean/reduction_indices", "op": "Const", "attr": {"value": {"tensor": {"dtype": "DT_INT32", "tensorShape": {"dim": [{"size": "2"}]}}}, "dtype": {"type": "DT_INT32"}}}, {"name": "StatefulPartitionedCall/transformer/residual/residual3/conv2/StyleNorm/moments/variance/reduction_indices", "op": "Const", "attr": {"value": {"tensor": {"dtype": "DT_INT32", "tensorShape": {"dim": [{"size": "2"}]}}}, "dtype": {"type": "DT_INT32"}}}, {"name": "StatefulPartitionedCall/transformer/residual/residual3/conv2/StyleNorm/batchnorm/add/y", "op": "Const", "attr": {"value": {"tensor": {"dtype": "DT_FLOAT", "tensorShape": {}}}, "dtype": {"type": "DT_FLOAT"}}}, {"name": "statefulpartitionedcall_style_params_transformer_residual_residual3_conv2_stylenorm_conv_1_weights", "op": "Const", "attr": {"value": {"tensor": {"dtype": "DT_FLOAT", "tensorShape": {"dim": [{"size": "1"}, {"size": "1"}, {"size": "100"}, {"size": "128"}]}}}, "dtype": {"type": "DT_FLOAT"}}}, {"name": "statefulpartitionedcall_style_params_transformer_residual_residual3_conv2_stylenorm_conv_1_biases", "op": "Const", "attr": {"value": {"tensor": {"dtype": "DT_FLOAT", "tensorShape": {"dim": [{"size": "128"}]}}}, "dtype": {"type": "DT_FLOAT"}}}, {"name": "StatefulPartitionedCall/transformer/residual/residual3/conv2/StyleNorm/ExpandDims_2/dim", "op": "Const", "attr": {"value": {"tensor": {"dtype": "DT_INT32", "tensorShape": {}}}, "dtype": {"type": "DT_INT32"}}}, {"name": "StatefulPartitionedCall/transformer/residual/residual3/conv2/StyleNorm/ExpandDims_3/dim", "op": "Const", "attr": {"value": {"tensor": {"dtype": "DT_INT32", "tensorShape": {}}}, "dtype": {"type": "DT_INT32"}}}, {"name": "StatefulPartitionedCall/transformer/residual/residual4/MirrorPad/paddings", "op": "Const", "attr": {"value": {"tensor": {"dtype": "DT_INT32", "tensorShape": {"dim": [{"size": "4"}, {"size": "2"}]}}}, "dtype": {"type": "DT_INT32"}}}, {"name": "statefulpartitionedcall_transformer_residual_residual4_conv1_weights", "op": "Const", "attr": {"value": {"tensor": {"dtype": "DT_FLOAT", "tensorShape": {"dim": [{"size": "3"}, {"size": "3"}, {"size": "128"}, {"size": "128"}]}}}, "dtype": {"type": "DT_FLOAT"}}}, {"name": "StatefulPartitionedCall/transformer/residual/residual4/conv1/StyleNorm/moments/mean/reduction_indices", "op": "Const", "attr": {"value": {"tensor": {"dtype": "DT_INT32", "tensorShape": {"dim": [{"size": "2"}]}}}, "dtype": {"type": "DT_INT32"}}}, {"name": "StatefulPartitionedCall/transformer/residual/residual4/conv1/StyleNorm/moments/variance/reduction_indices", "op": "Const", "attr": {"value": {"tensor": {"dtype": "DT_INT32", "tensorShape": {"dim": [{"size": "2"}]}}}, "dtype": {"type": "DT_INT32"}}}, {"name": "StatefulPartitionedCall/transformer/residual/residual4/conv1/StyleNorm/batchnorm/add/y", "op": "Const", "attr": {"value": {"tensor": {"dtype": "DT_FLOAT", "tensorShape": {}}}, "dtype": {"type": "DT_FLOAT"}}}, {"name": "statefulpartitionedcall_style_params_transformer_residual_residual4_conv1_stylenorm_conv_1_weights", "op": "Const", "attr": {"value": {"tensor": {"dtype": "DT_FLOAT", "tensorShape": {"dim": [{"size": "1"}, {"size": "1"}, {"size": "100"}, {"size": "128"}]}}}, "dtype": {"type": "DT_FLOAT"}}}, {"name": "statefulpartitionedcall_style_params_transformer_residual_residual4_conv1_stylenorm_conv_1_biases", "op": "Const", "attr": {"value": {"tensor": {"dtype": "DT_FLOAT", "tensorShape": {"dim": [{"size": "128"}]}}}, "dtype": {"type": "DT_FLOAT"}}}, {"name": "StatefulPartitionedCall/transformer/residual/residual4/conv1/StyleNorm/ExpandDims_2/dim", "op": "Const", "attr": {"value": {"tensor": {"dtype": "DT_INT32", "tensorShape": {}}}, "dtype": {"type": "DT_INT32"}}}, {"name": "StatefulPartitionedCall/transformer/residual/residual4/conv1/StyleNorm/ExpandDims_3/dim", "op": "Const", "attr": {"value": {"tensor": {"dtype": "DT_INT32", "tensorShape": {}}}, "dtype": {"type": "DT_INT32"}}}, {"name": "StatefulPartitionedCall/transformer/residual/residual4/MirrorPad_1/paddings", "op": "Const", "attr": {"value": {"tensor": {"dtype": "DT_INT32", "tensorShape": {"dim": [{"size": "4"}, {"size": "2"}]}}}, "dtype": {"type": "DT_INT32"}}}, {"name": "statefulpartitionedcall_transformer_residual_residual4_conv2_weights", "op": "Const", "attr": {"value": {"tensor": {"dtype": "DT_FLOAT", "tensorShape": {"dim": [{"size": "3"}, {"size": "3"}, {"size": "128"}, {"size": "128"}]}}}, "dtype": {"type": "DT_FLOAT"}}}, {"name": "StatefulPartitionedCall/transformer/residual/residual4/conv2/StyleNorm/moments/mean/reduction_indices", "op": "Const", "attr": {"value": {"tensor": {"dtype": "DT_INT32", "tensorShape": {"dim": [{"size": "2"}]}}}, "dtype": {"type": "DT_INT32"}}}, {"name": "StatefulPartitionedCall/transformer/residual/residual4/conv2/StyleNorm/moments/variance/reduction_indices", "op": "Const", "attr": {"value": {"tensor": {"dtype": "DT_INT32", "tensorShape": {"dim": [{"size": "2"}]}}}, "dtype": {"type": "DT_INT32"}}}, {"name": "StatefulPartitionedCall/transformer/residual/residual4/conv2/StyleNorm/batchnorm/add/y", "op": "Const", "attr": {"value": {"tensor": {"dtype": "DT_FLOAT", "tensorShape": {}}}, "dtype": {"type": "DT_FLOAT"}}}, {"name": "statefulpartitionedcall_style_params_transformer_residual_residual4_conv2_stylenorm_conv_1_weights", "op": "Const", "attr": {"value": {"tensor": {"dtype": "DT_FLOAT", "tensorShape": {"dim": [{"size": "1"}, {"size": "1"}, {"size": "100"}, {"size": "128"}]}}}, "dtype": {"type": "DT_FLOAT"}}}, {"name": "statefulpartitionedcall_style_params_transformer_residual_residual4_conv2_stylenorm_conv_1_biases", "op": "Const", "attr": {"value": {"tensor": {"dtype": "DT_FLOAT", "tensorShape": {"dim": [{"size": "128"}]}}}, "dtype": {"type": "DT_FLOAT"}}}, {"name": "StatefulPartitionedCall/transformer/residual/residual4/conv2/StyleNorm/ExpandDims_2/dim", "op": "Const", "attr": {"value": {"tensor": {"dtype": "DT_INT32", "tensorShape": {}}}, "dtype": {"type": "DT_INT32"}}}, {"name": "StatefulPartitionedCall/transformer/residual/residual4/conv2/StyleNorm/ExpandDims_3/dim", "op": "Const", "attr": {"value": {"tensor": {"dtype": "DT_INT32", "tensorShape": {}}}, "dtype": {"type": "DT_INT32"}}}, {"name": "StatefulPartitionedCall/transformer/residual/residual5/MirrorPad/paddings", "op": "Const", "attr": {"value": {"tensor": {"dtype": "DT_INT32", "tensorShape": {"dim": [{"size": "4"}, {"size": "2"}]}}}, "dtype": {"type": "DT_INT32"}}}, {"name": "statefulpartitionedcall_transformer_residual_residual5_conv1_weights", "op": "Const", "attr": {"value": {"tensor": {"dtype": "DT_FLOAT", "tensorShape": {"dim": [{"size": "3"}, {"size": "3"}, {"size": "128"}, {"size": "128"}]}}}, "dtype": {"type": "DT_FLOAT"}}}, {"name": "StatefulPartitionedCall/transformer/residual/residual5/conv1/StyleNorm/moments/mean/reduction_indices", "op": "Const", "attr": {"value": {"tensor": {"dtype": "DT_INT32", "tensorShape": {"dim": [{"size": "2"}]}}}, "dtype": {"type": "DT_INT32"}}}, {"name": "StatefulPartitionedCall/transformer/residual/residual5/conv1/StyleNorm/moments/variance/reduction_indices", "op": "Const", "attr": {"value": {"tensor": {"dtype": "DT_INT32", "tensorShape": {"dim": [{"size": "2"}]}}}, "dtype": {"type": "DT_INT32"}}}, {"name": "StatefulPartitionedCall/transformer/residual/residual5/conv1/StyleNorm/batchnorm/add/y", "op": "Const", "attr": {"value": {"tensor": {"dtype": "DT_FLOAT", "tensorShape": {}}}, "dtype": {"type": "DT_FLOAT"}}}, {"name": "statefulpartitionedcall_style_params_transformer_residual_residual5_conv1_stylenorm_conv_1_weights", "op": "Const", "attr": {"value": {"tensor": {"dtype": "DT_FLOAT", "tensorShape": {"dim": [{"size": "1"}, {"size": "1"}, {"size": "100"}, {"size": "128"}]}}}, "dtype": {"type": "DT_FLOAT"}}}, {"name": "statefulpartitionedcall_style_params_transformer_residual_residual5_conv1_stylenorm_conv_1_biases", "op": "Const", "attr": {"value": {"tensor": {"dtype": "DT_FLOAT", "tensorShape": {"dim": [{"size": "128"}]}}}, "dtype": {"type": "DT_FLOAT"}}}, {"name": "StatefulPartitionedCall/transformer/residual/residual5/conv1/StyleNorm/ExpandDims_2/dim", "op": "Const", "attr": {"value": {"tensor": {"dtype": "DT_INT32", "tensorShape": {}}}, "dtype": {"type": "DT_INT32"}}}, {"name": "StatefulPartitionedCall/transformer/residual/residual5/conv1/StyleNorm/ExpandDims_3/dim", "op": "Const", "attr": {"value": {"tensor": {"dtype": "DT_INT32", "tensorShape": {}}}, "dtype": {"type": "DT_INT32"}}}, {"name": "StatefulPartitionedCall/transformer/residual/residual5/MirrorPad_1/paddings", "op": "Const", "attr": {"dtype": {"type": "DT_INT32"}, "value": {"tensor": {"dtype": "DT_INT32", "tensorShape": {"dim": [{"size": "4"}, {"size": "2"}]}}}}}, {"name": "statefulpartitionedcall_transformer_residual_residual5_conv2_weights", "op": "Const", "attr": {"value": {"tensor": {"dtype": "DT_FLOAT", "tensorShape": {"dim": [{"size": "3"}, {"size": "3"}, {"size": "128"}, {"size": "128"}]}}}, "dtype": {"type": "DT_FLOAT"}}}, {"name": "StatefulPartitionedCall/transformer/residual/residual5/conv2/StyleNorm/moments/mean/reduction_indices", "op": "Const", "attr": {"dtype": {"type": "DT_INT32"}, "value": {"tensor": {"dtype": "DT_INT32", "tensorShape": {"dim": [{"size": "2"}]}}}}}, {"name": "StatefulPartitionedCall/transformer/residual/residual5/conv2/StyleNorm/moments/variance/reduction_indices", "op": "Const", "attr": {"value": {"tensor": {"dtype": "DT_INT32", "tensorShape": {"dim": [{"size": "2"}]}}}, "dtype": {"type": "DT_INT32"}}}, {"name": "StatefulPartitionedCall/transformer/residual/residual5/conv2/StyleNorm/batchnorm/add/y", "op": "Const", "attr": {"value": {"tensor": {"dtype": "DT_FLOAT", "tensorShape": {}}}, "dtype": {"type": "DT_FLOAT"}}}, {"name": "statefulpartitionedcall_style_params_transformer_residual_residual5_conv2_stylenorm_conv_1_weights", "op": "Const", "attr": {"value": {"tensor": {"dtype": "DT_FLOAT", "tensorShape": {"dim": [{"size": "1"}, {"size": "1"}, {"size": "100"}, {"size": "128"}]}}}, "dtype": {"type": "DT_FLOAT"}}}, {"name": "statefulpartitionedcall_style_params_transformer_residual_residual5_conv2_stylenorm_conv_1_biases", "op": "Const", "attr": {"value": {"tensor": {"dtype": "DT_FLOAT", "tensorShape": {"dim": [{"size": "128"}]}}}, "dtype": {"type": "DT_FLOAT"}}}, {"name": "StatefulPartitionedCall/transformer/residual/residual5/conv2/StyleNorm/ExpandDims_2/dim", "op": "Const", "attr": {"value": {"tensor": {"dtype": "DT_INT32", "tensorShape": {}}}, "dtype": {"type": "DT_INT32"}}}, {"name": "StatefulPartitionedCall/transformer/residual/residual5/conv2/StyleNorm/ExpandDims_3/dim", "op": "Const", "attr": {"value": {"tensor": {"dtype": "DT_INT32", "tensorShape": {}}}, "dtype": {"type": "DT_INT32"}}}, {"name": "StatefulPartitionedCall/transformer/expand/conv1/strided_slice_1/stack", "op": "Const", "attr": {"value": {"tensor": {"dtype": "DT_INT32", "tensorShape": {"dim": [{"size": "1"}]}}}, "dtype": {"type": "DT_INT32"}}}, {"name": "StatefulPartitionedCall/transformer/expand/conv1/strided_slice_1/stack_1", "op": "Const", "attr": {"value": {"tensor": {"dtype": "DT_INT32", "tensorShape": {"dim": [{"size": "1"}]}}}, "dtype": {"type": "DT_INT32"}}}, {"name": "StatefulPartitionedCall/transformer/expand/conv1/strided_slice_1/stack_2", "op": "Const", "attr": {"value": {"tensor": {"dtype": "DT_INT32", "tensorShape": {"dim": [{"size": "1"}]}}}, "dtype": {"type": "DT_INT32"}}}, {"name": "StatefulPartitionedCall/transformer/expand/conv1/MirrorPad/paddings", "op": "Const", "attr": {"dtype": {"type": "DT_INT32"}, "value": {"tensor": {"dtype": "DT_INT32", "tensorShape": {"dim": [{"size": "4"}, {"size": "2"}]}}}}}, {"name": "statefulpartitionedcall_transformer_expand_conv1_conv_weights", "op": "Const", "attr": {"value": {"tensor": {"dtype": "DT_FLOAT", "tensorShape": {"dim": [{"size": "3"}, {"size": "3"}, {"size": "128"}, {"size": "64"}]}}}, "dtype": {"type": "DT_FLOAT"}}}, {"name": "StatefulPartitionedCall/transformer/expand/conv1/conv/StyleNorm/moments/mean/reduction_indices", "op": "Const", "attr": {"dtype": {"type": "DT_INT32"}, "value": {"tensor": {"dtype": "DT_INT32", "tensorShape": {"dim": [{"size": "2"}]}}}}}, {"name": "StatefulPartitionedCall/transformer/expand/conv1/conv/StyleNorm/moments/variance/reduction_indices", "op": "Const", "attr": {"value": {"tensor": {"dtype": "DT_INT32", "tensorShape": {"dim": [{"size": "2"}]}}}, "dtype": {"type": "DT_INT32"}}}, {"name": "StatefulPartitionedCall/transformer/expand/conv1/conv/StyleNorm/batchnorm/add/y", "op": "Const", "attr": {"value": {"tensor": {"dtype": "DT_FLOAT", "tensorShape": {}}}, "dtype": {"type": "DT_FLOAT"}}}, {"name": "statefulpartitionedcall_style_params_transformer_expand_conv1_conv_stylenorm_conv_1_weights", "op": "Const", "attr": {"dtype": {"type": "DT_FLOAT"}, "value": {"tensor": {"dtype": "DT_FLOAT", "tensorShape": {"dim": [{"size": "1"}, {"size": "1"}, {"size": "100"}, {"size": "64"}]}}}}}, {"name": "statefulpartitionedcall_style_params_transformer_expand_conv1_conv_stylenorm_conv_1_biases", "op": "Const", "attr": {"value": {"tensor": {"dtype": "DT_FLOAT", "tensorShape": {"dim": [{"size": "64"}]}}}, "dtype": {"type": "DT_FLOAT"}}}, {"name": "StatefulPartitionedCall/transformer/expand/conv1/conv/StyleNorm/ExpandDims_2/dim", "op": "Const", "attr": {"value": {"tensor": {"dtype": "DT_INT32", "tensorShape": {}}}, "dtype": {"type": "DT_INT32"}}}, {"name": "StatefulPartitionedCall/transformer/expand/conv1/conv/StyleNorm/ExpandDims_3/dim", "op": "Const", "attr": {"value": {"tensor": {"dtype": "DT_INT32", "tensorShape": {}}}, "dtype": {"type": "DT_INT32"}}}, {"name": "StatefulPartitionedCall/transformer/expand/conv2/strided_slice_1/stack", "op": "Const", "attr": {"value": {"tensor": {"dtype": "DT_INT32", "tensorShape": {"dim": [{"size": "1"}]}}}, "dtype": {"type": "DT_INT32"}}}, {"name": "StatefulPartitionedCall/transformer/expand/conv2/strided_slice_1/stack_1", "op": "Const", "attr": {"value": {"tensor": {"dtype": "DT_INT32", "tensorShape": {"dim": [{"size": "1"}]}}}, "dtype": {"type": "DT_INT32"}}}, {"name": "StatefulPartitionedCall/transformer/expand/conv2/strided_slice_1/stack_2", "op": "Const", "attr": {"value": {"tensor": {"dtype": "DT_INT32", "tensorShape": {"dim": [{"size": "1"}]}}}, "dtype": {"type": "DT_INT32"}}}, {"name": "StatefulPartitionedCall/transformer/expand/conv2/MirrorPad/paddings", "op": "Const", "attr": {"value": {"tensor": {"dtype": "DT_INT32", "tensorShape": {"dim": [{"size": "4"}, {"size": "2"}]}}}, "dtype": {"type": "DT_INT32"}}}, {"name": "statefulpartitionedcall_transformer_expand_conv2_conv_weights", "op": "Const", "attr": {"value": {"tensor": {"dtype": "DT_FLOAT", "tensorShape": {"dim": [{"size": "3"}, {"size": "3"}, {"size": "64"}, {"size": "32"}]}}}, "dtype": {"type": "DT_FLOAT"}}}, {"name": "StatefulPartitionedCall/transformer/expand/conv2/conv/StyleNorm/moments/mean/reduction_indices", "op": "Const", "attr": {"value": {"tensor": {"dtype": "DT_INT32", "tensorShape": {"dim": [{"size": "2"}]}}}, "dtype": {"type": "DT_INT32"}}}, {"name": "StatefulPartitionedCall/transformer/expand/conv2/conv/StyleNorm/moments/variance/reduction_indices", "op": "Const", "attr": {"value": {"tensor": {"dtype": "DT_INT32", "tensorShape": {"dim": [{"size": "2"}]}}}, "dtype": {"type": "DT_INT32"}}}, {"name": "StatefulPartitionedCall/transformer/expand/conv2/conv/StyleNorm/batchnorm/add/y", "op": "Const", "attr": {"value": {"tensor": {"dtype": "DT_FLOAT", "tensorShape": {}}}, "dtype": {"type": "DT_FLOAT"}}}, {"name": "statefulpartitionedcall_style_params_transformer_expand_conv2_conv_stylenorm_conv_1_weights", "op": "Const", "attr": {"value": {"tensor": {"dtype": "DT_FLOAT", "tensorShape": {"dim": [{"size": "1"}, {"size": "1"}, {"size": "100"}, {"size": "32"}]}}}, "dtype": {"type": "DT_FLOAT"}}}, {"name": "statefulpartitionedcall_style_params_transformer_expand_conv2_conv_stylenorm_conv_1_biases", "op": "Const", "attr": {"value": {"tensor": {"dtype": "DT_FLOAT", "tensorShape": {"dim": [{"size": "32"}]}}}, "dtype": {"type": "DT_FLOAT"}}}, {"name": "StatefulPartitionedCall/transformer/expand/conv2/conv/StyleNorm/ExpandDims_2/dim", "op": "Const", "attr": {"value": {"tensor": {"dtype": "DT_INT32", "tensorShape": {}}}, "dtype": {"type": "DT_INT32"}}}, {"name": "StatefulPartitionedCall/transformer/expand/conv2/conv/StyleNorm/ExpandDims_3/dim", "op": "Const", "attr": {"value": {"tensor": {"dtype": "DT_INT32", "tensorShape": {}}}, "dtype": {"type": "DT_INT32"}}}, {"name": "StatefulPartitionedCall/transformer/expand/conv3/strided_slice_1/stack", "op": "Const", "attr": {"value": {"tensor": {"dtype": "DT_INT32", "tensorShape": {"dim": [{"size": "1"}]}}}, "dtype": {"type": "DT_INT32"}}}, {"name": "StatefulPartitionedCall/transformer/expand/conv3/strided_slice_1/stack_1", "op": "Const", "attr": {"value": {"tensor": {"dtype": "DT_INT32", "tensorShape": {"dim": [{"size": "1"}]}}}, "dtype": {"type": "DT_INT32"}}}, {"name": "StatefulPartitionedCall/transformer/expand/conv3/strided_slice_1/stack_2", "op": "Const", "attr": {"value": {"tensor": {"dtype": "DT_INT32", "tensorShape": {"dim": [{"size": "1"}]}}}, "dtype": {"type": "DT_INT32"}}}, {"name": "StatefulPartitionedCall/transformer/expand/conv3/MirrorPad/paddings", "op": "Const", "attr": {"value": {"tensor": {"dtype": "DT_INT32", "tensorShape": {"dim": [{"size": "4"}, {"size": "2"}]}}}, "dtype": {"type": "DT_INT32"}}}, {"name": "statefulpartitionedcall_transformer_expand_conv3_conv_weights", "op": "Const", "attr": {"value": {"tensor": {"dtype": "DT_FLOAT", "tensorShape": {"dim": [{"size": "9"}, {"size": "9"}, {"size": "32"}, {"size": "3"}]}}}, "dtype": {"type": "DT_FLOAT"}}}, {"name": "StatefulPartitionedCall/transformer/expand/conv3/conv/StyleNorm/moments/mean/reduction_indices", "op": "Const", "attr": {"value": {"tensor": {"dtype": "DT_INT32", "tensorShape": {"dim": [{"size": "2"}]}}}, "dtype": {"type": "DT_INT32"}}}, {"name": "StatefulPartitionedCall/transformer/expand/conv3/conv/StyleNorm/moments/variance/reduction_indices", "op": "Const", "attr": {"dtype": {"type": "DT_INT32"}, "value": {"tensor": {"dtype": "DT_INT32", "tensorShape": {"dim": [{"size": "2"}]}}}}}, {"name": "StatefulPartitionedCall/transformer/expand/conv3/conv/StyleNorm/batchnorm/add/y", "op": "Const", "attr": {"dtype": {"type": "DT_FLOAT"}, "value": {"tensor": {"dtype": "DT_FLOAT", "tensorShape": {}}}}}, {"name": "StatefulPartitionedCall/InceptionV3/Mixed_5b/concat/axis", "op": "Const", "attr": {"value": {"tensor": {"dtype": "DT_INT32", "tensorShape": {}}}, "dtype": {"type": "DT_INT32"}}}, {"name": "StatefulPartitionedCall/InceptionV3/Mixed_5c/concat/axis", "op": "Const", "attr": {"value": {"tensor": {"dtype": "DT_INT32", "tensorShape": {}}}, "dtype": {"type": "DT_INT32"}}}, {"name": "StatefulPartitionedCall/InceptionV3/Mixed_5d/concat/axis", "op": "Const", "attr": {"value": {"tensor": {"dtype": "DT_INT32", "tensorShape": {}}}, "dtype": {"type": "DT_INT32"}}}, {"name": "StatefulPartitionedCall/InceptionV3/Mixed_6a/concat/axis", "op": "Const", "attr": {"value": {"tensor": {"dtype": "DT_INT32", "tensorShape": {}}}, "dtype": {"type": "DT_INT32"}}}, {"name": "StatefulPartitionedCall/InceptionV3/Mixed_6b/concat/axis", "op": "Const", "attr": {"value": {"tensor": {"dtype": "DT_INT32", "tensorShape": {}}}, "dtype": {"type": "DT_INT32"}}}, {"name": "StatefulPartitionedCall/InceptionV3/Mixed_6c/concat/axis", "op": "Const", "attr": {"value": {"tensor": {"dtype": "DT_INT32", "tensorShape": {}}}, "dtype": {"type": "DT_INT32"}}}, {"name": "StatefulPartitionedCall/InceptionV3/Mixed_6d/concat/axis", "op": "Const", "attr": {"value": {"tensor": {"dtype": "DT_INT32", "tensorShape": {}}}, "dtype": {"type": "DT_INT32"}}}, {"name": "StatefulPartitionedCall/InceptionV3/Mixed_6e/concat/axis", "op": "Const", "attr": {"value": {"tensor": {"dtype": "DT_INT32", "tensorShape": {}}}, "dtype": {"type": "DT_INT32"}}}, {"name": "StatefulPartitionedCall/bottleneck/Mean/reduction_indices", "op": "Const", "attr": {"value": {"tensor": {"dtype": "DT_INT32", "tensorShape": {"dim": [{"size": "2"}]}}}, "dtype": {"type": "DT_INT32"}}}, {"name": "statefulpartitionedcall_conv_weights", "op": "Const", "attr": {"value": {"tensor": {"dtype": "DT_FLOAT", "tensorShape": {"dim": [{"size": "1"}, {"size": "1"}, {"size": "768"}, {"size": "100"}]}}}, "dtype": {"type": "DT_FLOAT"}}}, {"name": "statefulpartitionedcall_conv_biases", "op": "Const", "attr": {"value": {"tensor": {"dtype": "DT_FLOAT", "tensorShape": {"dim": [{"size": "100"}]}}}, "dtype": {"type": "DT_FLOAT"}}}, {"name": "statefulpartitionedcall_style_params_transformer_expand_conv3_conv_stylenorm_conv_1_weights", "op": "Const", "attr": {"value": {"tensor": {"dtype": "DT_FLOAT", "tensorShape": {"dim": [{"size": "1"}, {"size": "1"}, {"size": "100"}, {"size": "3"}]}}}, "dtype": {"type": "DT_FLOAT"}}}, {"name": "statefulpartitionedcall_style_params_transformer_expand_conv3_conv_stylenorm_conv_1_biases", "op": "Const", "attr": {"value": {"tensor": {"dtype": "DT_FLOAT", "tensorShape": {"dim": [{"size": "3"}]}}}, "dtype": {"type": "DT_FLOAT"}}}, {"name": "StatefulPartitionedCall/transformer/expand/conv3/conv/StyleNorm/ExpandDims_2/dim", "op": "Const", "attr": {"value": {"tensor": {"dtype": "DT_INT32", "tensorShape": {}}}, "dtype": {"type": "DT_INT32"}}}, {"name": "StatefulPartitionedCall/transformer/expand/conv3/conv/StyleNorm/ExpandDims_3/dim", "op": "Const", "attr": {"value": {"tensor": {"dtype": "DT_INT32", "tensorShape": {}}}, "dtype": {"type": "DT_INT32"}}}, {"name": "placeholder", "op": "Placeholder", "attr": {"dtype": {"type": "DT_FLOAT"}, "shape": {"shape": {"dim": [{"size": "-1"}, {"size": "-1"}, {"size": "-1"}, {"size": "3"}]}}}}, {"name": "placeholder_1", "op": "Placeholder", "attr": {"dtype": {"type": "DT_FLOAT"}, "shape": {"shape": {"dim": [{"size": "-1"}, {"size": "-1"}, {"size": "-1"}, {"size": "3"}]}}}}, {"name": "StatefulPartitionedCall/InceptionV3/Conv2d_1a_3x3/Conv2D_weights", "op": "Const", "attr": {"value": {"tensor": {"dtype": "DT_FLOAT", "tensorShape": {"dim": [{"size": "3"}, {"size": "3"}, {"size": "3"}, {"size": "32"}]}}}, "dtype": {"type": "DT_FLOAT"}}}, {"name": "StatefulPartitionedCall/InceptionV3/Conv2d_1a_3x3/Conv2D_bn_offset", "op": "Const", "attr": {"dtype": {"type": "DT_FLOAT"}, "value": {"tensor": {"dtype": "DT_FLOAT", "tensorShape": {"dim": [{"size": "32"}]}}}}}, {"name": "StatefulPartitionedCall/transformer/contract/conv1/Conv2D_weights", "op": "Const", "attr": {"value": {"tensor": {"dtype": "DT_FLOAT", "tensorShape": {"dim": [{"size": "9"}, {"size": "9"}, {"size": "3"}, {"size": "32"}]}}}, "dtype": {"type": "DT_FLOAT"}}}, {"name": "StatefulPartitionedCall/transformer/contract/conv1/Conv2D_bn_offset", "op": "Const", "attr": {"value": {"tensor": {"dtype": "DT_FLOAT", "tensorShape": {"dim": [{"size": "32"}]}}}, "dtype": {"type": "DT_FLOAT"}}}, {"name": "StatefulPartitionedCall/InceptionV3/Conv2d_2a_3x3/Conv2D_weights", "op": "Const", "attr": {"value": {"tensor": {"dtype": "DT_FLOAT", "tensorShape": {"dim": [{"size": "3"}, {"size": "3"}, {"size": "32"}, {"size": "32"}]}}}, "dtype": {"type": "DT_FLOAT"}}}, {"name": "StatefulPartitionedCall/InceptionV3/Conv2d_2a_3x3/Conv2D_bn_offset", "op": "Const", "attr": {"value": {"tensor": {"dtype": "DT_FLOAT", "tensorShape": {"dim": [{"size": "32"}]}}}, "dtype": {"type": "DT_FLOAT"}}}, {"name": "StatefulPartitionedCall/transformer/contract/conv2/Conv2D_weights", "op": "Const", "attr": {"value": {"tensor": {"dtype": "DT_FLOAT", "tensorShape": {"dim": [{"size": "3"}, {"size": "3"}, {"size": "32"}, {"size": "64"}]}}}, "dtype": {"type": "DT_FLOAT"}}}, {"name": "StatefulPartitionedCall/transformer/contract/conv2/Conv2D_bn_offset", "op": "Const", "attr": {"value": {"tensor": {"dtype": "DT_FLOAT", "tensorShape": {"dim": [{"size": "64"}]}}}, "dtype": {"type": "DT_FLOAT"}}}, {"name": "StatefulPartitionedCall/InceptionV3/Conv2d_2b_3x3/Conv2D_weights", "op": "Const", "attr": {"dtype": {"type": "DT_FLOAT"}, "value": {"tensor": {"dtype": "DT_FLOAT", "tensorShape": {"dim": [{"size": "3"}, {"size": "3"}, {"size": "32"}, {"size": "64"}]}}}}}, {"name": "StatefulPartitionedCall/InceptionV3/Conv2d_2b_3x3/Conv2D_bn_offset", "op": "Const", "attr": {"dtype": {"type": "DT_FLOAT"}, "value": {"tensor": {"dtype": "DT_FLOAT", "tensorShape": {"dim": [{"size": "64"}]}}}}}, {"name": "StatefulPartitionedCall/transformer/contract/conv3/Conv2D_weights", "op": "Const", "attr": {"value": {"tensor": {"dtype": "DT_FLOAT", "tensorShape": {"dim": [{"size": "3"}, {"size": "3"}, {"size": "64"}, {"size": "128"}]}}}, "dtype": {"type": "DT_FLOAT"}}}, {"name": "StatefulPartitionedCall/transformer/contract/conv3/Conv2D_bn_offset", "op": "Const", "attr": {"value": {"tensor": {"dtype": "DT_FLOAT", "tensorShape": {"dim": [{"size": "128"}]}}}, "dtype": {"type": "DT_FLOAT"}}}, {"name": "StatefulPartitionedCall/InceptionV3/Conv2d_3b_1x1/Conv2D_weights", "op": "Const", "attr": {"value": {"tensor": {"dtype": "DT_FLOAT", "tensorShape": {"dim": [{"size": "1"}, {"size": "1"}, {"size": "64"}, {"size": "80"}]}}}, "dtype": {"type": "DT_FLOAT"}}}, {"name": "StatefulPartitionedCall/InceptionV3/Conv2d_3b_1x1/Conv2D_bn_offset", "op": "Const", "attr": {"value": {"tensor": {"dtype": "DT_FLOAT", "tensorShape": {"dim": [{"size": "80"}]}}}, "dtype": {"type": "DT_FLOAT"}}}, {"name": "StatefulPartitionedCall/InceptionV3/Conv2d_4a_3x3/Conv2D_weights", "op": "Const", "attr": {"value": {"tensor": {"dtype": "DT_FLOAT", "tensorShape": {"dim": [{"size": "3"}, {"size": "3"}, {"size": "80"}, {"size": "192"}]}}}, "dtype": {"type": "DT_FLOAT"}}}, {"name": "StatefulPartitionedCall/InceptionV3/Conv2d_4a_3x3/Conv2D_bn_offset", "op": "Const", "attr": {"value": {"tensor": {"dtype": "DT_FLOAT", "tensorShape": {"dim": [{"size": "192"}]}}}, "dtype": {"type": "DT_FLOAT"}}}, {"name": "StatefulPartitionedCall/InceptionV3/Mixed_5b/Branch_0/Conv2d_0a_1x1/Conv2D_weights", "op": "Const", "attr": {"value": {"tensor": {"dtype": "DT_FLOAT", "tensorShape": {"dim": [{"size": "1"}, {"size": "1"}, {"size": "192"}, {"size": "64"}]}}}, "dtype": {"type": "DT_FLOAT"}}}, {"name": "StatefulPartitionedCall/InceptionV3/Mixed_5b/Branch_0/Conv2d_0a_1x1/Conv2D_bn_offset", "op": "Const", "attr": {"value": {"tensor": {"dtype": "DT_FLOAT", "tensorShape": {"dim": [{"size": "64"}]}}}, "dtype": {"type": "DT_FLOAT"}}}, {"name": "StatefulPartitionedCall/InceptionV3/Mixed_5b/Branch_1/Conv2d_0a_1x1/Conv2D_weights", "op": "Const", "attr": {"dtype": {"type": "DT_FLOAT"}, "value": {"tensor": {"dtype": "DT_FLOAT", "tensorShape": {"dim": [{"size": "1"}, {"size": "1"}, {"size": "192"}, {"size": "48"}]}}}}}, {"name": "StatefulPartitionedCall/InceptionV3/Mixed_5b/Branch_1/Conv2d_0a_1x1/Conv2D_bn_offset", "op": "Const", "attr": {"value": {"tensor": {"dtype": "DT_FLOAT", "tensorShape": {"dim": [{"size": "48"}]}}}, "dtype": {"type": "DT_FLOAT"}}}, {"name": "StatefulPartitionedCall/InceptionV3/Mixed_5b/Branch_2/Conv2d_0a_1x1/Conv2D_weights", "op": "Const", "attr": {"value": {"tensor": {"dtype": "DT_FLOAT", "tensorShape": {"dim": [{"size": "1"}, {"size": "1"}, {"size": "192"}, {"size": "64"}]}}}, "dtype": {"type": "DT_FLOAT"}}}, {"name": "StatefulPartitionedCall/InceptionV3/Mixed_5b/Branch_2/Conv2d_0a_1x1/Conv2D_bn_offset", "op": "Const", "attr": {"value": {"tensor": {"dtype": "DT_FLOAT", "tensorShape": {"dim": [{"size": "64"}]}}}, "dtype": {"type": "DT_FLOAT"}}}, {"name": "StatefulPartitionedCall/InceptionV3/Mixed_5b/Branch_3/Conv2d_0b_1x1/Conv2D_weights", "op": "Const", "attr": {"value": {"tensor": {"dtype": "DT_FLOAT", "tensorShape": {"dim": [{"size": "1"}, {"size": "1"}, {"size": "192"}, {"size": "32"}]}}}, "dtype": {"type": "DT_FLOAT"}}}, {"name": "StatefulPartitionedCall/InceptionV3/Mixed_5b/Branch_3/Conv2d_0b_1x1/Conv2D_bn_offset", "op": "Const", "attr": {"value": {"tensor": {"dtype": "DT_FLOAT", "tensorShape": {"dim": [{"size": "32"}]}}}, "dtype": {"type": "DT_FLOAT"}}}, {"name": "StatefulPartitionedCall/InceptionV3/Mixed_5b/Branch_1/Conv2d_0b_5x5/Conv2D_weights", "op": "Const", "attr": {"value": {"tensor": {"dtype": "DT_FLOAT", "tensorShape": {"dim": [{"size": "5"}, {"size": "5"}, {"size": "48"}, {"size": "64"}]}}}, "dtype": {"type": "DT_FLOAT"}}}, {"name": "StatefulPartitionedCall/InceptionV3/Mixed_5b/Branch_1/Conv2d_0b_5x5/Conv2D_bn_offset", "op": "Const", "attr": {"value": {"tensor": {"dtype": "DT_FLOAT", "tensorShape": {"dim": [{"size": "64"}]}}}, "dtype": {"type": "DT_FLOAT"}}}, {"name": "StatefulPartitionedCall/InceptionV3/Mixed_5b/Branch_2/Conv2d_0b_3x3/Conv2D_weights", "op": "Const", "attr": {"value": {"tensor": {"dtype": "DT_FLOAT", "tensorShape": {"dim": [{"size": "3"}, {"size": "3"}, {"size": "64"}, {"size": "96"}]}}}, "dtype": {"type": "DT_FLOAT"}}}, {"name": "StatefulPartitionedCall/InceptionV3/Mixed_5b/Branch_2/Conv2d_0b_3x3/Conv2D_bn_offset", "op": "Const", "attr": {"dtype": {"type": "DT_FLOAT"}, "value": {"tensor": {"dtype": "DT_FLOAT", "tensorShape": {"dim": [{"size": "96"}]}}}}}, {"name": "StatefulPartitionedCall/InceptionV3/Mixed_5b/Branch_2/Conv2d_0c_3x3/Conv2D_weights", "op": "Const", "attr": {"value": {"tensor": {"dtype": "DT_FLOAT", "tensorShape": {"dim": [{"size": "3"}, {"size": "3"}, {"size": "96"}, {"size": "96"}]}}}, "dtype": {"type": "DT_FLOAT"}}}, {"name": "StatefulPartitionedCall/InceptionV3/Mixed_5b/Branch_2/Conv2d_0c_3x3/Conv2D_bn_offset", "op": "Const", "attr": {"value": {"tensor": {"dtype": "DT_FLOAT", "tensorShape": {"dim": [{"size": "96"}]}}}, "dtype": {"type": "DT_FLOAT"}}}, {"name": "StatefulPartitionedCall/InceptionV3/Mixed_5c/Branch_0/Conv2d_0a_1x1/Conv2D_weights", "op": "Const", "attr": {"value": {"tensor": {"dtype": "DT_FLOAT", "tensorShape": {"dim": [{"size": "1"}, {"size": "1"}, {"size": "256"}, {"size": "64"}]}}}, "dtype": {"type": "DT_FLOAT"}}}, {"name": "StatefulPartitionedCall/InceptionV3/Mixed_5c/Branch_0/Conv2d_0a_1x1/Conv2D_bn_offset", "op": "Const", "attr": {"value": {"tensor": {"dtype": "DT_FLOAT", "tensorShape": {"dim": [{"size": "64"}]}}}, "dtype": {"type": "DT_FLOAT"}}}, {"name": "StatefulPartitionedCall/InceptionV3/Mixed_5c/Branch_1/Conv2d_0b_1x1/Conv2D_weights", "op": "Const", "attr": {"value": {"tensor": {"dtype": "DT_FLOAT", "tensorShape": {"dim": [{"size": "1"}, {"size": "1"}, {"size": "256"}, {"size": "48"}]}}}, "dtype": {"type": "DT_FLOAT"}}}, {"name": "StatefulPartitionedCall/InceptionV3/Mixed_5c/Branch_1/Conv2d_0b_1x1/Conv2D_bn_offset", "op": "Const", "attr": {"value": {"tensor": {"dtype": "DT_FLOAT", "tensorShape": {"dim": [{"size": "48"}]}}}, "dtype": {"type": "DT_FLOAT"}}}, {"name": "StatefulPartitionedCall/InceptionV3/Mixed_5c/Branch_2/Conv2d_0a_1x1/Conv2D_weights", "op": "Const", "attr": {"value": {"tensor": {"dtype": "DT_FLOAT", "tensorShape": {"dim": [{"size": "1"}, {"size": "1"}, {"size": "256"}, {"size": "64"}]}}}, "dtype": {"type": "DT_FLOAT"}}}, {"name": "StatefulPartitionedCall/InceptionV3/Mixed_5c/Branch_2/Conv2d_0a_1x1/Conv2D_bn_offset", "op": "Const", "attr": {"value": {"tensor": {"dtype": "DT_FLOAT", "tensorShape": {"dim": [{"size": "64"}]}}}, "dtype": {"type": "DT_FLOAT"}}}, {"name": "StatefulPartitionedCall/InceptionV3/Mixed_5c/Branch_3/Conv2d_0b_1x1/Conv2D_weights", "op": "Const", "attr": {"dtype": {"type": "DT_FLOAT"}, "value": {"tensor": {"dtype": "DT_FLOAT", "tensorShape": {"dim": [{"size": "1"}, {"size": "1"}, {"size": "256"}, {"size": "64"}]}}}}}, {"name": "StatefulPartitionedCall/InceptionV3/Mixed_5c/Branch_3/Conv2d_0b_1x1/Conv2D_bn_offset", "op": "Const", "attr": {"value": {"tensor": {"dtype": "DT_FLOAT", "tensorShape": {"dim": [{"size": "64"}]}}}, "dtype": {"type": "DT_FLOAT"}}}, {"name": "StatefulPartitionedCall/InceptionV3/Mixed_5c/Branch_1/Conv_1_0c_5x5/Conv2D_weights", "op": "Const", "attr": {"value": {"tensor": {"dtype": "DT_FLOAT", "tensorShape": {"dim": [{"size": "5"}, {"size": "5"}, {"size": "48"}, {"size": "64"}]}}}, "dtype": {"type": "DT_FLOAT"}}}, {"name": "StatefulPartitionedCall/InceptionV3/Mixed_5c/Branch_1/Conv_1_0c_5x5/Conv2D_bn_offset", "op": "Const", "attr": {"value": {"tensor": {"dtype": "DT_FLOAT", "tensorShape": {"dim": [{"size": "64"}]}}}, "dtype": {"type": "DT_FLOAT"}}}, {"name": "StatefulPartitionedCall/InceptionV3/Mixed_5c/Branch_2/Conv2d_0b_3x3/Conv2D_weights", "op": "Const", "attr": {"value": {"tensor": {"dtype": "DT_FLOAT", "tensorShape": {"dim": [{"size": "3"}, {"size": "3"}, {"size": "64"}, {"size": "96"}]}}}, "dtype": {"type": "DT_FLOAT"}}}, {"name": "StatefulPartitionedCall/InceptionV3/Mixed_5c/Branch_2/Conv2d_0b_3x3/Conv2D_bn_offset", "op": "Const", "attr": {"value": {"tensor": {"dtype": "DT_FLOAT", "tensorShape": {"dim": [{"size": "96"}]}}}, "dtype": {"type": "DT_FLOAT"}}}, {"name": "StatefulPartitionedCall/InceptionV3/Mixed_5c/Branch_2/Conv2d_0c_3x3/Conv2D_weights", "op": "Const", "attr": {"dtype": {"type": "DT_FLOAT"}, "value": {"tensor": {"dtype": "DT_FLOAT", "tensorShape": {"dim": [{"size": "3"}, {"size": "3"}, {"size": "96"}, {"size": "96"}]}}}}}, {"name": "StatefulPartitionedCall/InceptionV3/Mixed_5c/Branch_2/Conv2d_0c_3x3/Conv2D_bn_offset", "op": "Const", "attr": {"value": {"tensor": {"dtype": "DT_FLOAT", "tensorShape": {"dim": [{"size": "96"}]}}}, "dtype": {"type": "DT_FLOAT"}}}, {"name": "StatefulPartitionedCall/InceptionV3/Mixed_5d/Branch_0/Conv2d_0a_1x1/Conv2D_weights", "op": "Const", "attr": {"value": {"tensor": {"dtype": "DT_FLOAT", "tensorShape": {"dim": [{"size": "1"}, {"size": "1"}, {"size": "288"}, {"size": "64"}]}}}, "dtype": {"type": "DT_FLOAT"}}}, {"name": "StatefulPartitionedCall/InceptionV3/Mixed_5d/Branch_0/Conv2d_0a_1x1/Conv2D_bn_offset", "op": "Const", "attr": {"value": {"tensor": {"dtype": "DT_FLOAT", "tensorShape": {"dim": [{"size": "64"}]}}}, "dtype": {"type": "DT_FLOAT"}}}, {"name": "StatefulPartitionedCall/InceptionV3/Mixed_5d/Branch_1/Conv2d_0a_1x1/Conv2D_weights", "op": "Const", "attr": {"value": {"tensor": {"dtype": "DT_FLOAT", "tensorShape": {"dim": [{"size": "1"}, {"size": "1"}, {"size": "288"}, {"size": "48"}]}}}, "dtype": {"type": "DT_FLOAT"}}}, {"name": "StatefulPartitionedCall/InceptionV3/Mixed_5d/Branch_1/Conv2d_0a_1x1/Conv2D_bn_offset", "op": "Const", "attr": {"value": {"tensor": {"dtype": "DT_FLOAT", "tensorShape": {"dim": [{"size": "48"}]}}}, "dtype": {"type": "DT_FLOAT"}}}, {"name": "StatefulPartitionedCall/InceptionV3/Mixed_5d/Branch_2/Conv2d_0a_1x1/Conv2D_weights", "op": "Const", "attr": {"dtype": {"type": "DT_FLOAT"}, "value": {"tensor": {"dtype": "DT_FLOAT", "tensorShape": {"dim": [{"size": "1"}, {"size": "1"}, {"size": "288"}, {"size": "64"}]}}}}}, {"name": "StatefulPartitionedCall/InceptionV3/Mixed_5d/Branch_2/Conv2d_0a_1x1/Conv2D_bn_offset", "op": "Const", "attr": {"value": {"tensor": {"dtype": "DT_FLOAT", "tensorShape": {"dim": [{"size": "64"}]}}}, "dtype": {"type": "DT_FLOAT"}}}, {"name": "StatefulPartitionedCall/InceptionV3/Mixed_5d/Branch_3/Conv2d_0b_1x1/Conv2D_weights", "op": "Const", "attr": {"value": {"tensor": {"dtype": "DT_FLOAT", "tensorShape": {"dim": [{"size": "1"}, {"size": "1"}, {"size": "288"}, {"size": "64"}]}}}, "dtype": {"type": "DT_FLOAT"}}}, {"name": "StatefulPartitionedCall/InceptionV3/Mixed_5d/Branch_3/Conv2d_0b_1x1/Conv2D_bn_offset", "op": "Const", "attr": {"value": {"tensor": {"dtype": "DT_FLOAT", "tensorShape": {"dim": [{"size": "64"}]}}}, "dtype": {"type": "DT_FLOAT"}}}, {"name": "StatefulPartitionedCall/InceptionV3/Mixed_5d/Branch_1/Conv2d_0b_5x5/Conv2D_weights", "op": "Const", "attr": {"value": {"tensor": {"dtype": "DT_FLOAT", "tensorShape": {"dim": [{"size": "5"}, {"size": "5"}, {"size": "48"}, {"size": "64"}]}}}, "dtype": {"type": "DT_FLOAT"}}}, {"name": "StatefulPartitionedCall/InceptionV3/Mixed_5d/Branch_1/Conv2d_0b_5x5/Conv2D_bn_offset", "op": "Const", "attr": {"value": {"tensor": {"dtype": "DT_FLOAT", "tensorShape": {"dim": [{"size": "64"}]}}}, "dtype": {"type": "DT_FLOAT"}}}, {"name": "StatefulPartitionedCall/InceptionV3/Mixed_5d/Branch_2/Conv2d_0b_3x3/Conv2D_weights", "op": "Const", "attr": {"value": {"tensor": {"dtype": "DT_FLOAT", "tensorShape": {"dim": [{"size": "3"}, {"size": "3"}, {"size": "64"}, {"size": "96"}]}}}, "dtype": {"type": "DT_FLOAT"}}}, {"name": "StatefulPartitionedCall/InceptionV3/Mixed_5d/Branch_2/Conv2d_0b_3x3/Conv2D_bn_offset", "op": "Const", "attr": {"value": {"tensor": {"dtype": "DT_FLOAT", "tensorShape": {"dim": [{"size": "96"}]}}}, "dtype": {"type": "DT_FLOAT"}}}, {"name": "StatefulPartitionedCall/InceptionV3/Mixed_5d/Branch_2/Conv2d_0c_3x3/Conv2D_weights", "op": "Const", "attr": {"value": {"tensor": {"dtype": "DT_FLOAT", "tensorShape": {"dim": [{"size": "3"}, {"size": "3"}, {"size": "96"}, {"size": "96"}]}}}, "dtype": {"type": "DT_FLOAT"}}}, {"name": "StatefulPartitionedCall/InceptionV3/Mixed_5d/Branch_2/Conv2d_0c_3x3/Conv2D_bn_offset", "op": "Const", "attr": {"value": {"tensor": {"dtype": "DT_FLOAT", "tensorShape": {"dim": [{"size": "96"}]}}}, "dtype": {"type": "DT_FLOAT"}}}, {"name": "StatefulPartitionedCall/InceptionV3/Mixed_6a/Branch_0/Conv2d_1a_1x1/Conv2D_weights", "op": "Const", "attr": {"value": {"tensor": {"dtype": "DT_FLOAT", "tensorShape": {"dim": [{"size": "3"}, {"size": "3"}, {"size": "288"}, {"size": "384"}]}}}, "dtype": {"type": "DT_FLOAT"}}}, {"name": "StatefulPartitionedCall/InceptionV3/Mixed_6a/Branch_0/Conv2d_1a_1x1/Conv2D_bn_offset", "op": "Const", "attr": {"value": {"tensor": {"dtype": "DT_FLOAT", "tensorShape": {"dim": [{"size": "384"}]}}}, "dtype": {"type": "DT_FLOAT"}}}, {"name": "StatefulPartitionedCall/InceptionV3/Mixed_6a/Branch_1/Conv2d_0a_1x1/Conv2D_weights", "op": "Const", "attr": {"value": {"tensor": {"dtype": "DT_FLOAT", "tensorShape": {"dim": [{"size": "1"}, {"size": "1"}, {"size": "288"}, {"size": "64"}]}}}, "dtype": {"type": "DT_FLOAT"}}}, {"name": "StatefulPartitionedCall/InceptionV3/Mixed_6a/Branch_1/Conv2d_0a_1x1/Conv2D_bn_offset", "op": "Const", "attr": {"value": {"tensor": {"dtype": "DT_FLOAT", "tensorShape": {"dim": [{"size": "64"}]}}}, "dtype": {"type": "DT_FLOAT"}}}, {"name": "StatefulPartitionedCall/InceptionV3/Mixed_6a/Branch_1/Conv2d_0b_3x3/Conv2D_weights", "op": "Const", "attr": {"dtype": {"type": "DT_FLOAT"}, "value": {"tensor": {"dtype": "DT_FLOAT", "tensorShape": {"dim": [{"size": "3"}, {"size": "3"}, {"size": "64"}, {"size": "96"}]}}}}}, {"name": "StatefulPartitionedCall/InceptionV3/Mixed_6a/Branch_1/Conv2d_0b_3x3/Conv2D_bn_offset", "op": "Const", "attr": {"value": {"tensor": {"dtype": "DT_FLOAT", "tensorShape": {"dim": [{"size": "96"}]}}}, "dtype": {"type": "DT_FLOAT"}}}, {"name": "StatefulPartitionedCall/InceptionV3/Mixed_6a/Branch_1/Conv2d_1a_1x1/Conv2D_weights", "op": "Const", "attr": {"value": {"tensor": {"dtype": "DT_FLOAT", "tensorShape": {"dim": [{"size": "3"}, {"size": "3"}, {"size": "96"}, {"size": "96"}]}}}, "dtype": {"type": "DT_FLOAT"}}}, {"name": "StatefulPartitionedCall/InceptionV3/Mixed_6a/Branch_1/Conv2d_1a_1x1/Conv2D_bn_offset", "op": "Const", "attr": {"value": {"tensor": {"dtype": "DT_FLOAT", "tensorShape": {"dim": [{"size": "96"}]}}}, "dtype": {"type": "DT_FLOAT"}}}, {"name": "StatefulPartitionedCall/InceptionV3/Mixed_6b/Branch_0/Conv2d_0a_1x1/Conv2D_weights", "op": "Const", "attr": {"value": {"tensor": {"dtype": "DT_FLOAT", "tensorShape": {"dim": [{"size": "1"}, {"size": "1"}, {"size": "768"}, {"size": "192"}]}}}, "dtype": {"type": "DT_FLOAT"}}}, {"name": "StatefulPartitionedCall/InceptionV3/Mixed_6b/Branch_0/Conv2d_0a_1x1/Conv2D_bn_offset", "op": "Const", "attr": {"value": {"tensor": {"dtype": "DT_FLOAT", "tensorShape": {"dim": [{"size": "192"}]}}}, "dtype": {"type": "DT_FLOAT"}}}, {"name": "StatefulPartitionedCall/InceptionV3/Mixed_6b/Branch_1/Conv2d_0a_1x1/Conv2D_weights", "op": "Const", "attr": {"value": {"tensor": {"dtype": "DT_FLOAT", "tensorShape": {"dim": [{"size": "1"}, {"size": "1"}, {"size": "768"}, {"size": "128"}]}}}, "dtype": {"type": "DT_FLOAT"}}}, {"name": "StatefulPartitionedCall/InceptionV3/Mixed_6b/Branch_1/Conv2d_0a_1x1/Conv2D_bn_offset", "op": "Const", "attr": {"value": {"tensor": {"dtype": "DT_FLOAT", "tensorShape": {"dim": [{"size": "128"}]}}}, "dtype": {"type": "DT_FLOAT"}}}, {"name": "StatefulPartitionedCall/InceptionV3/Mixed_6b/Branch_2/Conv2d_0a_1x1/Conv2D_weights", "op": "Const", "attr": {"value": {"tensor": {"dtype": "DT_FLOAT", "tensorShape": {"dim": [{"size": "1"}, {"size": "1"}, {"size": "768"}, {"size": "128"}]}}}, "dtype": {"type": "DT_FLOAT"}}}, {"name": "StatefulPartitionedCall/InceptionV3/Mixed_6b/Branch_2/Conv2d_0a_1x1/Conv2D_bn_offset", "op": "Const", "attr": {"value": {"tensor": {"dtype": "DT_FLOAT", "tensorShape": {"dim": [{"size": "128"}]}}}, "dtype": {"type": "DT_FLOAT"}}}, {"name": "StatefulPartitionedCall/InceptionV3/Mixed_6b/Branch_3/Conv2d_0b_1x1/Conv2D_weights", "op": "Const", "attr": {"value": {"tensor": {"dtype": "DT_FLOAT", "tensorShape": {"dim": [{"size": "1"}, {"size": "1"}, {"size": "768"}, {"size": "192"}]}}}, "dtype": {"type": "DT_FLOAT"}}}, {"name": "StatefulPartitionedCall/InceptionV3/Mixed_6b/Branch_3/Conv2d_0b_1x1/Conv2D_bn_offset", "op": "Const", "attr": {"value": {"tensor": {"dtype": "DT_FLOAT", "tensorShape": {"dim": [{"size": "192"}]}}}, "dtype": {"type": "DT_FLOAT"}}}, {"name": "StatefulPartitionedCall/InceptionV3/Mixed_6b/Branch_1/Conv2d_0b_1x7/Conv2D_weights", "op": "Const", "attr": {"value": {"tensor": {"dtype": "DT_FLOAT", "tensorShape": {"dim": [{"size": "1"}, {"size": "7"}, {"size": "128"}, {"size": "128"}]}}}, "dtype": {"type": "DT_FLOAT"}}}, {"name": "StatefulPartitionedCall/InceptionV3/Mixed_6b/Branch_1/Conv2d_0b_1x7/Conv2D_bn_offset", "op": "Const", "attr": {"value": {"tensor": {"dtype": "DT_FLOAT", "tensorShape": {"dim": [{"size": "128"}]}}}, "dtype": {"type": "DT_FLOAT"}}}, {"name": "StatefulPartitionedCall/InceptionV3/Mixed_6b/Branch_2/Conv2d_0b_7x1/Conv2D_weights", "op": "Const", "attr": {"value": {"tensor": {"dtype": "DT_FLOAT", "tensorShape": {"dim": [{"size": "7"}, {"size": "1"}, {"size": "128"}, {"size": "128"}]}}}, "dtype": {"type": "DT_FLOAT"}}}, {"name": "StatefulPartitionedCall/InceptionV3/Mixed_6b/Branch_2/Conv2d_0b_7x1/Conv2D_bn_offset", "op": "Const", "attr": {"value": {"tensor": {"dtype": "DT_FLOAT", "tensorShape": {"dim": [{"size": "128"}]}}}, "dtype": {"type": "DT_FLOAT"}}}, {"name": "StatefulPartitionedCall/InceptionV3/Mixed_6b/Branch_1/Conv2d_0c_7x1/Conv2D_weights", "op": "Const", "attr": {"value": {"tensor": {"dtype": "DT_FLOAT", "tensorShape": {"dim": [{"size": "7"}, {"size": "1"}, {"size": "128"}, {"size": "192"}]}}}, "dtype": {"type": "DT_FLOAT"}}}, {"name": "StatefulPartitionedCall/InceptionV3/Mixed_6b/Branch_1/Conv2d_0c_7x1/Conv2D_bn_offset", "op": "Const", "attr": {"value": {"tensor": {"dtype": "DT_FLOAT", "tensorShape": {"dim": [{"size": "192"}]}}}, "dtype": {"type": "DT_FLOAT"}}}, {"name": "StatefulPartitionedCall/InceptionV3/Mixed_6b/Branch_2/Conv2d_0c_1x7/Conv2D_weights", "op": "Const", "attr": {"value": {"tensor": {"dtype": "DT_FLOAT", "tensorShape": {"dim": [{"size": "1"}, {"size": "7"}, {"size": "128"}, {"size": "128"}]}}}, "dtype": {"type": "DT_FLOAT"}}}, {"name": "StatefulPartitionedCall/InceptionV3/Mixed_6b/Branch_2/Conv2d_0c_1x7/Conv2D_bn_offset", "op": "Const", "attr": {"value": {"tensor": {"dtype": "DT_FLOAT", "tensorShape": {"dim": [{"size": "128"}]}}}, "dtype": {"type": "DT_FLOAT"}}}, {"name": "StatefulPartitionedCall/InceptionV3/Mixed_6b/Branch_2/Conv2d_0d_7x1/Conv2D_weights", "op": "Const", "attr": {"value": {"tensor": {"dtype": "DT_FLOAT", "tensorShape": {"dim": [{"size": "7"}, {"size": "1"}, {"size": "128"}, {"size": "128"}]}}}, "dtype": {"type": "DT_FLOAT"}}}, {"name": "StatefulPartitionedCall/InceptionV3/Mixed_6b/Branch_2/Conv2d_0d_7x1/Conv2D_bn_offset", "op": "Const", "attr": {"value": {"tensor": {"dtype": "DT_FLOAT", "tensorShape": {"dim": [{"size": "128"}]}}}, "dtype": {"type": "DT_FLOAT"}}}, {"name": "StatefulPartitionedCall/InceptionV3/Mixed_6b/Branch_2/Conv2d_0e_1x7/Conv2D_weights", "op": "Const", "attr": {"value": {"tensor": {"dtype": "DT_FLOAT", "tensorShape": {"dim": [{"size": "1"}, {"size": "7"}, {"size": "128"}, {"size": "192"}]}}}, "dtype": {"type": "DT_FLOAT"}}}, {"name": "StatefulPartitionedCall/InceptionV3/Mixed_6b/Branch_2/Conv2d_0e_1x7/Conv2D_bn_offset", "op": "Const", "attr": {"value": {"tensor": {"dtype": "DT_FLOAT", "tensorShape": {"dim": [{"size": "192"}]}}}, "dtype": {"type": "DT_FLOAT"}}}, {"name": "StatefulPartitionedCall/InceptionV3/Mixed_6c/Branch_0/Conv2d_0a_1x1/Conv2D_weights", "op": "Const", "attr": {"value": {"tensor": {"dtype": "DT_FLOAT", "tensorShape": {"dim": [{"size": "1"}, {"size": "1"}, {"size": "768"}, {"size": "192"}]}}}, "dtype": {"type": "DT_FLOAT"}}}, {"name": "StatefulPartitionedCall/InceptionV3/Mixed_6c/Branch_0/Conv2d_0a_1x1/Conv2D_bn_offset", "op": "Const", "attr": {"value": {"tensor": {"dtype": "DT_FLOAT", "tensorShape": {"dim": [{"size": "192"}]}}}, "dtype": {"type": "DT_FLOAT"}}}, {"name": "StatefulPartitionedCall/InceptionV3/Mixed_6c/Branch_1/Conv2d_0a_1x1/Conv2D_weights", "op": "Const", "attr": {"value": {"tensor": {"dtype": "DT_FLOAT", "tensorShape": {"dim": [{"size": "1"}, {"size": "1"}, {"size": "768"}, {"size": "160"}]}}}, "dtype": {"type": "DT_FLOAT"}}}, {"name": "StatefulPartitionedCall/InceptionV3/Mixed_6c/Branch_1/Conv2d_0a_1x1/Conv2D_bn_offset", "op": "Const", "attr": {"dtype": {"type": "DT_FLOAT"}, "value": {"tensor": {"dtype": "DT_FLOAT", "tensorShape": {"dim": [{"size": "160"}]}}}}}, {"name": "StatefulPartitionedCall/InceptionV3/Mixed_6c/Branch_2/Conv2d_0a_1x1/Conv2D_weights", "op": "Const", "attr": {"value": {"tensor": {"dtype": "DT_FLOAT", "tensorShape": {"dim": [{"size": "1"}, {"size": "1"}, {"size": "768"}, {"size": "160"}]}}}, "dtype": {"type": "DT_FLOAT"}}}, {"name": "StatefulPartitionedCall/InceptionV3/Mixed_6c/Branch_2/Conv2d_0a_1x1/Conv2D_bn_offset", "op": "Const", "attr": {"value": {"tensor": {"dtype": "DT_FLOAT", "tensorShape": {"dim": [{"size": "160"}]}}}, "dtype": {"type": "DT_FLOAT"}}}, {"name": "StatefulPartitionedCall/InceptionV3/Mixed_6c/Branch_3/Conv2d_0b_1x1/Conv2D_weights", "op": "Const", "attr": {"value": {"tensor": {"dtype": "DT_FLOAT", "tensorShape": {"dim": [{"size": "1"}, {"size": "1"}, {"size": "768"}, {"size": "192"}]}}}, "dtype": {"type": "DT_FLOAT"}}}, {"name": "StatefulPartitionedCall/InceptionV3/Mixed_6c/Branch_3/Conv2d_0b_1x1/Conv2D_bn_offset", "op": "Const", "attr": {"value": {"tensor": {"dtype": "DT_FLOAT", "tensorShape": {"dim": [{"size": "192"}]}}}, "dtype": {"type": "DT_FLOAT"}}}, {"name": "StatefulPartitionedCall/InceptionV3/Mixed_6c/Branch_1/Conv2d_0b_1x7/Conv2D_weights", "op": "Const", "attr": {"value": {"tensor": {"dtype": "DT_FLOAT", "tensorShape": {"dim": [{"size": "1"}, {"size": "7"}, {"size": "160"}, {"size": "160"}]}}}, "dtype": {"type": "DT_FLOAT"}}}, {"name": "StatefulPartitionedCall/InceptionV3/Mixed_6c/Branch_1/Conv2d_0b_1x7/Conv2D_bn_offset", "op": "Const", "attr": {"value": {"tensor": {"dtype": "DT_FLOAT", "tensorShape": {"dim": [{"size": "160"}]}}}, "dtype": {"type": "DT_FLOAT"}}}, {"name": "StatefulPartitionedCall/InceptionV3/Mixed_6c/Branch_2/Conv2d_0b_7x1/Conv2D_weights", "op": "Const", "attr": {"value": {"tensor": {"dtype": "DT_FLOAT", "tensorShape": {"dim": [{"size": "7"}, {"size": "1"}, {"size": "160"}, {"size": "160"}]}}}, "dtype": {"type": "DT_FLOAT"}}}, {"name": "StatefulPartitionedCall/InceptionV3/Mixed_6c/Branch_2/Conv2d_0b_7x1/Conv2D_bn_offset", "op": "Const", "attr": {"dtype": {"type": "DT_FLOAT"}, "value": {"tensor": {"dtype": "DT_FLOAT", "tensorShape": {"dim": [{"size": "160"}]}}}}}, {"name": "StatefulPartitionedCall/InceptionV3/Mixed_6c/Branch_1/Conv2d_0c_7x1/Conv2D_weights", "op": "Const", "attr": {"value": {"tensor": {"dtype": "DT_FLOAT", "tensorShape": {"dim": [{"size": "7"}, {"size": "1"}, {"size": "160"}, {"size": "192"}]}}}, "dtype": {"type": "DT_FLOAT"}}}, {"name": "StatefulPartitionedCall/InceptionV3/Mixed_6c/Branch_1/Conv2d_0c_7x1/Conv2D_bn_offset", "op": "Const", "attr": {"value": {"tensor": {"dtype": "DT_FLOAT", "tensorShape": {"dim": [{"size": "192"}]}}}, "dtype": {"type": "DT_FLOAT"}}}, {"name": "StatefulPartitionedCall/InceptionV3/Mixed_6c/Branch_2/Conv2d_0c_1x7/Conv2D_weights", "op": "Const", "attr": {"value": {"tensor": {"dtype": "DT_FLOAT", "tensorShape": {"dim": [{"size": "1"}, {"size": "7"}, {"size": "160"}, {"size": "160"}]}}}, "dtype": {"type": "DT_FLOAT"}}}, {"name": "StatefulPartitionedCall/InceptionV3/Mixed_6c/Branch_2/Conv2d_0c_1x7/Conv2D_bn_offset", "op": "Const", "attr": {"value": {"tensor": {"dtype": "DT_FLOAT", "tensorShape": {"dim": [{"size": "160"}]}}}, "dtype": {"type": "DT_FLOAT"}}}, {"name": "StatefulPartitionedCall/InceptionV3/Mixed_6c/Branch_2/Conv2d_0d_7x1/Conv2D_weights", "op": "Const", "attr": {"value": {"tensor": {"dtype": "DT_FLOAT", "tensorShape": {"dim": [{"size": "7"}, {"size": "1"}, {"size": "160"}, {"size": "160"}]}}}, "dtype": {"type": "DT_FLOAT"}}}, {"name": "StatefulPartitionedCall/InceptionV3/Mixed_6c/Branch_2/Conv2d_0d_7x1/Conv2D_bn_offset", "op": "Const", "attr": {"value": {"tensor": {"dtype": "DT_FLOAT", "tensorShape": {"dim": [{"size": "160"}]}}}, "dtype": {"type": "DT_FLOAT"}}}, {"name": "StatefulPartitionedCall/InceptionV3/Mixed_6c/Branch_2/Conv2d_0e_1x7/Conv2D_weights", "op": "Const", "attr": {"value": {"tensor": {"dtype": "DT_FLOAT", "tensorShape": {"dim": [{"size": "1"}, {"size": "7"}, {"size": "160"}, {"size": "192"}]}}}, "dtype": {"type": "DT_FLOAT"}}}, {"name": "StatefulPartitionedCall/InceptionV3/Mixed_6c/Branch_2/Conv2d_0e_1x7/Conv2D_bn_offset", "op": "Const", "attr": {"value": {"tensor": {"dtype": "DT_FLOAT", "tensorShape": {"dim": [{"size": "192"}]}}}, "dtype": {"type": "DT_FLOAT"}}}, {"name": "StatefulPartitionedCall/InceptionV3/Mixed_6d/Branch_0/Conv2d_0a_1x1/Conv2D_weights", "op": "Const", "attr": {"dtype": {"type": "DT_FLOAT"}, "value": {"tensor": {"dtype": "DT_FLOAT", "tensorShape": {"dim": [{"size": "1"}, {"size": "1"}, {"size": "768"}, {"size": "192"}]}}}}}, {"name": "StatefulPartitionedCall/InceptionV3/Mixed_6d/Branch_0/Conv2d_0a_1x1/Conv2D_bn_offset", "op": "Const", "attr": {"value": {"tensor": {"dtype": "DT_FLOAT", "tensorShape": {"dim": [{"size": "192"}]}}}, "dtype": {"type": "DT_FLOAT"}}}, {"name": "StatefulPartitionedCall/InceptionV3/Mixed_6d/Branch_1/Conv2d_0a_1x1/Conv2D_weights", "op": "Const", "attr": {"dtype": {"type": "DT_FLOAT"}, "value": {"tensor": {"dtype": "DT_FLOAT", "tensorShape": {"dim": [{"size": "1"}, {"size": "1"}, {"size": "768"}, {"size": "160"}]}}}}}, {"name": "StatefulPartitionedCall/InceptionV3/Mixed_6d/Branch_1/Conv2d_0a_1x1/Conv2D_bn_offset", "op": "Const", "attr": {"value": {"tensor": {"dtype": "DT_FLOAT", "tensorShape": {"dim": [{"size": "160"}]}}}, "dtype": {"type": "DT_FLOAT"}}}, {"name": "StatefulPartitionedCall/InceptionV3/Mixed_6d/Branch_2/Conv2d_0a_1x1/Conv2D_weights", "op": "Const", "attr": {"value": {"tensor": {"dtype": "DT_FLOAT", "tensorShape": {"dim": [{"size": "1"}, {"size": "1"}, {"size": "768"}, {"size": "160"}]}}}, "dtype": {"type": "DT_FLOAT"}}}, {"name": "StatefulPartitionedCall/InceptionV3/Mixed_6d/Branch_2/Conv2d_0a_1x1/Conv2D_bn_offset", "op": "Const", "attr": {"value": {"tensor": {"dtype": "DT_FLOAT", "tensorShape": {"dim": [{"size": "160"}]}}}, "dtype": {"type": "DT_FLOAT"}}}, {"name": "StatefulPartitionedCall/InceptionV3/Mixed_6d/Branch_3/Conv2d_0b_1x1/Conv2D_weights", "op": "Const", "attr": {"value": {"tensor": {"dtype": "DT_FLOAT", "tensorShape": {"dim": [{"size": "1"}, {"size": "1"}, {"size": "768"}, {"size": "192"}]}}}, "dtype": {"type": "DT_FLOAT"}}}, {"name": "StatefulPartitionedCall/InceptionV3/Mixed_6d/Branch_3/Conv2d_0b_1x1/Conv2D_bn_offset", "op": "Const", "attr": {"value": {"tensor": {"dtype": "DT_FLOAT", "tensorShape": {"dim": [{"size": "192"}]}}}, "dtype": {"type": "DT_FLOAT"}}}, {"name": "StatefulPartitionedCall/InceptionV3/Mixed_6d/Branch_1/Conv2d_0b_1x7/Conv2D_weights", "op": "Const", "attr": {"value": {"tensor": {"dtype": "DT_FLOAT", "tensorShape": {"dim": [{"size": "1"}, {"size": "7"}, {"size": "160"}, {"size": "160"}]}}}, "dtype": {"type": "DT_FLOAT"}}}, {"name": "StatefulPartitionedCall/InceptionV3/Mixed_6d/Branch_1/Conv2d_0b_1x7/Conv2D_bn_offset", "op": "Const", "attr": {"value": {"tensor": {"dtype": "DT_FLOAT", "tensorShape": {"dim": [{"size": "160"}]}}}, "dtype": {"type": "DT_FLOAT"}}}, {"name": "StatefulPartitionedCall/InceptionV3/Mixed_6d/Branch_2/Conv2d_0b_7x1/Conv2D_weights", "op": "Const", "attr": {"value": {"tensor": {"dtype": "DT_FLOAT", "tensorShape": {"dim": [{"size": "7"}, {"size": "1"}, {"size": "160"}, {"size": "160"}]}}}, "dtype": {"type": "DT_FLOAT"}}}, {"name": "StatefulPartitionedCall/InceptionV3/Mixed_6d/Branch_2/Conv2d_0b_7x1/Conv2D_bn_offset", "op": "Const", "attr": {"value": {"tensor": {"dtype": "DT_FLOAT", "tensorShape": {"dim": [{"size": "160"}]}}}, "dtype": {"type": "DT_FLOAT"}}}, {"name": "StatefulPartitionedCall/InceptionV3/Mixed_6d/Branch_1/Conv2d_0c_7x1/Conv2D_weights", "op": "Const", "attr": {"dtype": {"type": "DT_FLOAT"}, "value": {"tensor": {"dtype": "DT_FLOAT", "tensorShape": {"dim": [{"size": "7"}, {"size": "1"}, {"size": "160"}, {"size": "192"}]}}}}}, {"name": "StatefulPartitionedCall/InceptionV3/Mixed_6d/Branch_1/Conv2d_0c_7x1/Conv2D_bn_offset", "op": "Const", "attr": {"value": {"tensor": {"dtype": "DT_FLOAT", "tensorShape": {"dim": [{"size": "192"}]}}}, "dtype": {"type": "DT_FLOAT"}}}, {"name": "StatefulPartitionedCall/InceptionV3/Mixed_6d/Branch_2/Conv2d_0c_1x7/Conv2D_weights", "op": "Const", "attr": {"value": {"tensor": {"dtype": "DT_FLOAT", "tensorShape": {"dim": [{"size": "1"}, {"size": "7"}, {"size": "160"}, {"size": "160"}]}}}, "dtype": {"type": "DT_FLOAT"}}}, {"name": "StatefulPartitionedCall/InceptionV3/Mixed_6d/Branch_2/Conv2d_0c_1x7/Conv2D_bn_offset", "op": "Const", "attr": {"value": {"tensor": {"dtype": "DT_FLOAT", "tensorShape": {"dim": [{"size": "160"}]}}}, "dtype": {"type": "DT_FLOAT"}}}, {"name": "StatefulPartitionedCall/InceptionV3/Mixed_6d/Branch_2/Conv2d_0d_7x1/Conv2D_weights", "op": "Const", "attr": {"dtype": {"type": "DT_FLOAT"}, "value": {"tensor": {"dtype": "DT_FLOAT", "tensorShape": {"dim": [{"size": "7"}, {"size": "1"}, {"size": "160"}, {"size": "160"}]}}}}}, {"name": "StatefulPartitionedCall/InceptionV3/Mixed_6d/Branch_2/Conv2d_0d_7x1/Conv2D_bn_offset", "op": "Const", "attr": {"value": {"tensor": {"dtype": "DT_FLOAT", "tensorShape": {"dim": [{"size": "160"}]}}}, "dtype": {"type": "DT_FLOAT"}}}, {"name": "StatefulPartitionedCall/InceptionV3/Mixed_6d/Branch_2/Conv2d_0e_1x7/Conv2D_weights", "op": "Const", "attr": {"value": {"tensor": {"dtype": "DT_FLOAT", "tensorShape": {"dim": [{"size": "1"}, {"size": "7"}, {"size": "160"}, {"size": "192"}]}}}, "dtype": {"type": "DT_FLOAT"}}}, {"name": "StatefulPartitionedCall/InceptionV3/Mixed_6d/Branch_2/Conv2d_0e_1x7/Conv2D_bn_offset", "op": "Const", "attr": {"value": {"tensor": {"dtype": "DT_FLOAT", "tensorShape": {"dim": [{"size": "192"}]}}}, "dtype": {"type": "DT_FLOAT"}}}, {"name": "StatefulPartitionedCall/InceptionV3/Mixed_6e/Branch_0/Conv2d_0a_1x1/Conv2D_weights", "op": "Const", "attr": {"value": {"tensor": {"dtype": "DT_FLOAT", "tensorShape": {"dim": [{"size": "1"}, {"size": "1"}, {"size": "768"}, {"size": "192"}]}}}, "dtype": {"type": "DT_FLOAT"}}}, {"name": "StatefulPartitionedCall/InceptionV3/Mixed_6e/Branch_0/Conv2d_0a_1x1/Conv2D_bn_offset", "op": "Const", "attr": {"value": {"tensor": {"dtype": "DT_FLOAT", "tensorShape": {"dim": [{"size": "192"}]}}}, "dtype": {"type": "DT_FLOAT"}}}, {"name": "StatefulPartitionedCall/InceptionV3/Mixed_6e/Branch_1/Conv2d_0a_1x1/Conv2D_weights", "op": "Const", "attr": {"value": {"tensor": {"dtype": "DT_FLOAT", "tensorShape": {"dim": [{"size": "1"}, {"size": "1"}, {"size": "768"}, {"size": "192"}]}}}, "dtype": {"type": "DT_FLOAT"}}}, {"name": "StatefulPartitionedCall/InceptionV3/Mixed_6e/Branch_1/Conv2d_0a_1x1/Conv2D_bn_offset", "op": "Const", "attr": {"value": {"tensor": {"dtype": "DT_FLOAT", "tensorShape": {"dim": [{"size": "192"}]}}}, "dtype": {"type": "DT_FLOAT"}}}, {"name": "StatefulPartitionedCall/InceptionV3/Mixed_6e/Branch_2/Conv2d_0a_1x1/Conv2D_weights", "op": "Const", "attr": {"value": {"tensor": {"dtype": "DT_FLOAT", "tensorShape": {"dim": [{"size": "1"}, {"size": "1"}, {"size": "768"}, {"size": "192"}]}}}, "dtype": {"type": "DT_FLOAT"}}}, {"name": "StatefulPartitionedCall/InceptionV3/Mixed_6e/Branch_2/Conv2d_0a_1x1/Conv2D_bn_offset", "op": "Const", "attr": {"dtype": {"type": "DT_FLOAT"}, "value": {"tensor": {"dtype": "DT_FLOAT", "tensorShape": {"dim": [{"size": "192"}]}}}}}, {"name": "StatefulPartitionedCall/InceptionV3/Mixed_6e/Branch_3/Conv2d_0b_1x1/Conv2D_weights", "op": "Const", "attr": {"value": {"tensor": {"dtype": "DT_FLOAT", "tensorShape": {"dim": [{"size": "1"}, {"size": "1"}, {"size": "768"}, {"size": "192"}]}}}, "dtype": {"type": "DT_FLOAT"}}}, {"name": "StatefulPartitionedCall/InceptionV3/Mixed_6e/Branch_3/Conv2d_0b_1x1/Conv2D_bn_offset", "op": "Const", "attr": {"value": {"tensor": {"dtype": "DT_FLOAT", "tensorShape": {"dim": [{"size": "192"}]}}}, "dtype": {"type": "DT_FLOAT"}}}, {"name": "StatefulPartitionedCall/InceptionV3/Mixed_6e/Branch_1/Conv2d_0b_1x7/Conv2D_weights", "op": "Const", "attr": {"value": {"tensor": {"dtype": "DT_FLOAT", "tensorShape": {"dim": [{"size": "1"}, {"size": "7"}, {"size": "192"}, {"size": "192"}]}}}, "dtype": {"type": "DT_FLOAT"}}}, {"name": "StatefulPartitionedCall/InceptionV3/Mixed_6e/Branch_1/Conv2d_0b_1x7/Conv2D_bn_offset", "op": "Const", "attr": {"value": {"tensor": {"dtype": "DT_FLOAT", "tensorShape": {"dim": [{"size": "192"}]}}}, "dtype": {"type": "DT_FLOAT"}}}, {"name": "StatefulPartitionedCall/InceptionV3/Mixed_6e/Branch_2/Conv2d_0b_7x1/Conv2D_weights", "op": "Const", "attr": {"value": {"tensor": {"dtype": "DT_FLOAT", "tensorShape": {"dim": [{"size": "7"}, {"size": "1"}, {"size": "192"}, {"size": "192"}]}}}, "dtype": {"type": "DT_FLOAT"}}}, {"name": "StatefulPartitionedCall/InceptionV3/Mixed_6e/Branch_2/Conv2d_0b_7x1/Conv2D_bn_offset", "op": "Const", "attr": {"value": {"tensor": {"dtype": "DT_FLOAT", "tensorShape": {"dim": [{"size": "192"}]}}}, "dtype": {"type": "DT_FLOAT"}}}, {"name": "StatefulPartitionedCall/InceptionV3/Mixed_6e/Branch_1/Conv2d_0c_7x1/Conv2D_weights", "op": "Const", "attr": {"value": {"tensor": {"dtype": "DT_FLOAT", "tensorShape": {"dim": [{"size": "7"}, {"size": "1"}, {"size": "192"}, {"size": "192"}]}}}, "dtype": {"type": "DT_FLOAT"}}}, {"name": "StatefulPartitionedCall/InceptionV3/Mixed_6e/Branch_1/Conv2d_0c_7x1/Conv2D_bn_offset", "op": "Const", "attr": {"value": {"tensor": {"dtype": "DT_FLOAT", "tensorShape": {"dim": [{"size": "192"}]}}}, "dtype": {"type": "DT_FLOAT"}}}, {"name": "StatefulPartitionedCall/InceptionV3/Mixed_6e/Branch_2/Conv2d_0c_1x7/Conv2D_weights", "op": "Const", "attr": {"value": {"tensor": {"dtype": "DT_FLOAT", "tensorShape": {"dim": [{"size": "1"}, {"size": "7"}, {"size": "192"}, {"size": "192"}]}}}, "dtype": {"type": "DT_FLOAT"}}}, {"name": "StatefulPartitionedCall/InceptionV3/Mixed_6e/Branch_2/Conv2d_0c_1x7/Conv2D_bn_offset", "op": "Const", "attr": {"value": {"tensor": {"dtype": "DT_FLOAT", "tensorShape": {"dim": [{"size": "192"}]}}}, "dtype": {"type": "DT_FLOAT"}}}, {"name": "StatefulPartitionedCall/InceptionV3/Mixed_6e/Branch_2/Conv2d_0d_7x1/Conv2D_weights", "op": "Const", "attr": {"value": {"tensor": {"dtype": "DT_FLOAT", "tensorShape": {"dim": [{"size": "7"}, {"size": "1"}, {"size": "192"}, {"size": "192"}]}}}, "dtype": {"type": "DT_FLOAT"}}}, {"name": "StatefulPartitionedCall/InceptionV3/Mixed_6e/Branch_2/Conv2d_0d_7x1/Conv2D_bn_offset", "op": "Const", "attr": {"value": {"tensor": {"dtype": "DT_FLOAT", "tensorShape": {"dim": [{"size": "192"}]}}}, "dtype": {"type": "DT_FLOAT"}}}, {"name": "StatefulPartitionedCall/InceptionV3/Mixed_6e/Branch_2/Conv2d_0e_1x7/Conv2D_weights", "op": "Const", "attr": {"value": {"tensor": {"dtype": "DT_FLOAT", "tensorShape": {"dim": [{"size": "1"}, {"size": "7"}, {"size": "192"}, {"size": "192"}]}}}, "dtype": {"type": "DT_FLOAT"}}}, {"name": "StatefulPartitionedCall/InceptionV3/Mixed_6e/Branch_2/Conv2d_0e_1x7/Conv2D_bn_offset", "op": "Const", "attr": {"value": {"tensor": {"dtype": "DT_FLOAT", "tensorShape": {"dim": [{"size": "192"}]}}}, "dtype": {"type": "DT_FLOAT"}}}, {"name": "StatefulPartitionedCall/transformer/contract/MirrorPad", "op": "MirrorPad", "input": ["placeholder", "StatefulPartitionedCall/transformer/contract/MirrorPad/paddings"], "attr": {"T": {"type": "DT_FLOAT"}, "Tpaddings": {"type": "DT_INT32"}, "mode": {"s": "UkVGTEVDVA=="}}}, {"name": "StatefulPartitionedCall/InceptionV3/Conv2d_1a_3x3/Relu6", "op": "_FusedConv2D", "input": ["placeholder_1", "StatefulPartitionedCall/InceptionV3/Conv2d_1a_3x3/Conv2D_weights", "StatefulPartitionedCall/InceptionV3/Conv2d_1a_3x3/Conv2D_bn_offset"], "device": "/device:CPU:0", "attr": {"dilations": {"list": {"i": ["1", "1", "1", "1"]}}, "T": {"type": "DT_FLOAT"}, "data_format": {"s": "TkhXQw=="}, "strides": {"list": {"i": ["1", "2", "2", "1"]}}, "use_cudnn_on_gpu": {"b": true}, "explicit_paddings": {"list": {}}, "num_args": {"i": "1"}, "epsilon": {"f": 0.0}, "padding": {"s": "VkFMSUQ="}, "fused_ops": {"list": {"s": ["Qmlhc0FkZA==", "UmVsdTY="]}}}}, {"name": "StatefulPartitionedCall/transformer/contract/conv1/Relu", "op": "_FusedConv2D", "input": ["StatefulPartitionedCall/transformer/contract/MirrorPad", "StatefulPartitionedCall/transformer/contract/conv1/Conv2D_weights", "StatefulPartitionedCall/transformer/contract/conv1/Conv2D_bn_offset"], "device": "/device:CPU:0", "attr": {"dilations": {"list": {"i": ["1", "1", "1", "1"]}}, "T": {"type": "DT_FLOAT"}, "data_format": {"s": "TkhXQw=="}, "strides": {"list": {"i": ["1", "1", "1", "1"]}}, "use_cudnn_on_gpu": {"b": true}, "explicit_paddings": {"list": {}}, "num_args": {"i": "1"}, "epsilon": {"f": 0.0}, "padding": {"s": "VkFMSUQ="}, "fused_ops": {"list": {"s": ["Qmlhc0FkZA==", "UmVsdQ=="]}}}}, {"name": "StatefulPartitionedCall/InceptionV3/Conv2d_2a_3x3/Relu6", "op": "_FusedConv2D", "input": ["StatefulPartitionedCall/InceptionV3/Conv2d_1a_3x3/Relu6", "StatefulPartitionedCall/InceptionV3/Conv2d_2a_3x3/Conv2D_weights", "StatefulPartitionedCall/InceptionV3/Conv2d_2a_3x3/Conv2D_bn_offset"], "device": "/device:CPU:0", "attr": {"T": {"type": "DT_FLOAT"}, "data_format": {"s": "TkhXQw=="}, "strides": {"list": {"i": ["1", "1", "1", "1"]}}, "explicit_paddings": {"list": {}}, "use_cudnn_on_gpu": {"b": true}, "num_args": {"i": "1"}, "epsilon": {"f": 0.0}, "padding": {"s": "VkFMSUQ="}, "fused_ops": {"list": {"s": ["Qmlhc0FkZA==", "UmVsdTY="]}}, "dilations": {"list": {"i": ["1", "1", "1", "1"]}}}}, {"name": "StatefulPartitionedCall/transformer/contract/MirrorPad_1", "op": "MirrorPad", "input": ["StatefulPartitionedCall/transformer/contract/conv1/Relu", "StatefulPartitionedCall/transformer/contract/MirrorPad_1/paddings"], "attr": {"T": {"type": "DT_FLOAT"}, "Tpaddings": {"type": "DT_INT32"}, "mode": {"s": "UkVGTEVDVA=="}}}, {"name": "StatefulPartitionedCall/InceptionV3/Conv2d_2b_3x3/Relu6", "op": "_FusedConv2D", "input": ["StatefulPartitionedCall/InceptionV3/Conv2d_2a_3x3/Relu6", "StatefulPartitionedCall/InceptionV3/Conv2d_2b_3x3/Conv2D_weights", "StatefulPartitionedCall/InceptionV3/Conv2d_2b_3x3/Conv2D_bn_offset"], "device": "/device:CPU:0", "attr": {"dilations": {"list": {"i": ["1", "1", "1", "1"]}}, "T": {"type": "DT_FLOAT"}, "data_format": {"s": "TkhXQw=="}, "strides": {"list": {"i": ["1", "1", "1", "1"]}}, "explicit_paddings": {"list": {}}, "use_cudnn_on_gpu": {"b": true}, "num_args": {"i": "1"}, "epsilon": {"f": 0.0}, "padding": {"s": "U0FNRQ=="}, "fused_ops": {"list": {"s": ["Qmlhc0FkZA==", "UmVsdTY="]}}}}, {"name": "StatefulPartitionedCall/transformer/contract/conv2/Relu", "op": "_FusedConv2D", "input": ["StatefulPartitionedCall/transformer/contract/MirrorPad_1", "StatefulPartitionedCall/transformer/contract/conv2/Conv2D_weights", "StatefulPartitionedCall/transformer/contract/conv2/Conv2D_bn_offset"], "device": "/device:CPU:0", "attr": {"padding": {"s": "VkFMSUQ="}, "fused_ops": {"list": {"s": ["Qmlhc0FkZA==", "UmVsdQ=="]}}, "dilations": {"list": {"i": ["1", "1", "1", "1"]}}, "T": {"type": "DT_FLOAT"}, "data_format": {"s": "TkhXQw=="}, "strides": {"list": {"i": ["1", "2", "2", "1"]}}, "use_cudnn_on_gpu": {"b": true}, "explicit_paddings": {"list": {}}, "num_args": {"i": "1"}, "epsilon": {"f": 0.0}}}, {"name": "StatefulPartitionedCall/InceptionV3/MaxPool_3a_3x3/MaxPool", "op": "MaxPool", "input": ["StatefulPartitionedCall/InceptionV3/Conv2d_2b_3x3/Relu6"], "attr": {"T": {"type": "DT_FLOAT"}, "data_format": {"s": "TkhXQw=="}, "strides": {"list": {"i": ["1", "2", "2", "1"]}}, "explicit_paddings": {"list": {}}, "ksize": {"list": {"i": ["1", "3", "3", "1"]}}, "padding": {"s": "VkFMSUQ="}}}, {"name": "StatefulPartitionedCall/transformer/contract/MirrorPad_2", "op": "MirrorPad", "input": ["StatefulPartitionedCall/transformer/contract/conv2/Relu", "StatefulPartitionedCall/transformer/contract/MirrorPad_2/paddings"], "attr": {"mode": {"s": "UkVGTEVDVA=="}, "T": {"type": "DT_FLOAT"}, "Tpaddings": {"type": "DT_INT32"}}}, {"name": "StatefulPartitionedCall/InceptionV3/Conv2d_3b_1x1/Relu6", "op": "_FusedConv2D", "input": ["StatefulPartitionedCall/InceptionV3/MaxPool_3a_3x3/MaxPool", "StatefulPartitionedCall/InceptionV3/Conv2d_3b_1x1/Conv2D_weights", "StatefulPartitionedCall/InceptionV3/Conv2d_3b_1x1/Conv2D_bn_offset"], "device": "/device:CPU:0", "attr": {"dilations": {"list": {"i": ["1", "1", "1", "1"]}}, "T": {"type": "DT_FLOAT"}, "strides": {"list": {"i": ["1", "1", "1", "1"]}}, "data_format": {"s": "TkhXQw=="}, "use_cudnn_on_gpu": {"b": true}, "explicit_paddings": {"list": {}}, "num_args": {"i": "1"}, "epsilon": {"f": 0.0}, "padding": {"s": "VkFMSUQ="}, "fused_ops": {"list": {"s": ["Qmlhc0FkZA==", "UmVsdTY="]}}}}, {"name": "StatefulPartitionedCall/transformer/contract/conv3/Relu", "op": "_FusedConv2D", "input": ["StatefulPartitionedCall/transformer/contract/MirrorPad_2", "StatefulPartitionedCall/transformer/contract/conv3/Conv2D_weights", "StatefulPartitionedCall/transformer/contract/conv3/Conv2D_bn_offset"], "device": "/device:CPU:0", "attr": {"dilations": {"list": {"i": ["1", "1", "1", "1"]}}, "T": {"type": "DT_FLOAT"}, "data_format": {"s": "TkhXQw=="}, "strides": {"list": {"i": ["1", "2", "2", "1"]}}, "use_cudnn_on_gpu": {"b": true}, "explicit_paddings": {"list": {}}, "num_args": {"i": "1"}, "epsilon": {"f": 0.0}, "padding": {"s": "VkFMSUQ="}, "fused_ops": {"list": {"s": ["Qmlhc0FkZA==", "UmVsdQ=="]}}}}, {"name": "StatefulPartitionedCall/InceptionV3/Conv2d_4a_3x3/Relu6", "op": "_FusedConv2D", "input": ["StatefulPartitionedCall/InceptionV3/Conv2d_3b_1x1/Relu6", "StatefulPartitionedCall/InceptionV3/Conv2d_4a_3x3/Conv2D_weights", "StatefulPartitionedCall/InceptionV3/Conv2d_4a_3x3/Conv2D_bn_offset"], "device": "/device:CPU:0", "attr": {"explicit_paddings": {"list": {}}, "use_cudnn_on_gpu": {"b": true}, "num_args": {"i": "1"}, "epsilon": {"f": 0.0}, "padding": {"s": "VkFMSUQ="}, "fused_ops": {"list": {"s": ["Qmlhc0FkZA==", "UmVsdTY="]}}, "dilations": {"list": {"i": ["1", "1", "1", "1"]}}, "T": {"type": "DT_FLOAT"}, "data_format": {"s": "TkhXQw=="}, "strides": {"list": {"i": ["1", "1", "1", "1"]}}}}, {"name": "StatefulPartitionedCall/transformer/residual/residual1/MirrorPad", "op": "MirrorPad", "input": ["StatefulPartitionedCall/transformer/contract/conv3/Relu", "StatefulPartitionedCall/transformer/residual/residual1/MirrorPad/paddings"], "attr": {"mode": {"s": "UkVGTEVDVA=="}, "T": {"type": "DT_FLOAT"}, "Tpaddings": {"type": "DT_INT32"}}}, {"name": "StatefulPartitionedCall/InceptionV3/MaxPool_5a_3x3/MaxPool", "op": "MaxPool", "input": ["StatefulPartitionedCall/InceptionV3/Conv2d_4a_3x3/Relu6"], "attr": {"T": {"type": "DT_FLOAT"}, "strides": {"list": {"i": ["1", "2", "2", "1"]}}, "data_format": {"s": "TkhXQw=="}, "explicit_paddings": {"list": {}}, "ksize": {"list": {"i": ["1", "3", "3", "1"]}}, "padding": {"s": "VkFMSUQ="}}}, {"name": "StatefulPartitionedCall/transformer/residual/residual1/conv1/Conv2D", "op": "Conv2D", "input": ["StatefulPartitionedCall/transformer/residual/residual1/MirrorPad", "statefulpartitionedcall_transformer_residual_residual1_conv1_weights"], "device": "/device:CPU:0", "attr": {"dilations": {"list": {"i": ["1", "1", "1", "1"]}}, "T": {"type": "DT_FLOAT"}, "data_format": {"s": "TkhXQw=="}, "strides": {"list": {"i": ["1", "1", "1", "1"]}}, "explicit_paddings": {"list": {}}, "use_cudnn_on_gpu": {"b": true}, "padding": {"s": "VkFMSUQ="}}}, {"name": "StatefulPartitionedCall/InceptionV3/Mixed_5b/Branch_3/AvgPool_0a_3x3/AvgPool", "op": "AvgPool", "input": ["StatefulPartitionedCall/InceptionV3/MaxPool_5a_3x3/MaxPool"], "attr": {"strides": {"list": {"i": ["1", "1", "1", "1"]}}, "data_format": {"s": "TkhXQw=="}, "ksize": {"list": {"i": ["1", "3", "3", "1"]}}, "padding": {"s": "U0FNRQ=="}, "T": {"type": "DT_FLOAT"}}}, {"name": "StatefulPartitionedCall/InceptionV3/Mixed_5b/Branch_0/Conv2d_0a_1x1/Relu6", "op": "_FusedConv2D", "input": ["StatefulPartitionedCall/InceptionV3/MaxPool_5a_3x3/MaxPool", "StatefulPartitionedCall/InceptionV3/Mixed_5b/Branch_0/Conv2d_0a_1x1/Conv2D_weights", "StatefulPartitionedCall/InceptionV3/Mixed_5b/Branch_0/Conv2d_0a_1x1/Conv2D_bn_offset"], "device": "/device:CPU:0", "attr": {"padding": {"s": "U0FNRQ=="}, "fused_ops": {"list": {"s": ["Qmlhc0FkZA==", "UmVsdTY="]}}, "dilations": {"list": {"i": ["1", "1", "1", "1"]}}, "T": {"type": "DT_FLOAT"}, "strides": {"list": {"i": ["1", "1", "1", "1"]}}, "data_format": {"s": "TkhXQw=="}, "use_cudnn_on_gpu": {"b": true}, "explicit_paddings": {"list": {}}, "num_args": {"i": "1"}, "epsilon": {"f": 0.0}}}, {"name": "StatefulPartitionedCall/InceptionV3/Mixed_5b/Branch_1/Conv2d_0a_1x1/Relu6", "op": "_FusedConv2D", "input": ["StatefulPartitionedCall/InceptionV3/MaxPool_5a_3x3/MaxPool", "StatefulPartitionedCall/InceptionV3/Mixed_5b/Branch_1/Conv2d_0a_1x1/Conv2D_weights", "StatefulPartitionedCall/InceptionV3/Mixed_5b/Branch_1/Conv2d_0a_1x1/Conv2D_bn_offset"], "device": "/device:CPU:0", "attr": {"explicit_paddings": {"list": {}}, "use_cudnn_on_gpu": {"b": true}, "num_args": {"i": "1"}, "epsilon": {"f": 0.0}, "padding": {"s": "U0FNRQ=="}, "fused_ops": {"list": {"s": ["Qmlhc0FkZA==", "UmVsdTY="]}}, "dilations": {"list": {"i": ["1", "1", "1", "1"]}}, "T": {"type": "DT_FLOAT"}, "strides": {"list": {"i": ["1", "1", "1", "1"]}}, "data_format": {"s": "TkhXQw=="}}}, {"name": "StatefulPartitionedCall/InceptionV3/Mixed_5b/Branch_2/Conv2d_0a_1x1/Relu6", "op": "_FusedConv2D", "input": ["StatefulPartitionedCall/InceptionV3/MaxPool_5a_3x3/MaxPool", "StatefulPartitionedCall/InceptionV3/Mixed_5b/Branch_2/Conv2d_0a_1x1/Conv2D_weights", "StatefulPartitionedCall/InceptionV3/Mixed_5b/Branch_2/Conv2d_0a_1x1/Conv2D_bn_offset"], "device": "/device:CPU:0", "attr": {"epsilon": {"f": 0.0}, "padding": {"s": "U0FNRQ=="}, "fused_ops": {"list": {"s": ["Qmlhc0FkZA==", "UmVsdTY="]}}, "dilations": {"list": {"i": ["1", "1", "1", "1"]}}, "T": {"type": "DT_FLOAT"}, "strides": {"list": {"i": ["1", "1", "1", "1"]}}, "data_format": {"s": "TkhXQw=="}, "explicit_paddings": {"list": {}}, "use_cudnn_on_gpu": {"b": true}, "num_args": {"i": "1"}}}, {"name": "StatefulPartitionedCall/transformer/residual/residual1/conv1/StyleNorm/moments/mean", "op": "Mean", "input": ["StatefulPartitionedCall/transformer/residual/residual1/conv1/Conv2D", "StatefulPartitionedCall/transformer/residual/residual1/conv1/StyleNorm/moments/mean/reduction_indices"], "attr": {"keep_dims": {"b": true}, "Tidx": {"type": "DT_INT32"}, "T": {"type": "DT_FLOAT"}}}, {"name": "StatefulPartitionedCall/InceptionV3/Mixed_5b/Branch_3/Conv2d_0b_1x1/Relu6", "op": "_FusedConv2D", "input": ["StatefulPartitionedCall/InceptionV3/Mixed_5b/Branch_3/AvgPool_0a_3x3/AvgPool", "StatefulPartitionedCall/InceptionV3/Mixed_5b/Branch_3/Conv2d_0b_1x1/Conv2D_weights", "StatefulPartitionedCall/InceptionV3/Mixed_5b/Branch_3/Conv2d_0b_1x1/Conv2D_bn_offset"], "device": "/device:CPU:0", "attr": {"dilations": {"list": {"i": ["1", "1", "1", "1"]}}, "T": {"type": "DT_FLOAT"}, "data_format": {"s": "TkhXQw=="}, "strides": {"list": {"i": ["1", "1", "1", "1"]}}, "use_cudnn_on_gpu": {"b": true}, "explicit_paddings": {"list": {}}, "num_args": {"i": "1"}, "epsilon": {"f": 0.0}, "padding": {"s": "U0FNRQ=="}, "fused_ops": {"list": {"s": ["Qmlhc0FkZA==", "UmVsdTY="]}}}}, {"name": "StatefulPartitionedCall/InceptionV3/Mixed_5b/Branch_1/Conv2d_0b_5x5/Relu6", "op": "_FusedConv2D", "input": ["StatefulPartitionedCall/InceptionV3/Mixed_5b/Branch_1/Conv2d_0a_1x1/Relu6", "StatefulPartitionedCall/InceptionV3/Mixed_5b/Branch_1/Conv2d_0b_5x5/Conv2D_weights", "StatefulPartitionedCall/InceptionV3/Mixed_5b/Branch_1/Conv2d_0b_5x5/Conv2D_bn_offset"], "device": "/device:CPU:0", "attr": {"epsilon": {"f": 0.0}, "padding": {"s": "U0FNRQ=="}, "fused_ops": {"list": {"s": ["Qmlhc0FkZA==", "UmVsdTY="]}}, "dilations": {"list": {"i": ["1", "1", "1", "1"]}}, "T": {"type": "DT_FLOAT"}, "data_format": {"s": "TkhXQw=="}, "strides": {"list": {"i": ["1", "1", "1", "1"]}}, "use_cudnn_on_gpu": {"b": true}, "explicit_paddings": {"list": {}}, "num_args": {"i": "1"}}}, {"name": "StatefulPartitionedCall/InceptionV3/Mixed_5b/Branch_2/Conv2d_0b_3x3/Relu6", "op": "_FusedConv2D", "input": ["StatefulPartitionedCall/InceptionV3/Mixed_5b/Branch_2/Conv2d_0a_1x1/Relu6", "StatefulPartitionedCall/InceptionV3/Mixed_5b/Branch_2/Conv2d_0b_3x3/Conv2D_weights", "StatefulPartitionedCall/InceptionV3/Mixed_5b/Branch_2/Conv2d_0b_3x3/Conv2D_bn_offset"], "device": "/device:CPU:0", "attr": {"data_format": {"s": "TkhXQw=="}, "strides": {"list": {"i": ["1", "1", "1", "1"]}}, "use_cudnn_on_gpu": {"b": true}, "explicit_paddings": {"list": {}}, "num_args": {"i": "1"}, "epsilon": {"f": 0.0}, "padding": {"s": "U0FNRQ=="}, "fused_ops": {"list": {"s": ["Qmlhc0FkZA==", "UmVsdTY="]}}, "dilations": {"list": {"i": ["1", "1", "1", "1"]}}, "T": {"type": "DT_FLOAT"}}}, {"name": "StatefulPartitionedCall/transformer/residual/residual1/conv1/StyleNorm/moments/SquaredDifference", "op": "SquaredDifference", "input": ["StatefulPartitionedCall/transformer/residual/residual1/conv1/Conv2D", "StatefulPartitionedCall/transformer/residual/residual1/conv1/StyleNorm/moments/mean"], "attr": {"T": {"type": "DT_FLOAT"}}}, {"name": "StatefulPartitionedCall/InceptionV3/Mixed_5b/Branch_2/Conv2d_0c_3x3/Relu6", "op": "_FusedConv2D", "input": ["StatefulPartitionedCall/InceptionV3/Mixed_5b/Branch_2/Conv2d_0b_3x3/Relu6", "StatefulPartitionedCall/InceptionV3/Mixed_5b/Branch_2/Conv2d_0c_3x3/Conv2D_weights", "StatefulPartitionedCall/InceptionV3/Mixed_5b/Branch_2/Conv2d_0c_3x3/Conv2D_bn_offset"], "device": "/device:CPU:0", "attr": {"explicit_paddings": {"list": {}}, "use_cudnn_on_gpu": {"b": true}, "num_args": {"i": "1"}, "epsilon": {"f": 0.0}, "padding": {"s": "U0FNRQ=="}, "fused_ops": {"list": {"s": ["Qmlhc0FkZA==", "UmVsdTY="]}}, "dilations": {"list": {"i": ["1", "1", "1", "1"]}}, "T": {"type": "DT_FLOAT"}, "strides": {"list": {"i": ["1", "1", "1", "1"]}}, "data_format": {"s": "TkhXQw=="}}}, {"name": "StatefulPartitionedCall/transformer/residual/residual1/conv1/StyleNorm/moments/variance", "op": "Mean", "input": ["StatefulPartitionedCall/transformer/residual/residual1/conv1/StyleNorm/moments/SquaredDifference", "StatefulPartitionedCall/transformer/residual/residual1/conv1/StyleNorm/moments/variance/reduction_indices"], "attr": {"keep_dims": {"b": true}, "Tidx": {"type": "DT_INT32"}, "T": {"type": "DT_FLOAT"}}}, {"name": "StatefulPartitionedCall/InceptionV3/Mixed_5b/concat", "op": "ConcatV2", "input": ["StatefulPartitionedCall/InceptionV3/Mixed_5b/Branch_0/Conv2d_0a_1x1/Relu6", "StatefulPartitionedCall/InceptionV3/Mixed_5b/Branch_1/Conv2d_0b_5x5/Relu6", "StatefulPartitionedCall/InceptionV3/Mixed_5b/Branch_2/Conv2d_0c_3x3/Relu6", "StatefulPartitionedCall/InceptionV3/Mixed_5b/Branch_3/Conv2d_0b_1x1/Relu6", "StatefulPartitionedCall/InceptionV3/Mixed_5b/concat/axis"], "attr": {"N": {"i": "4"}, "Tidx": {"type": "DT_INT32"}, "T": {"type": "DT_FLOAT"}}}, {"name": "StatefulPartitionedCall/transformer/residual/residual1/conv1/StyleNorm/batchnorm/add", "op": "AddV2", "input": ["StatefulPartitionedCall/transformer/residual/residual1/conv1/StyleNorm/moments/variance", "StatefulPartitionedCall/transformer/residual/residual1/conv1/StyleNorm/batchnorm/add/y"], "attr": {"T": {"type": "DT_FLOAT"}}}, {"name": "StatefulPartitionedCall/InceptionV3/Mixed_5c/Branch_3/AvgPool_0a_3x3/AvgPool", "op": "AvgPool", "input": ["StatefulPartitionedCall/InceptionV3/Mixed_5b/concat"], "attr": {"padding": {"s": "U0FNRQ=="}, "T": {"type": "DT_FLOAT"}, "strides": {"list": {"i": ["1", "1", "1", "1"]}}, "data_format": {"s": "TkhXQw=="}, "ksize": {"list": {"i": ["1", "3", "3", "1"]}}}}, {"name": "StatefulPartitionedCall/InceptionV3/Mixed_5c/Branch_0/Conv2d_0a_1x1/Relu6", "op": "_FusedConv2D", "input": ["StatefulPartitionedCall/InceptionV3/Mixed_5b/concat", "StatefulPartitionedCall/InceptionV3/Mixed_5c/Branch_0/Conv2d_0a_1x1/Conv2D_weights", "StatefulPartitionedCall/InceptionV3/Mixed_5c/Branch_0/Conv2d_0a_1x1/Conv2D_bn_offset"], "device": "/device:CPU:0", "attr": {"dilations": {"list": {"i": ["1", "1", "1", "1"]}}, "T": {"type": "DT_FLOAT"}, "data_format": {"s": "TkhXQw=="}, "strides": {"list": {"i": ["1", "1", "1", "1"]}}, "explicit_paddings": {"list": {}}, "use_cudnn_on_gpu": {"b": true}, "num_args": {"i": "1"}, "epsilon": {"f": 0.0}, "padding": {"s": "U0FNRQ=="}, "fused_ops": {"list": {"s": ["Qmlhc0FkZA==", "UmVsdTY="]}}}}, {"name": "StatefulPartitionedCall/InceptionV3/Mixed_5c/Branch_1/Conv2d_0b_1x1/Relu6", "op": "_FusedConv2D", "input": ["StatefulPartitionedCall/InceptionV3/Mixed_5b/concat", "StatefulPartitionedCall/InceptionV3/Mixed_5c/Branch_1/Conv2d_0b_1x1/Conv2D_weights", "StatefulPartitionedCall/InceptionV3/Mixed_5c/Branch_1/Conv2d_0b_1x1/Conv2D_bn_offset"], "device": "/device:CPU:0", "attr": {"dilations": {"list": {"i": ["1", "1", "1", "1"]}}, "T": {"type": "DT_FLOAT"}, "data_format": {"s": "TkhXQw=="}, "strides": {"list": {"i": ["1", "1", "1", "1"]}}, "use_cudnn_on_gpu": {"b": true}, "explicit_paddings": {"list": {}}, "num_args": {"i": "1"}, "epsilon": {"f": 0.0}, "padding": {"s": "U0FNRQ=="}, "fused_ops": {"list": {"s": ["Qmlhc0FkZA==", "UmVsdTY="]}}}}, {"name": "StatefulPartitionedCall/InceptionV3/Mixed_5c/Branch_2/Conv2d_0a_1x1/Relu6", "op": "_FusedConv2D", "input": ["StatefulPartitionedCall/InceptionV3/Mixed_5b/concat", "StatefulPartitionedCall/InceptionV3/Mixed_5c/Branch_2/Conv2d_0a_1x1/Conv2D_weights", "StatefulPartitionedCall/InceptionV3/Mixed_5c/Branch_2/Conv2d_0a_1x1/Conv2D_bn_offset"], "device": "/device:CPU:0", "attr": {"dilations": {"list": {"i": ["1", "1", "1", "1"]}}, "T": {"type": "DT_FLOAT"}, "data_format": {"s": "TkhXQw=="}, "strides": {"list": {"i": ["1", "1", "1", "1"]}}, "use_cudnn_on_gpu": {"b": true}, "explicit_paddings": {"list": {}}, "num_args": {"i": "1"}, "epsilon": {"f": 0.0}, "padding": {"s": "U0FNRQ=="}, "fused_ops": {"list": {"s": ["Qmlhc0FkZA==", "UmVsdTY="]}}}}, {"name": "StatefulPartitionedCall/transformer/residual/residual1/conv1/StyleNorm/batchnorm/Rsqrt", "op": "Rsqrt", "input": ["StatefulPartitionedCall/transformer/residual/residual1/conv1/StyleNorm/batchnorm/add"], "attr": {"T": {"type": "DT_FLOAT"}}}, {"name": "StatefulPartitionedCall/InceptionV3/Mixed_5c/Branch_3/Conv2d_0b_1x1/Relu6", "op": "_FusedConv2D", "input": ["StatefulPartitionedCall/InceptionV3/Mixed_5c/Branch_3/AvgPool_0a_3x3/AvgPool", "StatefulPartitionedCall/InceptionV3/Mixed_5c/Branch_3/Conv2d_0b_1x1/Conv2D_weights", "StatefulPartitionedCall/InceptionV3/Mixed_5c/Branch_3/Conv2d_0b_1x1/Conv2D_bn_offset"], "device": "/device:CPU:0", "attr": {"padding": {"s": "U0FNRQ=="}, "fused_ops": {"list": {"s": ["Qmlhc0FkZA==", "UmVsdTY="]}}, "dilations": {"list": {"i": ["1", "1", "1", "1"]}}, "T": {"type": "DT_FLOAT"}, "strides": {"list": {"i": ["1", "1", "1", "1"]}}, "data_format": {"s": "TkhXQw=="}, "use_cudnn_on_gpu": {"b": true}, "explicit_paddings": {"list": {}}, "num_args": {"i": "1"}, "epsilon": {"f": 0.0}}}, {"name": "StatefulPartitionedCall/InceptionV3/Mixed_5c/Branch_1/Conv_1_0c_5x5/Relu6", "op": "_FusedConv2D", "input": ["StatefulPartitionedCall/InceptionV3/Mixed_5c/Branch_1/Conv2d_0b_1x1/Relu6", "StatefulPartitionedCall/InceptionV3/Mixed_5c/Branch_1/Conv_1_0c_5x5/Conv2D_weights", "StatefulPartitionedCall/InceptionV3/Mixed_5c/Branch_1/Conv_1_0c_5x5/Conv2D_bn_offset"], "device": "/device:CPU:0", "attr": {"dilations": {"list": {"i": ["1", "1", "1", "1"]}}, "T": {"type": "DT_FLOAT"}, "strides": {"list": {"i": ["1", "1", "1", "1"]}}, "data_format": {"s": "TkhXQw=="}, "explicit_paddings": {"list": {}}, "use_cudnn_on_gpu": {"b": true}, "num_args": {"i": "1"}, "epsilon": {"f": 0.0}, "padding": {"s": "U0FNRQ=="}, "fused_ops": {"list": {"s": ["Qmlhc0FkZA==", "UmVsdTY="]}}}}, {"name": "StatefulPartitionedCall/InceptionV3/Mixed_5c/Branch_2/Conv2d_0b_3x3/Relu6", "op": "_FusedConv2D", "input": ["StatefulPartitionedCall/InceptionV3/Mixed_5c/Branch_2/Conv2d_0a_1x1/Relu6", "StatefulPartitionedCall/InceptionV3/Mixed_5c/Branch_2/Conv2d_0b_3x3/Conv2D_weights", "StatefulPartitionedCall/InceptionV3/Mixed_5c/Branch_2/Conv2d_0b_3x3/Conv2D_bn_offset"], "device": "/device:CPU:0", "attr": {"data_format": {"s": "TkhXQw=="}, "strides": {"list": {"i": ["1", "1", "1", "1"]}}, "use_cudnn_on_gpu": {"b": true}, "explicit_paddings": {"list": {}}, "num_args": {"i": "1"}, "epsilon": {"f": 0.0}, "padding": {"s": "U0FNRQ=="}, "fused_ops": {"list": {"s": ["Qmlhc0FkZA==", "UmVsdTY="]}}, "dilations": {"list": {"i": ["1", "1", "1", "1"]}}, "T": {"type": "DT_FLOAT"}}}, {"name": "StatefulPartitionedCall/InceptionV3/Mixed_5c/Branch_2/Conv2d_0c_3x3/Relu6", "op": "_FusedConv2D", "input": ["StatefulPartitionedCall/InceptionV3/Mixed_5c/Branch_2/Conv2d_0b_3x3/Relu6", "StatefulPartitionedCall/InceptionV3/Mixed_5c/Branch_2/Conv2d_0c_3x3/Conv2D_weights", "StatefulPartitionedCall/InceptionV3/Mixed_5c/Branch_2/Conv2d_0c_3x3/Conv2D_bn_offset"], "device": "/device:CPU:0", "attr": {"epsilon": {"f": 0.0}, "padding": {"s": "U0FNRQ=="}, "fused_ops": {"list": {"s": ["Qmlhc0FkZA==", "UmVsdTY="]}}, "dilations": {"list": {"i": ["1", "1", "1", "1"]}}, "T": {"type": "DT_FLOAT"}, "strides": {"list": {"i": ["1", "1", "1", "1"]}}, "data_format": {"s": "TkhXQw=="}, "use_cudnn_on_gpu": {"b": true}, "explicit_paddings": {"list": {}}, "num_args": {"i": "1"}}}, {"name": "StatefulPartitionedCall/InceptionV3/Mixed_5c/concat", "op": "ConcatV2", "input": ["StatefulPartitionedCall/InceptionV3/Mixed_5c/Branch_0/Conv2d_0a_1x1/Relu6", "StatefulPartitionedCall/InceptionV3/Mixed_5c/Branch_1/Conv_1_0c_5x5/Relu6", "StatefulPartitionedCall/InceptionV3/Mixed_5c/Branch_2/Conv2d_0c_3x3/Relu6", "StatefulPartitionedCall/InceptionV3/Mixed_5c/Branch_3/Conv2d_0b_1x1/Relu6", "StatefulPartitionedCall/InceptionV3/Mixed_5c/concat/axis"], "attr": {"T": {"type": "DT_FLOAT"}, "N": {"i": "4"}, "Tidx": {"type": "DT_INT32"}}}, {"name": "StatefulPartitionedCall/InceptionV3/Mixed_5d/Branch_3/AvgPool_0a_3x3/AvgPool", "op": "AvgPool", "input": ["StatefulPartitionedCall/InceptionV3/Mixed_5c/concat"], "attr": {"ksize": {"list": {"i": ["1", "3", "3", "1"]}}, "padding": {"s": "U0FNRQ=="}, "T": {"type": "DT_FLOAT"}, "strides": {"list": {"i": ["1", "1", "1", "1"]}}, "data_format": {"s": "TkhXQw=="}}}, {"name": "StatefulPartitionedCall/InceptionV3/Mixed_5d/Branch_0/Conv2d_0a_1x1/Relu6", "op": "_FusedConv2D", "input": ["StatefulPartitionedCall/InceptionV3/Mixed_5c/concat", "StatefulPartitionedCall/InceptionV3/Mixed_5d/Branch_0/Conv2d_0a_1x1/Conv2D_weights", "StatefulPartitionedCall/InceptionV3/Mixed_5d/Branch_0/Conv2d_0a_1x1/Conv2D_bn_offset"], "device": "/device:CPU:0", "attr": {"data_format": {"s": "TkhXQw=="}, "strides": {"list": {"i": ["1", "1", "1", "1"]}}, "use_cudnn_on_gpu": {"b": true}, "explicit_paddings": {"list": {}}, "num_args": {"i": "1"}, "epsilon": {"f": 0.0}, "padding": {"s": "U0FNRQ=="}, "fused_ops": {"list": {"s": ["Qmlhc0FkZA==", "UmVsdTY="]}}, "dilations": {"list": {"i": ["1", "1", "1", "1"]}}, "T": {"type": "DT_FLOAT"}}}, {"name": "StatefulPartitionedCall/InceptionV3/Mixed_5d/Branch_1/Conv2d_0a_1x1/Relu6", "op": "_FusedConv2D", "input": ["StatefulPartitionedCall/InceptionV3/Mixed_5c/concat", "StatefulPartitionedCall/InceptionV3/Mixed_5d/Branch_1/Conv2d_0a_1x1/Conv2D_weights", "StatefulPartitionedCall/InceptionV3/Mixed_5d/Branch_1/Conv2d_0a_1x1/Conv2D_bn_offset"], "device": "/device:CPU:0", "attr": {"dilations": {"list": {"i": ["1", "1", "1", "1"]}}, "T": {"type": "DT_FLOAT"}, "data_format": {"s": "TkhXQw=="}, "strides": {"list": {"i": ["1", "1", "1", "1"]}}, "explicit_paddings": {"list": {}}, "use_cudnn_on_gpu": {"b": true}, "num_args": {"i": "1"}, "epsilon": {"f": 0.0}, "padding": {"s": "U0FNRQ=="}, "fused_ops": {"list": {"s": ["Qmlhc0FkZA==", "UmVsdTY="]}}}}, {"name": "StatefulPartitionedCall/InceptionV3/Mixed_5d/Branch_2/Conv2d_0a_1x1/Relu6", "op": "_FusedConv2D", "input": ["StatefulPartitionedCall/InceptionV3/Mixed_5c/concat", "StatefulPartitionedCall/InceptionV3/Mixed_5d/Branch_2/Conv2d_0a_1x1/Conv2D_weights", "StatefulPartitionedCall/InceptionV3/Mixed_5d/Branch_2/Conv2d_0a_1x1/Conv2D_bn_offset"], "device": "/device:CPU:0", "attr": {"epsilon": {"f": 0.0}, "padding": {"s": "U0FNRQ=="}, "fused_ops": {"list": {"s": ["Qmlhc0FkZA==", "UmVsdTY="]}}, "dilations": {"list": {"i": ["1", "1", "1", "1"]}}, "T": {"type": "DT_FLOAT"}, "strides": {"list": {"i": ["1", "1", "1", "1"]}}, "data_format": {"s": "TkhXQw=="}, "use_cudnn_on_gpu": {"b": true}, "explicit_paddings": {"list": {}}, "num_args": {"i": "1"}}}, {"name": "StatefulPartitionedCall/InceptionV3/Mixed_5d/Branch_3/Conv2d_0b_1x1/Relu6", "op": "_FusedConv2D", "input": ["StatefulPartitionedCall/InceptionV3/Mixed_5d/Branch_3/AvgPool_0a_3x3/AvgPool", "StatefulPartitionedCall/InceptionV3/Mixed_5d/Branch_3/Conv2d_0b_1x1/Conv2D_weights", "StatefulPartitionedCall/InceptionV3/Mixed_5d/Branch_3/Conv2d_0b_1x1/Conv2D_bn_offset"], "device": "/device:CPU:0", "attr": {"dilations": {"list": {"i": ["1", "1", "1", "1"]}}, "T": {"type": "DT_FLOAT"}, "data_format": {"s": "TkhXQw=="}, "strides": {"list": {"i": ["1", "1", "1", "1"]}}, "explicit_paddings": {"list": {}}, "use_cudnn_on_gpu": {"b": true}, "num_args": {"i": "1"}, "epsilon": {"f": 0.0}, "padding": {"s": "U0FNRQ=="}, "fused_ops": {"list": {"s": ["Qmlhc0FkZA==", "UmVsdTY="]}}}}, {"name": "StatefulPartitionedCall/InceptionV3/Mixed_5d/Branch_1/Conv2d_0b_5x5/Relu6", "op": "_FusedConv2D", "input": ["StatefulPartitionedCall/InceptionV3/Mixed_5d/Branch_1/Conv2d_0a_1x1/Relu6", "StatefulPartitionedCall/InceptionV3/Mixed_5d/Branch_1/Conv2d_0b_5x5/Conv2D_weights", "StatefulPartitionedCall/InceptionV3/Mixed_5d/Branch_1/Conv2d_0b_5x5/Conv2D_bn_offset"], "device": "/device:CPU:0", "attr": {"dilations": {"list": {"i": ["1", "1", "1", "1"]}}, "T": {"type": "DT_FLOAT"}, "strides": {"list": {"i": ["1", "1", "1", "1"]}}, "data_format": {"s": "TkhXQw=="}, "explicit_paddings": {"list": {}}, "use_cudnn_on_gpu": {"b": true}, "num_args": {"i": "1"}, "epsilon": {"f": 0.0}, "padding": {"s": "U0FNRQ=="}, "fused_ops": {"list": {"s": ["Qmlhc0FkZA==", "UmVsdTY="]}}}}, {"name": "StatefulPartitionedCall/InceptionV3/Mixed_5d/Branch_2/Conv2d_0b_3x3/Relu6", "op": "_FusedConv2D", "input": ["StatefulPartitionedCall/InceptionV3/Mixed_5d/Branch_2/Conv2d_0a_1x1/Relu6", "StatefulPartitionedCall/InceptionV3/Mixed_5d/Branch_2/Conv2d_0b_3x3/Conv2D_weights", "StatefulPartitionedCall/InceptionV3/Mixed_5d/Branch_2/Conv2d_0b_3x3/Conv2D_bn_offset"], "device": "/device:CPU:0", "attr": {"dilations": {"list": {"i": ["1", "1", "1", "1"]}}, "T": {"type": "DT_FLOAT"}, "data_format": {"s": "TkhXQw=="}, "strides": {"list": {"i": ["1", "1", "1", "1"]}}, "explicit_paddings": {"list": {}}, "use_cudnn_on_gpu": {"b": true}, "num_args": {"i": "1"}, "epsilon": {"f": 0.0}, "padding": {"s": "U0FNRQ=="}, "fused_ops": {"list": {"s": ["Qmlhc0FkZA==", "UmVsdTY="]}}}}, {"name": "StatefulPartitionedCall/InceptionV3/Mixed_5d/Branch_2/Conv2d_0c_3x3/Relu6", "op": "_FusedConv2D", "input": ["StatefulPartitionedCall/InceptionV3/Mixed_5d/Branch_2/Conv2d_0b_3x3/Relu6", "StatefulPartitionedCall/InceptionV3/Mixed_5d/Branch_2/Conv2d_0c_3x3/Conv2D_weights", "StatefulPartitionedCall/InceptionV3/Mixed_5d/Branch_2/Conv2d_0c_3x3/Conv2D_bn_offset"], "device": "/device:CPU:0", "attr": {"dilations": {"list": {"i": ["1", "1", "1", "1"]}}, "T": {"type": "DT_FLOAT"}, "data_format": {"s": "TkhXQw=="}, "strides": {"list": {"i": ["1", "1", "1", "1"]}}, "explicit_paddings": {"list": {}}, "use_cudnn_on_gpu": {"b": true}, "num_args": {"i": "1"}, "epsilon": {"f": 0.0}, "padding": {"s": "U0FNRQ=="}, "fused_ops": {"list": {"s": ["Qmlhc0FkZA==", "UmVsdTY="]}}}}, {"name": "StatefulPartitionedCall/InceptionV3/Mixed_5d/concat", "op": "ConcatV2", "input": ["StatefulPartitionedCall/InceptionV3/Mixed_5d/Branch_0/Conv2d_0a_1x1/Relu6", "StatefulPartitionedCall/InceptionV3/Mixed_5d/Branch_1/Conv2d_0b_5x5/Relu6", "StatefulPartitionedCall/InceptionV3/Mixed_5d/Branch_2/Conv2d_0c_3x3/Relu6", "StatefulPartitionedCall/InceptionV3/Mixed_5d/Branch_3/Conv2d_0b_1x1/Relu6", "StatefulPartitionedCall/InceptionV3/Mixed_5d/concat/axis"], "attr": {"T": {"type": "DT_FLOAT"}, "N": {"i": "4"}, "Tidx": {"type": "DT_INT32"}}}, {"name": "StatefulPartitionedCall/InceptionV3/Mixed_6a/Branch_2/MaxPool_1a_3x3/MaxPool", "op": "MaxPool", "input": ["StatefulPartitionedCall/InceptionV3/Mixed_5d/concat"], "attr": {"data_format": {"s": "TkhXQw=="}, "strides": {"list": {"i": ["1", "2", "2", "1"]}}, "explicit_paddings": {"list": {}}, "ksize": {"list": {"i": ["1", "3", "3", "1"]}}, "padding": {"s": "VkFMSUQ="}, "T": {"type": "DT_FLOAT"}}}, {"name": "StatefulPartitionedCall/InceptionV3/Mixed_6a/Branch_0/Conv2d_1a_1x1/Relu6", "op": "_FusedConv2D", "input": ["StatefulPartitionedCall/InceptionV3/Mixed_5d/concat", "StatefulPartitionedCall/InceptionV3/Mixed_6a/Branch_0/Conv2d_1a_1x1/Conv2D_weights", "StatefulPartitionedCall/InceptionV3/Mixed_6a/Branch_0/Conv2d_1a_1x1/Conv2D_bn_offset"], "device": "/device:CPU:0", "attr": {"num_args": {"i": "1"}, "epsilon": {"f": 0.0}, "padding": {"s": "VkFMSUQ="}, "fused_ops": {"list": {"s": ["Qmlhc0FkZA==", "UmVsdTY="]}}, "dilations": {"list": {"i": ["1", "1", "1", "1"]}}, "T": {"type": "DT_FLOAT"}, "strides": {"list": {"i": ["1", "2", "2", "1"]}}, "data_format": {"s": "TkhXQw=="}, "use_cudnn_on_gpu": {"b": true}, "explicit_paddings": {"list": {}}}}, {"name": "StatefulPartitionedCall/InceptionV3/Mixed_6a/Branch_1/Conv2d_0a_1x1/Relu6", "op": "_FusedConv2D", "input": ["StatefulPartitionedCall/InceptionV3/Mixed_5d/concat", "StatefulPartitionedCall/InceptionV3/Mixed_6a/Branch_1/Conv2d_0a_1x1/Conv2D_weights", "StatefulPartitionedCall/InceptionV3/Mixed_6a/Branch_1/Conv2d_0a_1x1/Conv2D_bn_offset"], "device": "/device:CPU:0", "attr": {"dilations": {"list": {"i": ["1", "1", "1", "1"]}}, "T": {"type": "DT_FLOAT"}, "strides": {"list": {"i": ["1", "1", "1", "1"]}}, "data_format": {"s": "TkhXQw=="}, "use_cudnn_on_gpu": {"b": true}, "explicit_paddings": {"list": {}}, "num_args": {"i": "1"}, "epsilon": {"f": 0.0}, "padding": {"s": "U0FNRQ=="}, "fused_ops": {"list": {"s": ["Qmlhc0FkZA==", "UmVsdTY="]}}}}, {"name": "StatefulPartitionedCall/InceptionV3/Mixed_6a/Branch_1/Conv2d_0b_3x3/Relu6", "op": "_FusedConv2D", "input": ["StatefulPartitionedCall/InceptionV3/Mixed_6a/Branch_1/Conv2d_0a_1x1/Relu6", "StatefulPartitionedCall/InceptionV3/Mixed_6a/Branch_1/Conv2d_0b_3x3/Conv2D_weights", "StatefulPartitionedCall/InceptionV3/Mixed_6a/Branch_1/Conv2d_0b_3x3/Conv2D_bn_offset"], "device": "/device:CPU:0", "attr": {"dilations": {"list": {"i": ["1", "1", "1", "1"]}}, "T": {"type": "DT_FLOAT"}, "strides": {"list": {"i": ["1", "1", "1", "1"]}}, "data_format": {"s": "TkhXQw=="}, "use_cudnn_on_gpu": {"b": true}, "explicit_paddings": {"list": {}}, "num_args": {"i": "1"}, "epsilon": {"f": 0.0}, "padding": {"s": "U0FNRQ=="}, "fused_ops": {"list": {"s": ["Qmlhc0FkZA==", "UmVsdTY="]}}}}, {"name": "StatefulPartitionedCall/InceptionV3/Mixed_6a/Branch_1/Conv2d_1a_1x1/Relu6", "op": "_FusedConv2D", "input": ["StatefulPartitionedCall/InceptionV3/Mixed_6a/Branch_1/Conv2d_0b_3x3/Relu6", "StatefulPartitionedCall/InceptionV3/Mixed_6a/Branch_1/Conv2d_1a_1x1/Conv2D_weights", "StatefulPartitionedCall/InceptionV3/Mixed_6a/Branch_1/Conv2d_1a_1x1/Conv2D_bn_offset"], "device": "/device:CPU:0", "attr": {"strides": {"list": {"i": ["1", "2", "2", "1"]}}, "data_format": {"s": "TkhXQw=="}, "use_cudnn_on_gpu": {"b": true}, "explicit_paddings": {"list": {}}, "num_args": {"i": "1"}, "epsilon": {"f": 0.0}, "padding": {"s": "VkFMSUQ="}, "fused_ops": {"list": {"s": ["Qmlhc0FkZA==", "UmVsdTY="]}}, "dilations": {"list": {"i": ["1", "1", "1", "1"]}}, "T": {"type": "DT_FLOAT"}}}, {"name": "StatefulPartitionedCall/InceptionV3/Mixed_6a/concat", "op": "ConcatV2", "input": ["StatefulPartitionedCall/InceptionV3/Mixed_6a/Branch_0/Conv2d_1a_1x1/Relu6", "StatefulPartitionedCall/InceptionV3/Mixed_6a/Branch_1/Conv2d_1a_1x1/Relu6", "StatefulPartitionedCall/InceptionV3/Mixed_6a/Branch_2/MaxPool_1a_3x3/MaxPool", "StatefulPartitionedCall/InceptionV3/Mixed_6a/concat/axis"], "attr": {"Tidx": {"type": "DT_INT32"}, "T": {"type": "DT_FLOAT"}, "N": {"i": "3"}}}, {"name": "StatefulPartitionedCall/InceptionV3/Mixed_6b/Branch_3/AvgPool_0a_3x3/AvgPool", "op": "AvgPool", "input": ["StatefulPartitionedCall/InceptionV3/Mixed_6a/concat"], "attr": {"strides": {"list": {"i": ["1", "1", "1", "1"]}}, "data_format": {"s": "TkhXQw=="}, "ksize": {"list": {"i": ["1", "3", "3", "1"]}}, "padding": {"s": "U0FNRQ=="}, "T": {"type": "DT_FLOAT"}}}, {"name": "StatefulPartitionedCall/InceptionV3/Mixed_6b/Branch_0/Conv2d_0a_1x1/Relu6", "op": "_FusedConv2D", "input": ["StatefulPartitionedCall/InceptionV3/Mixed_6a/concat", "StatefulPartitionedCall/InceptionV3/Mixed_6b/Branch_0/Conv2d_0a_1x1/Conv2D_weights", "StatefulPartitionedCall/InceptionV3/Mixed_6b/Branch_0/Conv2d_0a_1x1/Conv2D_bn_offset"], "device": "/device:CPU:0", "attr": {"padding": {"s": "U0FNRQ=="}, "fused_ops": {"list": {"s": ["Qmlhc0FkZA==", "UmVsdTY="]}}, "dilations": {"list": {"i": ["1", "1", "1", "1"]}}, "T": {"type": "DT_FLOAT"}, "strides": {"list": {"i": ["1", "1", "1", "1"]}}, "data_format": {"s": "TkhXQw=="}, "explicit_paddings": {"list": {}}, "use_cudnn_on_gpu": {"b": true}, "num_args": {"i": "1"}, "epsilon": {"f": 0.0}}}, {"name": "StatefulPartitionedCall/InceptionV3/Mixed_6b/Branch_1/Conv2d_0a_1x1/Relu6", "op": "_FusedConv2D", "input": ["StatefulPartitionedCall/InceptionV3/Mixed_6a/concat", "StatefulPartitionedCall/InceptionV3/Mixed_6b/Branch_1/Conv2d_0a_1x1/Conv2D_weights", "StatefulPartitionedCall/InceptionV3/Mixed_6b/Branch_1/Conv2d_0a_1x1/Conv2D_bn_offset"], "device": "/device:CPU:0", "attr": {"num_args": {"i": "1"}, "epsilon": {"f": 0.0}, "padding": {"s": "U0FNRQ=="}, "fused_ops": {"list": {"s": ["Qmlhc0FkZA==", "UmVsdTY="]}}, "dilations": {"list": {"i": ["1", "1", "1", "1"]}}, "T": {"type": "DT_FLOAT"}, "strides": {"list": {"i": ["1", "1", "1", "1"]}}, "data_format": {"s": "TkhXQw=="}, "use_cudnn_on_gpu": {"b": true}, "explicit_paddings": {"list": {}}}}, {"name": "StatefulPartitionedCall/InceptionV3/Mixed_6b/Branch_2/Conv2d_0a_1x1/Relu6", "op": "_FusedConv2D", "input": ["StatefulPartitionedCall/InceptionV3/Mixed_6a/concat", "StatefulPartitionedCall/InceptionV3/Mixed_6b/Branch_2/Conv2d_0a_1x1/Conv2D_weights", "StatefulPartitionedCall/InceptionV3/Mixed_6b/Branch_2/Conv2d_0a_1x1/Conv2D_bn_offset"], "device": "/device:CPU:0", "attr": {"dilations": {"list": {"i": ["1", "1", "1", "1"]}}, "T": {"type": "DT_FLOAT"}, "strides": {"list": {"i": ["1", "1", "1", "1"]}}, "data_format": {"s": "TkhXQw=="}, "use_cudnn_on_gpu": {"b": true}, "explicit_paddings": {"list": {}}, "num_args": {"i": "1"}, "epsilon": {"f": 0.0}, "padding": {"s": "U0FNRQ=="}, "fused_ops": {"list": {"s": ["Qmlhc0FkZA==", "UmVsdTY="]}}}}, {"name": "StatefulPartitionedCall/InceptionV3/Mixed_6b/Branch_3/Conv2d_0b_1x1/Relu6", "op": "_FusedConv2D", "input": ["StatefulPartitionedCall/InceptionV3/Mixed_6b/Branch_3/AvgPool_0a_3x3/AvgPool", "StatefulPartitionedCall/InceptionV3/Mixed_6b/Branch_3/Conv2d_0b_1x1/Conv2D_weights", "StatefulPartitionedCall/InceptionV3/Mixed_6b/Branch_3/Conv2d_0b_1x1/Conv2D_bn_offset"], "device": "/device:CPU:0", "attr": {"num_args": {"i": "1"}, "epsilon": {"f": 0.0}, "padding": {"s": "U0FNRQ=="}, "fused_ops": {"list": {"s": ["Qmlhc0FkZA==", "UmVsdTY="]}}, "dilations": {"list": {"i": ["1", "1", "1", "1"]}}, "T": {"type": "DT_FLOAT"}, "data_format": {"s": "TkhXQw=="}, "strides": {"list": {"i": ["1", "1", "1", "1"]}}, "explicit_paddings": {"list": {}}, "use_cudnn_on_gpu": {"b": true}}}, {"name": "StatefulPartitionedCall/InceptionV3/Mixed_6b/Branch_1/Conv2d_0b_1x7/Relu6", "op": "_FusedConv2D", "input": ["StatefulPartitionedCall/InceptionV3/Mixed_6b/Branch_1/Conv2d_0a_1x1/Relu6", "StatefulPartitionedCall/InceptionV3/Mixed_6b/Branch_1/Conv2d_0b_1x7/Conv2D_weights", "StatefulPartitionedCall/InceptionV3/Mixed_6b/Branch_1/Conv2d_0b_1x7/Conv2D_bn_offset"], "device": "/device:CPU:0", "attr": {"dilations": {"list": {"i": ["1", "1", "1", "1"]}}, "T": {"type": "DT_FLOAT"}, "strides": {"list": {"i": ["1", "1", "1", "1"]}}, "data_format": {"s": "TkhXQw=="}, "use_cudnn_on_gpu": {"b": true}, "explicit_paddings": {"list": {}}, "num_args": {"i": "1"}, "epsilon": {"f": 0.0}, "padding": {"s": "U0FNRQ=="}, "fused_ops": {"list": {"s": ["Qmlhc0FkZA==", "UmVsdTY="]}}}}, {"name": "StatefulPartitionedCall/InceptionV3/Mixed_6b/Branch_2/Conv2d_0b_7x1/Relu6", "op": "_FusedConv2D", "input": ["StatefulPartitionedCall/InceptionV3/Mixed_6b/Branch_2/Conv2d_0a_1x1/Relu6", "StatefulPartitionedCall/InceptionV3/Mixed_6b/Branch_2/Conv2d_0b_7x1/Conv2D_weights", "StatefulPartitionedCall/InceptionV3/Mixed_6b/Branch_2/Conv2d_0b_7x1/Conv2D_bn_offset"], "device": "/device:CPU:0", "attr": {"dilations": {"list": {"i": ["1", "1", "1", "1"]}}, "T": {"type": "DT_FLOAT"}, "strides": {"list": {"i": ["1", "1", "1", "1"]}}, "data_format": {"s": "TkhXQw=="}, "use_cudnn_on_gpu": {"b": true}, "explicit_paddings": {"list": {}}, "num_args": {"i": "1"}, "epsilon": {"f": 0.0}, "padding": {"s": "U0FNRQ=="}, "fused_ops": {"list": {"s": ["Qmlhc0FkZA==", "UmVsdTY="]}}}}, {"name": "StatefulPartitionedCall/InceptionV3/Mixed_6b/Branch_1/Conv2d_0c_7x1/Relu6", "op": "_FusedConv2D", "input": ["StatefulPartitionedCall/InceptionV3/Mixed_6b/Branch_1/Conv2d_0b_1x7/Relu6", "StatefulPartitionedCall/InceptionV3/Mixed_6b/Branch_1/Conv2d_0c_7x1/Conv2D_weights", "StatefulPartitionedCall/InceptionV3/Mixed_6b/Branch_1/Conv2d_0c_7x1/Conv2D_bn_offset"], "device": "/device:CPU:0", "attr": {"explicit_paddings": {"list": {}}, "use_cudnn_on_gpu": {"b": true}, "num_args": {"i": "1"}, "epsilon": {"f": 0.0}, "padding": {"s": "U0FNRQ=="}, "fused_ops": {"list": {"s": ["Qmlhc0FkZA==", "UmVsdTY="]}}, "dilations": {"list": {"i": ["1", "1", "1", "1"]}}, "T": {"type": "DT_FLOAT"}, "data_format": {"s": "TkhXQw=="}, "strides": {"list": {"i": ["1", "1", "1", "1"]}}}}, {"name": "StatefulPartitionedCall/InceptionV3/Mixed_6b/Branch_2/Conv2d_0c_1x7/Relu6", "op": "_FusedConv2D", "input": ["StatefulPartitionedCall/InceptionV3/Mixed_6b/Branch_2/Conv2d_0b_7x1/Relu6", "StatefulPartitionedCall/InceptionV3/Mixed_6b/Branch_2/Conv2d_0c_1x7/Conv2D_weights", "StatefulPartitionedCall/InceptionV3/Mixed_6b/Branch_2/Conv2d_0c_1x7/Conv2D_bn_offset"], "device": "/device:CPU:0", "attr": {"strides": {"list": {"i": ["1", "1", "1", "1"]}}, "data_format": {"s": "TkhXQw=="}, "use_cudnn_on_gpu": {"b": true}, "explicit_paddings": {"list": {}}, "num_args": {"i": "1"}, "epsilon": {"f": 0.0}, "padding": {"s": "U0FNRQ=="}, "fused_ops": {"list": {"s": ["Qmlhc0FkZA==", "UmVsdTY="]}}, "dilations": {"list": {"i": ["1", "1", "1", "1"]}}, "T": {"type": "DT_FLOAT"}}}, {"name": "StatefulPartitionedCall/InceptionV3/Mixed_6b/Branch_2/Conv2d_0d_7x1/Relu6", "op": "_FusedConv2D", "input": ["StatefulPartitionedCall/InceptionV3/Mixed_6b/Branch_2/Conv2d_0c_1x7/Relu6", "StatefulPartitionedCall/InceptionV3/Mixed_6b/Branch_2/Conv2d_0d_7x1/Conv2D_weights", "StatefulPartitionedCall/InceptionV3/Mixed_6b/Branch_2/Conv2d_0d_7x1/Conv2D_bn_offset"], "device": "/device:CPU:0", "attr": {"data_format": {"s": "TkhXQw=="}, "strides": {"list": {"i": ["1", "1", "1", "1"]}}, "use_cudnn_on_gpu": {"b": true}, "explicit_paddings": {"list": {}}, "num_args": {"i": "1"}, "epsilon": {"f": 0.0}, "padding": {"s": "U0FNRQ=="}, "fused_ops": {"list": {"s": ["Qmlhc0FkZA==", "UmVsdTY="]}}, "dilations": {"list": {"i": ["1", "1", "1", "1"]}}, "T": {"type": "DT_FLOAT"}}}, {"name": "StatefulPartitionedCall/InceptionV3/Mixed_6b/Branch_2/Conv2d_0e_1x7/Relu6", "op": "_FusedConv2D", "input": ["StatefulPartitionedCall/InceptionV3/Mixed_6b/Branch_2/Conv2d_0d_7x1/Relu6", "StatefulPartitionedCall/InceptionV3/Mixed_6b/Branch_2/Conv2d_0e_1x7/Conv2D_weights", "StatefulPartitionedCall/InceptionV3/Mixed_6b/Branch_2/Conv2d_0e_1x7/Conv2D_bn_offset"], "device": "/device:CPU:0", "attr": {"dilations": {"list": {"i": ["1", "1", "1", "1"]}}, "T": {"type": "DT_FLOAT"}, "strides": {"list": {"i": ["1", "1", "1", "1"]}}, "data_format": {"s": "TkhXQw=="}, "explicit_paddings": {"list": {}}, "use_cudnn_on_gpu": {"b": true}, "num_args": {"i": "1"}, "epsilon": {"f": 0.0}, "padding": {"s": "U0FNRQ=="}, "fused_ops": {"list": {"s": ["Qmlhc0FkZA==", "UmVsdTY="]}}}}, {"name": "StatefulPartitionedCall/InceptionV3/Mixed_6b/concat", "op": "ConcatV2", "input": ["StatefulPartitionedCall/InceptionV3/Mixed_6b/Branch_0/Conv2d_0a_1x1/Relu6", "StatefulPartitionedCall/InceptionV3/Mixed_6b/Branch_1/Conv2d_0c_7x1/Relu6", "StatefulPartitionedCall/InceptionV3/Mixed_6b/Branch_2/Conv2d_0e_1x7/Relu6", "StatefulPartitionedCall/InceptionV3/Mixed_6b/Branch_3/Conv2d_0b_1x1/Relu6", "StatefulPartitionedCall/InceptionV3/Mixed_6b/concat/axis"], "attr": {"N": {"i": "4"}, "Tidx": {"type": "DT_INT32"}, "T": {"type": "DT_FLOAT"}}}, {"name": "StatefulPartitionedCall/InceptionV3/Mixed_6c/Branch_3/AvgPool_0a_3x3/AvgPool", "op": "AvgPool", "input": ["StatefulPartitionedCall/InceptionV3/Mixed_6b/concat"], "attr": {"padding": {"s": "U0FNRQ=="}, "T": {"type": "DT_FLOAT"}, "strides": {"list": {"i": ["1", "1", "1", "1"]}}, "data_format": {"s": "TkhXQw=="}, "ksize": {"list": {"i": ["1", "3", "3", "1"]}}}}, {"name": "StatefulPartitionedCall/InceptionV3/Mixed_6c/Branch_0/Conv2d_0a_1x1/Relu6", "op": "_FusedConv2D", "input": ["StatefulPartitionedCall/InceptionV3/Mixed_6b/concat", "StatefulPartitionedCall/InceptionV3/Mixed_6c/Branch_0/Conv2d_0a_1x1/Conv2D_weights", "StatefulPartitionedCall/InceptionV3/Mixed_6c/Branch_0/Conv2d_0a_1x1/Conv2D_bn_offset"], "device": "/device:CPU:0", "attr": {"dilations": {"list": {"i": ["1", "1", "1", "1"]}}, "T": {"type": "DT_FLOAT"}, "data_format": {"s": "TkhXQw=="}, "strides": {"list": {"i": ["1", "1", "1", "1"]}}, "use_cudnn_on_gpu": {"b": true}, "explicit_paddings": {"list": {}}, "num_args": {"i": "1"}, "epsilon": {"f": 0.0}, "padding": {"s": "U0FNRQ=="}, "fused_ops": {"list": {"s": ["Qmlhc0FkZA==", "UmVsdTY="]}}}}, {"name": "StatefulPartitionedCall/InceptionV3/Mixed_6c/Branch_1/Conv2d_0a_1x1/Relu6", "op": "_FusedConv2D", "input": ["StatefulPartitionedCall/InceptionV3/Mixed_6b/concat", "StatefulPartitionedCall/InceptionV3/Mixed_6c/Branch_1/Conv2d_0a_1x1/Conv2D_weights", "StatefulPartitionedCall/InceptionV3/Mixed_6c/Branch_1/Conv2d_0a_1x1/Conv2D_bn_offset"], "device": "/device:CPU:0", "attr": {"dilations": {"list": {"i": ["1", "1", "1", "1"]}}, "T": {"type": "DT_FLOAT"}, "data_format": {"s": "TkhXQw=="}, "strides": {"list": {"i": ["1", "1", "1", "1"]}}, "use_cudnn_on_gpu": {"b": true}, "explicit_paddings": {"list": {}}, "num_args": {"i": "1"}, "epsilon": {"f": 0.0}, "padding": {"s": "U0FNRQ=="}, "fused_ops": {"list": {"s": ["Qmlhc0FkZA==", "UmVsdTY="]}}}}, {"name": "StatefulPartitionedCall/InceptionV3/Mixed_6c/Branch_2/Conv2d_0a_1x1/Relu6", "op": "_FusedConv2D", "input": ["StatefulPartitionedCall/InceptionV3/Mixed_6b/concat", "StatefulPartitionedCall/InceptionV3/Mixed_6c/Branch_2/Conv2d_0a_1x1/Conv2D_weights", "StatefulPartitionedCall/InceptionV3/Mixed_6c/Branch_2/Conv2d_0a_1x1/Conv2D_bn_offset"], "device": "/device:CPU:0", "attr": {"dilations": {"list": {"i": ["1", "1", "1", "1"]}}, "T": {"type": "DT_FLOAT"}, "data_format": {"s": "TkhXQw=="}, "strides": {"list": {"i": ["1", "1", "1", "1"]}}, "explicit_paddings": {"list": {}}, "use_cudnn_on_gpu": {"b": true}, "num_args": {"i": "1"}, "epsilon": {"f": 0.0}, "padding": {"s": "U0FNRQ=="}, "fused_ops": {"list": {"s": ["Qmlhc0FkZA==", "UmVsdTY="]}}}}, {"name": "StatefulPartitionedCall/InceptionV3/Mixed_6c/Branch_3/Conv2d_0b_1x1/Relu6", "op": "_FusedConv2D", "input": ["StatefulPartitionedCall/InceptionV3/Mixed_6c/Branch_3/AvgPool_0a_3x3/AvgPool", "StatefulPartitionedCall/InceptionV3/Mixed_6c/Branch_3/Conv2d_0b_1x1/Conv2D_weights", "StatefulPartitionedCall/InceptionV3/Mixed_6c/Branch_3/Conv2d_0b_1x1/Conv2D_bn_offset"], "device": "/device:CPU:0", "attr": {"T": {"type": "DT_FLOAT"}, "strides": {"list": {"i": ["1", "1", "1", "1"]}}, "data_format": {"s": "TkhXQw=="}, "explicit_paddings": {"list": {}}, "use_cudnn_on_gpu": {"b": true}, "num_args": {"i": "1"}, "epsilon": {"f": 0.0}, "padding": {"s": "U0FNRQ=="}, "fused_ops": {"list": {"s": ["Qmlhc0FkZA==", "UmVsdTY="]}}, "dilations": {"list": {"i": ["1", "1", "1", "1"]}}}}, {"name": "StatefulPartitionedCall/InceptionV3/Mixed_6c/Branch_1/Conv2d_0b_1x7/Relu6", "op": "_FusedConv2D", "input": ["StatefulPartitionedCall/InceptionV3/Mixed_6c/Branch_1/Conv2d_0a_1x1/Relu6", "StatefulPartitionedCall/InceptionV3/Mixed_6c/Branch_1/Conv2d_0b_1x7/Conv2D_weights", "StatefulPartitionedCall/InceptionV3/Mixed_6c/Branch_1/Conv2d_0b_1x7/Conv2D_bn_offset"], "device": "/device:CPU:0", "attr": {"num_args": {"i": "1"}, "epsilon": {"f": 0.0}, "padding": {"s": "U0FNRQ=="}, "fused_ops": {"list": {"s": ["Qmlhc0FkZA==", "UmVsdTY="]}}, "dilations": {"list": {"i": ["1", "1", "1", "1"]}}, "T": {"type": "DT_FLOAT"}, "data_format": {"s": "TkhXQw=="}, "strides": {"list": {"i": ["1", "1", "1", "1"]}}, "explicit_paddings": {"list": {}}, "use_cudnn_on_gpu": {"b": true}}}, {"name": "StatefulPartitionedCall/InceptionV3/Mixed_6c/Branch_2/Conv2d_0b_7x1/Relu6", "op": "_FusedConv2D", "input": ["StatefulPartitionedCall/InceptionV3/Mixed_6c/Branch_2/Conv2d_0a_1x1/Relu6", "StatefulPartitionedCall/InceptionV3/Mixed_6c/Branch_2/Conv2d_0b_7x1/Conv2D_weights", "StatefulPartitionedCall/InceptionV3/Mixed_6c/Branch_2/Conv2d_0b_7x1/Conv2D_bn_offset"], "device": "/device:CPU:0", "attr": {"dilations": {"list": {"i": ["1", "1", "1", "1"]}}, "T": {"type": "DT_FLOAT"}, "data_format": {"s": "TkhXQw=="}, "strides": {"list": {"i": ["1", "1", "1", "1"]}}, "use_cudnn_on_gpu": {"b": true}, "explicit_paddings": {"list": {}}, "num_args": {"i": "1"}, "epsilon": {"f": 0.0}, "padding": {"s": "U0FNRQ=="}, "fused_ops": {"list": {"s": ["Qmlhc0FkZA==", "UmVsdTY="]}}}}, {"name": "StatefulPartitionedCall/InceptionV3/Mixed_6c/Branch_1/Conv2d_0c_7x1/Relu6", "op": "_FusedConv2D", "input": ["StatefulPartitionedCall/InceptionV3/Mixed_6c/Branch_1/Conv2d_0b_1x7/Relu6", "StatefulPartitionedCall/InceptionV3/Mixed_6c/Branch_1/Conv2d_0c_7x1/Conv2D_weights", "StatefulPartitionedCall/InceptionV3/Mixed_6c/Branch_1/Conv2d_0c_7x1/Conv2D_bn_offset"], "device": "/device:CPU:0", "attr": {"data_format": {"s": "TkhXQw=="}, "strides": {"list": {"i": ["1", "1", "1", "1"]}}, "explicit_paddings": {"list": {}}, "use_cudnn_on_gpu": {"b": true}, "num_args": {"i": "1"}, "epsilon": {"f": 0.0}, "padding": {"s": "U0FNRQ=="}, "fused_ops": {"list": {"s": ["Qmlhc0FkZA==", "UmVsdTY="]}}, "dilations": {"list": {"i": ["1", "1", "1", "1"]}}, "T": {"type": "DT_FLOAT"}}}, {"name": "StatefulPartitionedCall/InceptionV3/Mixed_6c/Branch_2/Conv2d_0c_1x7/Relu6", "op": "_FusedConv2D", "input": ["StatefulPartitionedCall/InceptionV3/Mixed_6c/Branch_2/Conv2d_0b_7x1/Relu6", "StatefulPartitionedCall/InceptionV3/Mixed_6c/Branch_2/Conv2d_0c_1x7/Conv2D_weights", "StatefulPartitionedCall/InceptionV3/Mixed_6c/Branch_2/Conv2d_0c_1x7/Conv2D_bn_offset"], "device": "/device:CPU:0", "attr": {"epsilon": {"f": 0.0}, "padding": {"s": "U0FNRQ=="}, "fused_ops": {"list": {"s": ["Qmlhc0FkZA==", "UmVsdTY="]}}, "dilations": {"list": {"i": ["1", "1", "1", "1"]}}, "T": {"type": "DT_FLOAT"}, "strides": {"list": {"i": ["1", "1", "1", "1"]}}, "data_format": {"s": "TkhXQw=="}, "explicit_paddings": {"list": {}}, "use_cudnn_on_gpu": {"b": true}, "num_args": {"i": "1"}}}, {"name": "StatefulPartitionedCall/InceptionV3/Mixed_6c/Branch_2/Conv2d_0d_7x1/Relu6", "op": "_FusedConv2D", "input": ["StatefulPartitionedCall/InceptionV3/Mixed_6c/Branch_2/Conv2d_0c_1x7/Relu6", "StatefulPartitionedCall/InceptionV3/Mixed_6c/Branch_2/Conv2d_0d_7x1/Conv2D_weights", "StatefulPartitionedCall/InceptionV3/Mixed_6c/Branch_2/Conv2d_0d_7x1/Conv2D_bn_offset"], "device": "/device:CPU:0", "attr": {"explicit_paddings": {"list": {}}, "use_cudnn_on_gpu": {"b": true}, "num_args": {"i": "1"}, "epsilon": {"f": 0.0}, "padding": {"s": "U0FNRQ=="}, "fused_ops": {"list": {"s": ["Qmlhc0FkZA==", "UmVsdTY="]}}, "dilations": {"list": {"i": ["1", "1", "1", "1"]}}, "T": {"type": "DT_FLOAT"}, "strides": {"list": {"i": ["1", "1", "1", "1"]}}, "data_format": {"s": "TkhXQw=="}}}, {"name": "StatefulPartitionedCall/InceptionV3/Mixed_6c/Branch_2/Conv2d_0e_1x7/Relu6", "op": "_FusedConv2D", "input": ["StatefulPartitionedCall/InceptionV3/Mixed_6c/Branch_2/Conv2d_0d_7x1/Relu6", "StatefulPartitionedCall/InceptionV3/Mixed_6c/Branch_2/Conv2d_0e_1x7/Conv2D_weights", "StatefulPartitionedCall/InceptionV3/Mixed_6c/Branch_2/Conv2d_0e_1x7/Conv2D_bn_offset"], "device": "/device:CPU:0", "attr": {"epsilon": {"f": 0.0}, "padding": {"s": "U0FNRQ=="}, "fused_ops": {"list": {"s": ["Qmlhc0FkZA==", "UmVsdTY="]}}, "dilations": {"list": {"i": ["1", "1", "1", "1"]}}, "T": {"type": "DT_FLOAT"}, "strides": {"list": {"i": ["1", "1", "1", "1"]}}, "data_format": {"s": "TkhXQw=="}, "explicit_paddings": {"list": {}}, "use_cudnn_on_gpu": {"b": true}, "num_args": {"i": "1"}}}, {"name": "StatefulPartitionedCall/InceptionV3/Mixed_6c/concat", "op": "ConcatV2", "input": ["StatefulPartitionedCall/InceptionV3/Mixed_6c/Branch_0/Conv2d_0a_1x1/Relu6", "StatefulPartitionedCall/InceptionV3/Mixed_6c/Branch_1/Conv2d_0c_7x1/Relu6", "StatefulPartitionedCall/InceptionV3/Mixed_6c/Branch_2/Conv2d_0e_1x7/Relu6", "StatefulPartitionedCall/InceptionV3/Mixed_6c/Branch_3/Conv2d_0b_1x1/Relu6", "StatefulPartitionedCall/InceptionV3/Mixed_6c/concat/axis"], "attr": {"T": {"type": "DT_FLOAT"}, "N": {"i": "4"}, "Tidx": {"type": "DT_INT32"}}}, {"name": "StatefulPartitionedCall/InceptionV3/Mixed_6d/Branch_3/AvgPool_0a_3x3/AvgPool", "op": "AvgPool", "input": ["StatefulPartitionedCall/InceptionV3/Mixed_6c/concat"], "attr": {"T": {"type": "DT_FLOAT"}, "strides": {"list": {"i": ["1", "1", "1", "1"]}}, "data_format": {"s": "TkhXQw=="}, "ksize": {"list": {"i": ["1", "3", "3", "1"]}}, "padding": {"s": "U0FNRQ=="}}}, {"name": "StatefulPartitionedCall/InceptionV3/Mixed_6d/Branch_0/Conv2d_0a_1x1/Relu6", "op": "_FusedConv2D", "input": ["StatefulPartitionedCall/InceptionV3/Mixed_6c/concat", "StatefulPartitionedCall/InceptionV3/Mixed_6d/Branch_0/Conv2d_0a_1x1/Conv2D_weights", "StatefulPartitionedCall/InceptionV3/Mixed_6d/Branch_0/Conv2d_0a_1x1/Conv2D_bn_offset"], "device": "/device:CPU:0", "attr": {"dilations": {"list": {"i": ["1", "1", "1", "1"]}}, "T": {"type": "DT_FLOAT"}, "data_format": {"s": "TkhXQw=="}, "strides": {"list": {"i": ["1", "1", "1", "1"]}}, "use_cudnn_on_gpu": {"b": true}, "explicit_paddings": {"list": {}}, "num_args": {"i": "1"}, "epsilon": {"f": 0.0}, "padding": {"s": "U0FNRQ=="}, "fused_ops": {"list": {"s": ["Qmlhc0FkZA==", "UmVsdTY="]}}}}, {"name": "StatefulPartitionedCall/InceptionV3/Mixed_6d/Branch_1/Conv2d_0a_1x1/Relu6", "op": "_FusedConv2D", "input": ["StatefulPartitionedCall/InceptionV3/Mixed_6c/concat", "StatefulPartitionedCall/InceptionV3/Mixed_6d/Branch_1/Conv2d_0a_1x1/Conv2D_weights", "StatefulPartitionedCall/InceptionV3/Mixed_6d/Branch_1/Conv2d_0a_1x1/Conv2D_bn_offset"], "device": "/device:CPU:0", "attr": {"explicit_paddings": {"list": {}}, "use_cudnn_on_gpu": {"b": true}, "num_args": {"i": "1"}, "epsilon": {"f": 0.0}, "padding": {"s": "U0FNRQ=="}, "fused_ops": {"list": {"s": ["Qmlhc0FkZA==", "UmVsdTY="]}}, "dilations": {"list": {"i": ["1", "1", "1", "1"]}}, "T": {"type": "DT_FLOAT"}, "data_format": {"s": "TkhXQw=="}, "strides": {"list": {"i": ["1", "1", "1", "1"]}}}}, {"name": "StatefulPartitionedCall/InceptionV3/Mixed_6d/Branch_2/Conv2d_0a_1x1/Relu6", "op": "_FusedConv2D", "input": ["StatefulPartitionedCall/InceptionV3/Mixed_6c/concat", "StatefulPartitionedCall/InceptionV3/Mixed_6d/Branch_2/Conv2d_0a_1x1/Conv2D_weights", "StatefulPartitionedCall/InceptionV3/Mixed_6d/Branch_2/Conv2d_0a_1x1/Conv2D_bn_offset"], "device": "/device:CPU:0", "attr": {"T": {"type": "DT_FLOAT"}, "strides": {"list": {"i": ["1", "1", "1", "1"]}}, "data_format": {"s": "TkhXQw=="}, "explicit_paddings": {"list": {}}, "use_cudnn_on_gpu": {"b": true}, "num_args": {"i": "1"}, "epsilon": {"f": 0.0}, "padding": {"s": "U0FNRQ=="}, "fused_ops": {"list": {"s": ["Qmlhc0FkZA==", "UmVsdTY="]}}, "dilations": {"list": {"i": ["1", "1", "1", "1"]}}}}, {"name": "StatefulPartitionedCall/InceptionV3/Mixed_6d/Branch_3/Conv2d_0b_1x1/Relu6", "op": "_FusedConv2D", "input": ["StatefulPartitionedCall/InceptionV3/Mixed_6d/Branch_3/AvgPool_0a_3x3/AvgPool", "StatefulPartitionedCall/InceptionV3/Mixed_6d/Branch_3/Conv2d_0b_1x1/Conv2D_weights", "StatefulPartitionedCall/InceptionV3/Mixed_6d/Branch_3/Conv2d_0b_1x1/Conv2D_bn_offset"], "device": "/device:CPU:0", "attr": {"dilations": {"list": {"i": ["1", "1", "1", "1"]}}, "T": {"type": "DT_FLOAT"}, "strides": {"list": {"i": ["1", "1", "1", "1"]}}, "data_format": {"s": "TkhXQw=="}, "explicit_paddings": {"list": {}}, "use_cudnn_on_gpu": {"b": true}, "num_args": {"i": "1"}, "epsilon": {"f": 0.0}, "padding": {"s": "U0FNRQ=="}, "fused_ops": {"list": {"s": ["Qmlhc0FkZA==", "UmVsdTY="]}}}}, {"name": "StatefulPartitionedCall/InceptionV3/Mixed_6d/Branch_1/Conv2d_0b_1x7/Relu6", "op": "_FusedConv2D", "input": ["StatefulPartitionedCall/InceptionV3/Mixed_6d/Branch_1/Conv2d_0a_1x1/Relu6", "StatefulPartitionedCall/InceptionV3/Mixed_6d/Branch_1/Conv2d_0b_1x7/Conv2D_weights", "StatefulPartitionedCall/InceptionV3/Mixed_6d/Branch_1/Conv2d_0b_1x7/Conv2D_bn_offset"], "device": "/device:CPU:0", "attr": {"dilations": {"list": {"i": ["1", "1", "1", "1"]}}, "T": {"type": "DT_FLOAT"}, "strides": {"list": {"i": ["1", "1", "1", "1"]}}, "data_format": {"s": "TkhXQw=="}, "explicit_paddings": {"list": {}}, "use_cudnn_on_gpu": {"b": true}, "num_args": {"i": "1"}, "epsilon": {"f": 0.0}, "padding": {"s": "U0FNRQ=="}, "fused_ops": {"list": {"s": ["Qmlhc0FkZA==", "UmVsdTY="]}}}}, {"name": "StatefulPartitionedCall/InceptionV3/Mixed_6d/Branch_2/Conv2d_0b_7x1/Relu6", "op": "_FusedConv2D", "input": ["StatefulPartitionedCall/InceptionV3/Mixed_6d/Branch_2/Conv2d_0a_1x1/Relu6", "StatefulPartitionedCall/InceptionV3/Mixed_6d/Branch_2/Conv2d_0b_7x1/Conv2D_weights", "StatefulPartitionedCall/InceptionV3/Mixed_6d/Branch_2/Conv2d_0b_7x1/Conv2D_bn_offset"], "device": "/device:CPU:0", "attr": {"fused_ops": {"list": {"s": ["Qmlhc0FkZA==", "UmVsdTY="]}}, "dilations": {"list": {"i": ["1", "1", "1", "1"]}}, "T": {"type": "DT_FLOAT"}, "strides": {"list": {"i": ["1", "1", "1", "1"]}}, "data_format": {"s": "TkhXQw=="}, "explicit_paddings": {"list": {}}, "use_cudnn_on_gpu": {"b": true}, "num_args": {"i": "1"}, "epsilon": {"f": 0.0}, "padding": {"s": "U0FNRQ=="}}}, {"name": "StatefulPartitionedCall/InceptionV3/Mixed_6d/Branch_1/Conv2d_0c_7x1/Relu6", "op": "_FusedConv2D", "input": ["StatefulPartitionedCall/InceptionV3/Mixed_6d/Branch_1/Conv2d_0b_1x7/Relu6", "StatefulPartitionedCall/InceptionV3/Mixed_6d/Branch_1/Conv2d_0c_7x1/Conv2D_weights", "StatefulPartitionedCall/InceptionV3/Mixed_6d/Branch_1/Conv2d_0c_7x1/Conv2D_bn_offset"], "device": "/device:CPU:0", "attr": {"use_cudnn_on_gpu": {"b": true}, "explicit_paddings": {"list": {}}, "num_args": {"i": "1"}, "epsilon": {"f": 0.0}, "padding": {"s": "U0FNRQ=="}, "fused_ops": {"list": {"s": ["Qmlhc0FkZA==", "UmVsdTY="]}}, "dilations": {"list": {"i": ["1", "1", "1", "1"]}}, "T": {"type": "DT_FLOAT"}, "strides": {"list": {"i": ["1", "1", "1", "1"]}}, "data_format": {"s": "TkhXQw=="}}}, {"name": "StatefulPartitionedCall/InceptionV3/Mixed_6d/Branch_2/Conv2d_0c_1x7/Relu6", "op": "_FusedConv2D", "input": ["StatefulPartitionedCall/InceptionV3/Mixed_6d/Branch_2/Conv2d_0b_7x1/Relu6", "StatefulPartitionedCall/InceptionV3/Mixed_6d/Branch_2/Conv2d_0c_1x7/Conv2D_weights", "StatefulPartitionedCall/InceptionV3/Mixed_6d/Branch_2/Conv2d_0c_1x7/Conv2D_bn_offset"], "device": "/device:CPU:0", "attr": {"padding": {"s": "U0FNRQ=="}, "fused_ops": {"list": {"s": ["Qmlhc0FkZA==", "UmVsdTY="]}}, "dilations": {"list": {"i": ["1", "1", "1", "1"]}}, "T": {"type": "DT_FLOAT"}, "data_format": {"s": "TkhXQw=="}, "strides": {"list": {"i": ["1", "1", "1", "1"]}}, "explicit_paddings": {"list": {}}, "use_cudnn_on_gpu": {"b": true}, "num_args": {"i": "1"}, "epsilon": {"f": 0.0}}}, {"name": "StatefulPartitionedCall/InceptionV3/Mixed_6d/Branch_2/Conv2d_0d_7x1/Relu6", "op": "_FusedConv2D", "input": ["StatefulPartitionedCall/InceptionV3/Mixed_6d/Branch_2/Conv2d_0c_1x7/Relu6", "StatefulPartitionedCall/InceptionV3/Mixed_6d/Branch_2/Conv2d_0d_7x1/Conv2D_weights", "StatefulPartitionedCall/InceptionV3/Mixed_6d/Branch_2/Conv2d_0d_7x1/Conv2D_bn_offset"], "device": "/device:CPU:0", "attr": {"epsilon": {"f": 0.0}, "padding": {"s": "U0FNRQ=="}, "fused_ops": {"list": {"s": ["Qmlhc0FkZA==", "UmVsdTY="]}}, "dilations": {"list": {"i": ["1", "1", "1", "1"]}}, "T": {"type": "DT_FLOAT"}, "strides": {"list": {"i": ["1", "1", "1", "1"]}}, "data_format": {"s": "TkhXQw=="}, "use_cudnn_on_gpu": {"b": true}, "explicit_paddings": {"list": {}}, "num_args": {"i": "1"}}}, {"name": "StatefulPartitionedCall/InceptionV3/Mixed_6d/Branch_2/Conv2d_0e_1x7/Relu6", "op": "_FusedConv2D", "input": ["StatefulPartitionedCall/InceptionV3/Mixed_6d/Branch_2/Conv2d_0d_7x1/Relu6", "StatefulPartitionedCall/InceptionV3/Mixed_6d/Branch_2/Conv2d_0e_1x7/Conv2D_weights", "StatefulPartitionedCall/InceptionV3/Mixed_6d/Branch_2/Conv2d_0e_1x7/Conv2D_bn_offset"], "device": "/device:CPU:0", "attr": {"data_format": {"s": "TkhXQw=="}, "strides": {"list": {"i": ["1", "1", "1", "1"]}}, "use_cudnn_on_gpu": {"b": true}, "explicit_paddings": {"list": {}}, "num_args": {"i": "1"}, "epsilon": {"f": 0.0}, "padding": {"s": "U0FNRQ=="}, "fused_ops": {"list": {"s": ["Qmlhc0FkZA==", "UmVsdTY="]}}, "dilations": {"list": {"i": ["1", "1", "1", "1"]}}, "T": {"type": "DT_FLOAT"}}}, {"name": "StatefulPartitionedCall/InceptionV3/Mixed_6d/concat", "op": "ConcatV2", "input": ["StatefulPartitionedCall/InceptionV3/Mixed_6d/Branch_0/Conv2d_0a_1x1/Relu6", "StatefulPartitionedCall/InceptionV3/Mixed_6d/Branch_1/Conv2d_0c_7x1/Relu6", "StatefulPartitionedCall/InceptionV3/Mixed_6d/Branch_2/Conv2d_0e_1x7/Relu6", "StatefulPartitionedCall/InceptionV3/Mixed_6d/Branch_3/Conv2d_0b_1x1/Relu6", "StatefulPartitionedCall/InceptionV3/Mixed_6d/concat/axis"], "attr": {"Tidx": {"type": "DT_INT32"}, "T": {"type": "DT_FLOAT"}, "N": {"i": "4"}}}, {"name": "StatefulPartitionedCall/InceptionV3/Mixed_6e/Branch_3/AvgPool_0a_3x3/AvgPool", "op": "AvgPool", "input": ["StatefulPartitionedCall/InceptionV3/Mixed_6d/concat"], "attr": {"strides": {"list": {"i": ["1", "1", "1", "1"]}}, "data_format": {"s": "TkhXQw=="}, "ksize": {"list": {"i": ["1", "3", "3", "1"]}}, "padding": {"s": "U0FNRQ=="}, "T": {"type": "DT_FLOAT"}}}, {"name": "StatefulPartitionedCall/InceptionV3/Mixed_6e/Branch_0/Conv2d_0a_1x1/Relu6", "op": "_FusedConv2D", "input": ["StatefulPartitionedCall/InceptionV3/Mixed_6d/concat", "StatefulPartitionedCall/InceptionV3/Mixed_6e/Branch_0/Conv2d_0a_1x1/Conv2D_weights", "StatefulPartitionedCall/InceptionV3/Mixed_6e/Branch_0/Conv2d_0a_1x1/Conv2D_bn_offset"], "device": "/device:CPU:0", "attr": {"fused_ops": {"list": {"s": ["Qmlhc0FkZA==", "UmVsdTY="]}}, "dilations": {"list": {"i": ["1", "1", "1", "1"]}}, "T": {"type": "DT_FLOAT"}, "data_format": {"s": "TkhXQw=="}, "strides": {"list": {"i": ["1", "1", "1", "1"]}}, "explicit_paddings": {"list": {}}, "use_cudnn_on_gpu": {"b": true}, "num_args": {"i": "1"}, "epsilon": {"f": 0.0}, "padding": {"s": "U0FNRQ=="}}}, {"name": "StatefulPartitionedCall/InceptionV3/Mixed_6e/Branch_1/Conv2d_0a_1x1/Relu6", "op": "_FusedConv2D", "input": ["StatefulPartitionedCall/InceptionV3/Mixed_6d/concat", "StatefulPartitionedCall/InceptionV3/Mixed_6e/Branch_1/Conv2d_0a_1x1/Conv2D_weights", "StatefulPartitionedCall/InceptionV3/Mixed_6e/Branch_1/Conv2d_0a_1x1/Conv2D_bn_offset"], "device": "/device:CPU:0", "attr": {"dilations": {"list": {"i": ["1", "1", "1", "1"]}}, "T": {"type": "DT_FLOAT"}, "data_format": {"s": "TkhXQw=="}, "strides": {"list": {"i": ["1", "1", "1", "1"]}}, "explicit_paddings": {"list": {}}, "use_cudnn_on_gpu": {"b": true}, "num_args": {"i": "1"}, "epsilon": {"f": 0.0}, "padding": {"s": "U0FNRQ=="}, "fused_ops": {"list": {"s": ["Qmlhc0FkZA==", "UmVsdTY="]}}}}, {"name": "StatefulPartitionedCall/InceptionV3/Mixed_6e/Branch_2/Conv2d_0a_1x1/Relu6", "op": "_FusedConv2D", "input": ["StatefulPartitionedCall/InceptionV3/Mixed_6d/concat", "StatefulPartitionedCall/InceptionV3/Mixed_6e/Branch_2/Conv2d_0a_1x1/Conv2D_weights", "StatefulPartitionedCall/InceptionV3/Mixed_6e/Branch_2/Conv2d_0a_1x1/Conv2D_bn_offset"], "device": "/device:CPU:0", "attr": {"dilations": {"list": {"i": ["1", "1", "1", "1"]}}, "T": {"type": "DT_FLOAT"}, "data_format": {"s": "TkhXQw=="}, "strides": {"list": {"i": ["1", "1", "1", "1"]}}, "use_cudnn_on_gpu": {"b": true}, "explicit_paddings": {"list": {}}, "num_args": {"i": "1"}, "epsilon": {"f": 0.0}, "padding": {"s": "U0FNRQ=="}, "fused_ops": {"list": {"s": ["Qmlhc0FkZA==", "UmVsdTY="]}}}}, {"name": "StatefulPartitionedCall/InceptionV3/Mixed_6e/Branch_3/Conv2d_0b_1x1/Relu6", "op": "_FusedConv2D", "input": ["StatefulPartitionedCall/InceptionV3/Mixed_6…
pe": "DT_FLOAT"}}}, {"name": "StatefulPartitionedCall/transformer/expand/conv3/conv/StyleNorm/batchnorm/add", "op": "AddV2", "input": ["StatefulPartitionedCall/transformer/expand/conv3/conv/StyleNorm/moments/variance", "StatefulPartitionedCall/transformer/expand/conv3/conv/StyleNorm/batchnorm/add/y"], "attr": {"T": {"type": "DT_FLOAT"}}}, {"name": "StatefulPartitionedCall/transformer/expand/conv3/conv/StyleNorm/batchnorm/Rsqrt", "op": "Rsqrt", "input": ["StatefulPartitionedCall/transformer/expand/conv3/conv/StyleNorm/batchnorm/add"], "attr": {"T": {"type": "DT_FLOAT"}}}, {"name": "StatefulPartitionedCall/transformer/expand/conv3/conv/StyleNorm/batchnorm/mul", "op": "Mul", "input": ["StatefulPartitionedCall/transformer/expand/conv3/conv/StyleNorm/batchnorm/Rsqrt", "StatefulPartitionedCall/transformer/expand/conv3/conv/StyleNorm/ExpandDims_3"], "attr": {"T": {"type": "DT_FLOAT"}}}, {"name": "StatefulPartitionedCall/transformer/expand/conv3/conv/StyleNorm/batchnorm/mul_2", "op": "Mul", "input": ["StatefulPartitionedCall/transformer/expand/conv3/conv/StyleNorm/moments/mean", "StatefulPartitionedCall/transformer/expand/conv3/conv/StyleNorm/batchnorm/mul"], "attr": {"T": {"type": "DT_FLOAT"}}}, {"name": "StatefulPartitionedCall/transformer/expand/conv3/conv/StyleNorm/batchnorm/mul_1", "op": "Mul", "input": ["StatefulPartitionedCall/transformer/expand/conv3/conv/Conv2D", "StatefulPartitionedCall/transformer/expand/conv3/conv/StyleNorm/batchnorm/mul"], "attr": {"T": {"type": "DT_FLOAT"}}}, {"name": "StatefulPartitionedCall/transformer/expand/conv3/conv/StyleNorm/batchnorm/sub", "op": "Sub", "input": ["StatefulPartitionedCall/transformer/expand/conv3/conv/StyleNorm/ExpandDims_1", "StatefulPartitionedCall/transformer/expand/conv3/conv/StyleNorm/batchnorm/mul_2"], "attr": {"T": {"type": "DT_FLOAT"}}}, {"name": "StatefulPartitionedCall/transformer/expand/conv3/conv/StyleNorm/batchnorm/add_1", "op": "AddV2", "input": ["StatefulPartitionedCall/transformer/expand/conv3/conv/StyleNorm/batchnorm/mul_1", "StatefulPartitionedCall/transformer/expand/conv3/conv/StyleNorm/batchnorm/sub"], "attr": {"T": {"type": "DT_FLOAT"}}}, {"name": "StatefulPartitionedCall/transformer/expand/conv3/conv/Sigmoid", "op": "Sigmoid", "input": ["StatefulPartitionedCall/transformer/expand/conv3/conv/StyleNorm/batchnorm/add_1"], "attr": {"T": {"type": "DT_FLOAT"}}}, {"name": "Identity", "op": "Identity", "input": ["StatefulPartitionedCall/transformer/expand/conv3/conv/Sigmoid"], "attr": {"T": {"type": "DT_FLOAT"}}}], "library": {}, "versions": {"producer": 561}}, "weightsManifest": [{"paths": ["group1-shard1of11.bin", "group1-shard2of11.bin", "group1-shard3of11.bin", "group1-shard4of11.bin", "group1-shard5of11.bin", "group1-shard6of11.bin", "group1-shard7of11.bin", "group1-shard8of11.bin", "group1-shard9of11.bin", "group1-shard10of11.bin", "group1-shard11of11.bin"], "weights": [{"name": "statefulpartitionedcall_style_params_transformer_expand_conv3_conv_stylenorm_conv_weights", "shape": [1, 1, 100, 3], "dtype": "float32"}, {"name": "statefulpartitionedcall_style_params_transformer_expand_conv3_conv_stylenorm_conv_biases", "shape": [3], "dtype": "float32"}, {"name": "StatefulPartitionedCall/transformer/expand/conv3/conv/StyleNorm/ExpandDims/dim", "shape": [], "dtype": "int32"}, {"name": "StatefulPartitionedCall/transformer/expand/conv3/conv/StyleNorm/ExpandDims_1/dim", "shape": [], "dtype": "int32"}, {"name": "StatefulPartitionedCall/transformer/expand/conv3/strided_slice/stack", "shape": [1], "dtype": "int32"}, {"name": "StatefulPartitionedCall/transformer/expand/conv3/strided_slice/stack_1", "shape": [1], "dtype": "int32"}, {"name": "StatefulPartitionedCall/transformer/expand/conv3/strided_slice/stack_2", "shape": [1], "dtype": "int32"}, {"name": "statefulpartitionedcall_style_params_transformer_expand_conv2_conv_stylenorm_conv_weights", "shape": [1, 1, 100, 32], "dtype": "float32"}, {"name": "statefulpartitionedcall_style_params_transformer_expand_conv2_conv_stylenorm_conv_biases", "shape": [32], "dtype": "float32"}, {"name": "StatefulPartitionedCall/transformer/expand/conv2/conv/StyleNorm/ExpandDims/dim", "shape": [], "dtype": "int32"}, {"name": "StatefulPartitionedCall/transformer/expand/conv2/conv/StyleNorm/ExpandDims_1/dim", "shape": [], "dtype": "int32"}, {"name": "StatefulPartitionedCall/transformer/expand/conv2/mul/x", "shape": [], "dtype": "int32"}, {"name": "StatefulPartitionedCall/transformer/expand/conv2/strided_slice/stack", "shape": [1], "dtype": "int32"}, {"name": "StatefulPartitionedCall/transformer/expand/conv2/strided_slice/stack_1", "shape": [1], "dtype": "int32"}, {"name": "StatefulPartitionedCall/transformer/expand/conv2/strided_slice/stack_2", "shape": [1], "dtype": "int32"}, {"name": "StatefulPartitionedCall/transformer/expand/conv2/mul_1/x", "shape": [], "dtype": "int32"}, {"name": "statefulpartitionedcall_style_params_transformer_expand_conv1_conv_stylenorm_conv_weights", "shape": [1, 1, 100, 64], "dtype": "float32"}, {"name": "statefulpartitionedcall_style_params_transformer_expand_conv1_conv_stylenorm_conv_biases", "shape": [64], "dtype": "float32"}, {"name": "StatefulPartitionedCall/transformer/expand/conv1/conv/StyleNorm/ExpandDims/dim", "shape": [], "dtype": "int32"}, {"name": "StatefulPartitionedCall/transformer/expand/conv1/conv/StyleNorm/ExpandDims_1/dim", "shape": [], "dtype": "int32"}, {"name": "StatefulPartitionedCall/transformer/expand/conv1/mul/x", "shape": [], "dtype": "int32"}, {"name": "StatefulPartitionedCall/transformer/expand/conv1/strided_slice/stack", "shape": [1], "dtype": "int32"}, {"name": "StatefulPartitionedCall/transformer/expand/conv1/strided_slice/stack_1", "shape": [1], "dtype": "int32"}, {"name": "StatefulPartitionedCall/transformer/expand/conv1/strided_slice/stack_2", "shape": [1], "dtype": "int32"}, {"name": "StatefulPartitionedCall/transformer/expand/conv1/mul_1/x", "shape": [], "dtype": "int32"}, {"name": "statefulpartitionedcall_style_params_transformer_residual_residual5_conv2_stylenorm_conv_weights", "shape": [1, 1, 100, 128], "dtype": "float32"}, {"name": "statefulpartitionedcall_style_params_transformer_residual_residual5_conv2_stylenorm_conv_biases", "shape": [128], "dtype": "float32"}, {"name": "StatefulPartitionedCall/transformer/residual/residual5/conv2/StyleNorm/ExpandDims/dim", "shape": [], "dtype": "int32"}, {"name": "StatefulPartitionedCall/transformer/residual/residual5/conv2/StyleNorm/ExpandDims_1/dim", "shape": [], "dtype": "int32"}, {"name": "statefulpartitionedcall_style_params_transformer_residual_residual5_conv1_stylenorm_conv_weights", "shape": [1, 1, 100, 128], "dtype": "float32"}, {"name": "statefulpartitionedcall_style_params_transformer_residual_residual5_conv1_stylenorm_conv_biases", "shape": [128], "dtype": "float32"}, {"name": "StatefulPartitionedCall/transformer/residual/residual5/conv1/StyleNorm/ExpandDims/dim", "shape": [], "dtype": "int32"}, {"name": "StatefulPartitionedCall/transformer/residual/residual5/conv1/StyleNorm/ExpandDims_1/dim", "shape": [], "dtype": "int32"}, {"name": "statefulpartitionedcall_style_params_transformer_residual_residual4_conv2_stylenorm_conv_weights", "shape": [1, 1, 100, 128], "dtype": "float32"}, {"name": "statefulpartitionedcall_style_params_transformer_residual_residual4_conv2_stylenorm_conv_biases", "shape": [128], "dtype": "float32"}, {"name": "StatefulPartitionedCall/transformer/residual/residual4/conv2/StyleNorm/ExpandDims/dim", "shape": [], "dtype": "int32"}, {"name": "StatefulPartitionedCall/transformer/residual/residual4/conv2/StyleNorm/ExpandDims_1/dim", "shape": [], "dtype": "int32"}, {"name": "statefulpartitionedcall_style_params_transformer_residual_residual4_conv1_stylenorm_conv_weights", "shape": [1, 1, 100, 128], "dtype": "float32"}, {"name": "statefulpartitionedcall_style_params_transformer_residual_residual4_conv1_stylenorm_conv_biases", "shape": [128], "dtype": "float32"}, {"name": "StatefulPartitionedCall/transformer/residual/residual4/conv1/StyleNorm/ExpandDims/dim", "shape": [], "dtype": "int32"}, {"name": "StatefulPartitionedCall/transformer/residual/residual4/conv1/StyleNorm/ExpandDims_1/dim", "shape": [], "dtype": "int32"}, {"name": "statefulpartitionedcall_style_params_transformer_residual_residual3_conv2_stylenorm_conv_weights", "shape": [1, 1, 100, 128], "dtype": "float32"}, {"name": "statefulpartitionedcall_style_params_transformer_residual_residual3_conv2_stylenorm_conv_biases", "shape": [128], "dtype": "float32"}, {"name": "StatefulPartitionedCall/transformer/residual/residual3/conv2/StyleNorm/ExpandDims/dim", "shape": [], "dtype": "int32"}, {"name": "StatefulPartitionedCall/transformer/residual/residual3/conv2/StyleNorm/ExpandDims_1/dim", "shape": [], "dtype": "int32"}, {"name": "statefulpartitionedcall_style_params_transformer_residual_residual3_conv1_stylenorm_conv_weights", "shape": [1, 1, 100, 128], "dtype": "float32"}, {"name": "statefulpartitionedcall_style_params_transformer_residual_residual3_conv1_stylenorm_conv_biases", "shape": [128], "dtype": "float32"}, {"name": "StatefulPartitionedCall/transformer/residual/residual3/conv1/StyleNorm/ExpandDims/dim", "shape": [], "dtype": "int32"}, {"name": "StatefulPartitionedCall/transformer/residual/residual3/conv1/StyleNorm/ExpandDims_1/dim", "shape": [], "dtype": "int32"}, {"name": "statefulpartitionedcall_style_params_transformer_residual_residual2_conv2_stylenorm_conv_weights", "shape": [1, 1, 100, 128], "dtype": "float32"}, {"name": "statefulpartitionedcall_style_params_transformer_residual_residual2_conv2_stylenorm_conv_biases", "shape": [128], "dtype": "float32"}, {"name": "StatefulPartitionedCall/transformer/residual/residual2/conv2/StyleNorm/ExpandDims/dim", "shape": [], "dtype": "int32"}, {"name": "StatefulPartitionedCall/transformer/residual/residual2/conv2/StyleNorm/ExpandDims_1/dim", "shape": [], "dtype": "int32"}, {"name": "statefulpartitionedcall_style_params_transformer_residual_residual2_conv1_stylenorm_conv_weights", "shape": [1, 1, 100, 128], "dtype": "float32"}, {"name": "statefulpartitionedcall_style_params_transformer_residual_residual2_conv1_stylenorm_conv_biases", "shape": [128], "dtype": "float32"}, {"name": "StatefulPartitionedCall/transformer/residual/residual2/conv1/StyleNorm/ExpandDims/dim", "shape": [], "dtype": "int32"}, {"name": "StatefulPartitionedCall/transformer/residual/residual2/conv1/StyleNorm/ExpandDims_1/dim", "shape": [], "dtype": "int32"}, {"name": "statefulpartitionedcall_style_params_transformer_residual_residual1_conv2_stylenorm_conv_weights", "shape": [1, 1, 100, 128], "dtype": "float32"}, {"name": "statefulpartitionedcall_style_params_transformer_residual_residual1_conv2_stylenorm_conv_biases", "shape": [128], "dtype": "float32"}, {"name": "StatefulPartitionedCall/transformer/residual/residual1/conv2/StyleNorm/ExpandDims/dim", "shape": [], "dtype": "int32"}, {"name": "StatefulPartitionedCall/transformer/residual/residual1/conv2/StyleNorm/ExpandDims_1/dim", "shape": [], "dtype": "int32"}, {"name": "statefulpartitionedcall_style_params_transformer_residual_residual1_conv1_stylenorm_conv_weights", "shape": [1, 1, 100, 128], "dtype": "float32"}, {"name": "statefulpartitionedcall_style_params_transformer_residual_residual1_conv1_stylenorm_conv_biases", "shape": [128], "dtype": "float32"}, {"name": "StatefulPartitionedCall/transformer/residual/residual1/conv1/StyleNorm/ExpandDims/dim", "shape": [], "dtype": "int32"}, {"name": "StatefulPartitionedCall/transformer/residual/residual1/conv1/StyleNorm/ExpandDims_1/dim", "shape": [], "dtype": "int32"}, {"name": "StatefulPartitionedCall/transformer/contract/MirrorPad/paddings", "shape": [4, 2], "dtype": "int32"}, {"name": "StatefulPartitionedCall/transformer/contract/MirrorPad_1/paddings", "shape": [4, 2], "dtype": "int32"}, {"name": "StatefulPartitionedCall/transformer/contract/MirrorPad_2/paddings", "shape": [4, 2], "dtype": "int32"}, {"name": "StatefulPartitionedCall/transformer/residual/residual1/MirrorPad/paddings", "shape": [4, 2], "dtype": "int32"}, {"name": "statefulpartitionedcall_transformer_residual_residual1_conv1_weights", "shape": [3, 3, 128, 128], "dtype": "float32"}, {"name": "StatefulPartitionedCall/transformer/residual/residual1/conv1/StyleNorm/moments/mean/reduction_indices", "shape": [2], "dtype": "int32"}, {"name": "StatefulPartitionedCall/transformer/residual/residual1/conv1/StyleNorm/moments/variance/reduction_indices", "shape": [2], "dtype": "int32"}, {"name": "StatefulPartitionedCall/transformer/residual/residual1/conv1/StyleNorm/batchnorm/add/y", "shape": [], "dtype": "float32"}, {"name": "statefulpartitionedcall_style_params_transformer_residual_residual1_conv1_stylenorm_conv_1_weights", "shape": [1, 1, 100, 128], "dtype": "float32"}, {"name": "statefulpartitionedcall_style_params_transformer_residual_residual1_conv1_stylenorm_conv_1_biases", "shape": [128], "dtype": "float32"}, {"name": "StatefulPartitionedCall/transformer/residual/residual1/conv1/StyleNorm/ExpandDims_2/dim", "shape": [], "dtype": "int32"}, {"name": "StatefulPartitionedCall/transformer/residual/residual1/conv1/StyleNorm/ExpandDims_3/dim", "shape": [], "dtype": "int32"}, {"name": "StatefulPartitionedCall/transformer/residual/residual1/MirrorPad_1/paddings", "shape": [4, 2], "dtype": "int32"}, {"name": "statefulpartitionedcall_transformer_residual_residual1_conv2_weights", "shape": [3, 3, 128, 128], "dtype": "float32"}, {"name": "StatefulPartitionedCall/transformer/residual/residual1/conv2/StyleNorm/moments/mean/reduction_indices", "shape": [2], "dtype": "int32"}, {"name": "StatefulPartitionedCall/transformer/residual/residual1/conv2/StyleNorm/moments/variance/reduction_indices", "shape": [2], "dtype": "int32"}, {"name": "StatefulPartitionedCall/transformer/residual/residual1/conv2/StyleNorm/batchnorm/add/y", "shape": [], "dtype": "float32"}, {"name": "statefulpartitionedcall_style_params_transformer_residual_residual1_conv2_stylenorm_conv_1_weights", "shape": [1, 1, 100, 128], "dtype": "float32"}, {"name": "statefulpartitionedcall_style_params_transformer_residual_residual1_conv2_stylenorm_conv_1_biases", "shape": [128], "dtype": "float32"}, {"name": "StatefulPartitionedCall/transformer/residual/residual1/conv2/StyleNorm/ExpandDims_2/dim", "shape": [], "dtype": "int32"}, {"name": "StatefulPartitionedCall/transformer/residual/residual1/conv2/StyleNorm/ExpandDims_3/dim", "shape": [], "dtype": "int32"}, {"name": "StatefulPartitionedCall/transformer/residual/residual2/MirrorPad/paddings", "shape": [4, 2], "dtype": "int32"}, {"name": "statefulpartitionedcall_transformer_residual_residual2_conv1_weights", "shape": [3, 3, 128, 128], "dtype": "float32"}, {"name": "StatefulPartitionedCall/transformer/residual/residual2/conv1/StyleNorm/moments/mean/reduction_indices", "shape": [2], "dtype": "int32"}, {"name": "StatefulPartitionedCall/transformer/residual/residual2/conv1/StyleNorm/moments/variance/reduction_indices", "shape": [2], "dtype": "int32"}, {"name": "StatefulPartitionedCall/transformer/residual/residual2/conv1/StyleNorm/batchnorm/add/y", "shape": [], "dtype": "float32"}, {"name": "statefulpartitionedcall_style_params_transformer_residual_residual2_conv1_stylenorm_conv_1_weights", "shape": [1, 1, 100, 128], "dtype": "float32"}, {"name": "statefulpartitionedcall_style_params_transformer_residual_residual2_conv1_stylenorm_conv_1_biases", "shape": [128], "dtype": "float32"}, {"name": "StatefulPartitionedCall/transformer/residual/residual2/conv1/StyleNorm/ExpandDims_2/dim", "shape": [], "dtype": "int32"}, {"name": "StatefulPartitionedCall/transformer/residual/residual2/conv1/StyleNorm/ExpandDims_3/dim", "shape": [], "dtype": "int32"}, {"name": "StatefulPartitionedCall/transformer/residual/residual2/MirrorPad_1/paddings", "shape": [4, 2], "dtype": "int32"}, {"name": "statefulpartitionedcall_transformer_residual_residual2_conv2_weights", "shape": [3, 3, 128, 128], "dtype": "float32"}, {"name": "StatefulPartitionedCall/transformer/residual/residual2/conv2/StyleNorm/moments/mean/reduction_indices", "shape": [2], "dtype": "int32"}, {"name": "StatefulPartitionedCall/transformer/residual/residual2/conv2/StyleNorm/moments/variance/reduction_indices", "shape": [2], "dtype": "int32"}, {"name": "StatefulPartitionedCall/transformer/residual/residual2/conv2/StyleNorm/batchnorm/add/y", "shape": [], "dtype": "float32"}, {"name": "statefulpartitionedcall_style_params_transformer_residual_residual2_conv2_stylenorm_conv_1_weights", "shape": [1, 1, 100, 128], "dtype": "float32"}, {"name": "statefulpartitionedcall_style_params_transformer_residual_residual2_conv2_stylenorm_conv_1_biases", "shape": [128], "dtype": "float32"}, {"name": "StatefulPartitionedCall/transformer/residual/residual2/conv2/StyleNorm/ExpandDims_2/dim", "shape": [], "dtype": "int32"}, {"name": "StatefulPartitionedCall/transformer/residual/residual2/conv2/StyleNorm/ExpandDims_3/dim", "shape": [], "dtype": "int32"}, {"name": "StatefulPartitionedCall/transformer/residual/residual3/MirrorPad/paddings", "shape": [4, 2], "dtype": "int32"}, {"name": "statefulpartitionedcall_transformer_residual_residual3_conv1_weights", "shape": [3, 3, 128, 128], "dtype": "float32"}, {"name": "StatefulPartitionedCall/transformer/residual/residual3/conv1/StyleNorm/moments/mean/reduction_indices", "shape": [2], "dtype": "int32"}, {"name": "StatefulPartitionedCall/transformer/residual/residual3/conv1/StyleNorm/moments/variance/reduction_indices", "shape": [2], "dtype": "int32"}, {"name": "StatefulPartitionedCall/transformer/residual/residual3/conv1/StyleNorm/batchnorm/add/y", "shape": [], "dtype": "float32"}, {"name": "statefulpartitionedcall_style_params_transformer_residual_residual3_conv1_stylenorm_conv_1_weights", "shape": [1, 1, 100, 128], "dtype": "float32"}, {"name": "statefulpartitionedcall_style_params_transformer_residual_residual3_conv1_stylenorm_conv_1_biases", "shape": [128], "dtype": "float32"}, {"name": "StatefulPartitionedCall/transformer/residual/residual3/conv1/StyleNorm/ExpandDims_2/dim", "shape": [], "dtype": "int32"}, {"name": "StatefulPartitionedCall/transformer/residual/residual3/conv1/StyleNorm/ExpandDims_3/dim", "shape": [], "dtype": "int32"}, {"name": "StatefulPartitionedCall/transformer/residual/residual3/MirrorPad_1/paddings", "shape": [4, 2], "dtype": "int32"}, {"name": "statefulpartitionedcall_transformer_residual_residual3_conv2_weights", "shape": [3, 3, 128, 128], "dtype": "float32"}, {"name": "StatefulPartitionedCall/transformer/residual/residual3/conv2/StyleNorm/moments/mean/reduction_indices", "shape": [2], "dtype": "int32"}, {"name": "StatefulPartitionedCall/transformer/residual/residual3/conv2/StyleNorm/moments/variance/reduction_indices", "shape": [2], "dtype": "int32"}, {"name": "StatefulPartitionedCall/transformer/residual/residual3/conv2/StyleNorm/batchnorm/add/y", "shape": [], "dtype": "float32"}, {"name": "statefulpartitionedcall_style_params_transformer_residual_residual3_conv2_stylenorm_conv_1_weights", "shape": [1, 1, 100, 128], "dtype": "float32"}, {"name": "statefulpartitionedcall_style_params_transformer_residual_residual3_conv2_stylenorm_conv_1_biases", "shape": [128], "dtype": "float32"}, {"name": "StatefulPartitionedCall/transformer/residual/residual3/conv2/StyleNorm/ExpandDims_2/dim", "shape": [], "dtype": "int32"}, {"name": "StatefulPartitionedCall/transformer/residual/residual3/conv2/StyleNorm/ExpandDims_3/dim", "shape": [], "dtype": "int32"}, {"name": "StatefulPartitionedCall/transformer/residual/residual4/MirrorPad/paddings", "shape": [4, 2], "dtype": "int32"}, {"name": "statefulpartitionedcall_transformer_residual_residual4_conv1_weights", "shape": [3, 3, 128, 128], "dtype": "float32"}, {"name": "StatefulPartitionedCall/transformer/residual/residual4/conv1/StyleNorm/moments/mean/reduction_indices", "shape": [2], "dtype": "int32"}, {"name": "StatefulPartitionedCall/transformer/residual/residual4/conv1/StyleNorm/moments/variance/reduction_indices", "shape": [2], "dtype": "int32"}, {"name": "StatefulPartitionedCall/transformer/residual/residual4/conv1/StyleNorm/batchnorm/add/y", "shape": [], "dtype": "float32"}, {"name": "statefulpartitionedcall_style_params_transformer_residual_residual4_conv1_stylenorm_conv_1_weights", "shape": [1, 1, 100, 128], "dtype": "float32"}, {"name": "statefulpartitionedcall_style_params_transformer_residual_residual4_conv1_stylenorm_conv_1_biases", "shape": [128], "dtype": "float32"}, {"name": "StatefulPartitionedCall/transformer/residual/residual4/conv1/StyleNorm/ExpandDims_2/dim", "shape": [], "dtype": "int32"}, {"name": "StatefulPartitionedCall/transformer/residual/residual4/conv1/StyleNorm/ExpandDims_3/dim", "shape": [], "dtype": "int32"}, {"name": "StatefulPartitionedCall/transformer/residual/residual4/MirrorPad_1/paddings", "shape": [4, 2], "dtype": "int32"}, {"name": "statefulpartitionedcall_transformer_residual_residual4_conv2_weights", "shape": [3, 3, 128, 128], "dtype": "float32"}, {"name": "StatefulPartitionedCall/transformer/residual/residual4/conv2/StyleNorm/moments/mean/reduction_indices", "shape": [2], "dtype": "int32"}, {"name": "StatefulPartitionedCall/transformer/residual/residual4/conv2/StyleNorm/moments/variance/reduction_indices", "shape": [2], "dtype": "int32"}, {"name": "StatefulPartitionedCall/transformer/residual/residual4/conv2/StyleNorm/batchnorm/add/y", "shape": [], "dtype": "float32"}, {"name": "statefulpartitionedcall_style_params_transformer_residual_residual4_conv2_stylenorm_conv_1_weights", "shape": [1, 1, 100, 128], "dtype": "float32"}, {"name": "statefulpartitionedcall_style_params_transformer_residual_residual4_conv2_stylenorm_conv_1_biases", "shape": [128], "dtype": "float32"}, {"name": "StatefulPartitionedCall/transformer/residual/residual4/conv2/StyleNorm/ExpandDims_2/dim", "shape": [], "dtype": "int32"}, {"name": "StatefulPartitionedCall/transformer/residual/residual4/conv2/StyleNorm/ExpandDims_3/dim", "shape": [], "dtype": "int32"}, {"name": "StatefulPartitionedCall/transformer/residual/residual5/MirrorPad/paddings", "shape": [4, 2], "dtype": "int32"}, {"name": "statefulpartitionedcall_transformer_residual_residual5_conv1_weights", "shape": [3, 3, 128, 128], "dtype": "float32"}, {"name": "StatefulPartitionedCall/transformer/residual/residual5/conv1/StyleNorm/moments/mean/reduction_indices", "shape": [2], "dtype": "int32"}, {"name": "StatefulPartitionedCall/transformer/residual/residual5/conv1/StyleNorm/moments/variance/reduction_indices", "shape": [2], "dtype": "int32"}, {"name": "StatefulPartitionedCall/transformer/residual/residual5/conv1/StyleNorm/batchnorm/add/y", "shape": [], "dtype": "float32"}, {"name": "statefulpartitionedcall_style_params_transformer_residual_residual5_conv1_stylenorm_conv_1_weights", "shape": [1, 1, 100, 128], "dtype": "float32"}, {"name": "statefulpartitionedcall_style_params_transformer_residual_residual5_conv1_stylenorm_conv_1_biases", "shape": [128], "dtype": "float32"}, {"name": "StatefulPartitionedCall/transformer/residual/residual5/conv1/StyleNorm/ExpandDims_2/dim", "shape": [], "dtype": "int32"}, {"name": "StatefulPartitionedCall/transformer/residual/residual5/conv1/StyleNorm/ExpandDims_3/dim", "shape": [], "dtype": "int32"}, {"name": "StatefulPartitionedCall/transformer/residual/residual5/MirrorPad_1/paddings", "shape": [4, 2], "dtype": "int32"}, {"name": "statefulpartitionedcall_transformer_residual_residual5_conv2_weights", "shape": [3, 3, 128, 128], "dtype": "float32"}, {"name": "StatefulPartitionedCall/transformer/residual/residual5/conv2/StyleNorm/moments/mean/reduction_indices", "shape": [2], "dtype": "int32"}, {"name": "StatefulPartitionedCall/transformer/residual/residual5/conv2/StyleNorm/moments/variance/reduction_indices", "shape": [2], "dtype": "int32"}, {"name": "StatefulPartitionedCall/transformer/residual/residual5/conv2/StyleNorm/batchnorm/add/y", "shape": [], "dtype": "float32"}, {"name": "statefulpartitionedcall_style_params_transformer_residual_residual5_conv2_stylenorm_conv_1_weights", "shape": [1, 1, 100, 128], "dtype": "float32"}, {"name": "statefulpartitionedcall_style_params_transformer_residual_residual5_conv2_stylenorm_conv_1_biases", "shape": [128], "dtype": "float32"}, {"name": "StatefulPartitionedCall/transformer/residual/residual5/conv2/StyleNorm/ExpandDims_2/dim", "shape": [], "dtype": "int32"}, {"name": "StatefulPartitionedCall/transformer/residual/residual5/conv2/StyleNorm/ExpandDims_3/dim", "shape": [], "dtype": "int32"}, {"name": "StatefulPartitionedCall/transformer/expand/conv1/strided_slice_1/stack", "shape": [1], "dtype": "int32"}, {"name": "StatefulPartitionedCall/transformer/expand/conv1/strided_slice_1/stack_1", "shape": [1], "dtype": "int32"}, {"name": "StatefulPartitionedCall/transformer/expand/conv1/strided_slice_1/stack_2", "shape": [1], "dtype": "int32"}, {"name": "StatefulPartitionedCall/transformer/expand/conv1/MirrorPad/paddings", "shape": [4, 2], "dtype": "int32"}, {"name": "statefulpartitionedcall_transformer_expand_conv1_conv_weights", "shape": [3, 3, 128, 64], "dtype": "float32"}, {"name": "StatefulPartitionedCall/transformer/expand/conv1/conv/StyleNorm/moments/mean/reduction_indices", "shape": [2], "dtype": "int32"}, {"name": "StatefulPartitionedCall/transformer/expand/conv1/conv/StyleNorm/moments/variance/reduction_indices", "shape": [2], "dtype": "int32"}, {"name": "StatefulPartitionedCall/transformer/expand/conv1/conv/StyleNorm/batchnorm/add/y", "shape": [], "dtype": "float32"}, {"name": "statefulpartitionedcall_style_params_transformer_expand_conv1_conv_stylenorm_conv_1_weights", "shape": [1, 1, 100, 64], "dtype": "float32"}, {"name": "statefulpartitionedcall_style_params_transformer_expand_conv1_conv_stylenorm_conv_1_biases", "shape": [64], "dtype": "float32"}, {"name": "StatefulPartitionedCall/transformer/expand/conv1/conv/StyleNorm/ExpandDims_2/dim", "shape": [], "dtype": "int32"}, {"name": "StatefulPartitionedCall/transformer/expand/conv1/conv/StyleNorm/ExpandDims_3/dim", "shape": [], "dtype": "int32"}, {"name": "StatefulPartitionedCall/transformer/expand/conv2/strided_slice_1/stack", "shape": [1], "dtype": "int32"}, {"name": "StatefulPartitionedCall/transformer/expand/conv2/strided_slice_1/stack_1", "shape": [1], "dtype": "int32"}, {"name": "StatefulPartitionedCall/transformer/expand/conv2/strided_slice_1/stack_2", "shape": [1], "dtype": "int32"}, {"name": "StatefulPartitionedCall/transformer/expand/conv2/MirrorPad/paddings", "shape": [4, 2], "dtype": "int32"}, {"name": "statefulpartitionedcall_transformer_expand_conv2_conv_weights", "shape": [3, 3, 64, 32], "dtype": "float32"}, {"name": "StatefulPartitionedCall/transformer/expand/conv2/conv/StyleNorm/moments/mean/reduction_indices", "shape": [2], "dtype": "int32"}, {"name": "StatefulPartitionedCall/transformer/expand/conv2/conv/StyleNorm/moments/variance/reduction_indices", "shape": [2], "dtype": "int32"}, {"name": "StatefulPartitionedCall/transformer/expand/conv2/conv/StyleNorm/batchnorm/add/y", "shape": [], "dtype": "float32"}, {"name": "statefulpartitionedcall_style_params_transformer_expand_conv2_conv_stylenorm_conv_1_weights", "shape": [1, 1, 100, 32], "dtype": "float32"}, {"name": "statefulpartitionedcall_style_params_transformer_expand_conv2_conv_stylenorm_conv_1_biases", "shape": [32], "dtype": "float32"}, {"name": "StatefulPartitionedCall/transformer/expand/conv2/conv/StyleNorm/ExpandDims_2/dim", "shape": [], "dtype": "int32"}, {"name": "StatefulPartitionedCall/transformer/expand/conv2/conv/StyleNorm/ExpandDims_3/dim", "shape": [], "dtype": "int32"}, {"name": "StatefulPartitionedCall/transformer/expand/conv3/strided_slice_1/stack", "shape": [1], "dtype": "int32"}, {"name": "StatefulPartitionedCall/transformer/expand/conv3/strided_slice_1/stack_1", "shape": [1], "dtype": "int32"}, {"name": "StatefulPartitionedCall/transformer/expand/conv3/strided_slice_1/stack_2", "shape": [1], "dtype": "int32"}, {"name": "StatefulPartitionedCall/transformer/expand/conv3/MirrorPad/paddings", "shape": [4, 2], "dtype": "int32"}, {"name": "statefulpartitionedcall_transformer_expand_conv3_conv_weights", "shape": [9, 9, 32, 3], "dtype": "float32"}, {"name": "StatefulPartitionedCall/transformer/expand/conv3/conv/StyleNorm/moments/mean/reduction_indices", "shape": [2], "dtype": "int32"}, {"name": "StatefulPartitionedCall/transformer/expand/conv3/conv/StyleNorm/moments/variance/reduction_indices", "shape": [2], "dtype": "int32"}, {"name": "StatefulPartitionedCall/transformer/expand/conv3/conv/StyleNorm/batchnorm/add/y", "shape": [], "dtype": "float32"}, {"name": "StatefulPartitionedCall/InceptionV3/Mixed_5b/concat/axis", "shape": [], "dtype": "int32"}, {"name": "StatefulPartitionedCall/InceptionV3/Mixed_5c/concat/axis", "shape": [], "dtype": "int32"}, {"name": "StatefulPartitionedCall/InceptionV3/Mixed_5d/concat/axis", "shape": [], "dtype": "int32"}, {"name": "StatefulPartitionedCall/InceptionV3/Mixed_6a/concat/axis", "shape": [], "dtype": "int32"}, {"name": "StatefulPartitionedCall/InceptionV3/Mixed_6b/concat/axis", "shape": [], "dtype": "int32"}, {"name": "StatefulPartitionedCall/InceptionV3/Mixed_6c/concat/axis", "shape": [], "dtype": "int32"}, {"name": "StatefulPartitionedCall/InceptionV3/Mixed_6d/concat/axis", "shape": [], "dtype": "int32"}, {"name": "StatefulPartitionedCall/InceptionV3/Mixed_6e/concat/axis", "shape": [], "dtype": "int32"}, {"name": "StatefulPartitionedCall/bottleneck/Mean/reduction_indices", "shape": [2], "dtype": "int32"}, {"name": "statefulpartitionedcall_conv_weights", "shape": [1, 1, 768, 100], "dtype": "float32"}, {"name": "statefulpartitionedcall_conv_biases", "shape": [100], "dtype": "float32"}, {"name": "statefulpartitionedcall_style_params_transformer_expand_conv3_conv_stylenorm_conv_1_weights", "shape": [1, 1, 100, 3], "dtype": "float32"}, {"name": "statefulpartitionedcall_style_params_transformer_expand_conv3_conv_stylenorm_conv_1_biases", "shape": [3], "dtype": "float32"}, {"name": "StatefulPartitionedCall/transformer/expand/conv3/conv/StyleNorm/ExpandDims_2/dim", "shape": [], "dtype": "int32"}, {"name": "StatefulPartitionedCall/transformer/expand/conv3/conv/StyleNorm/ExpandDims_3/dim", "shape": [], "dtype": "int32"}, {"name": "StatefulPartitionedCall/InceptionV3/Conv2d_1a_3x3/Conv2D_weights", "shape": [3, 3, 3, 32], "dtype": "float32"}, {"name": "StatefulPartitionedCall/InceptionV3/Conv2d_1a_3x3/Conv2D_bn_offset", "shape": [32], "dtype": "float32"}, {"name": "StatefulPartitionedCall/transformer/contract/conv1/Conv2D_weights", "shape": [9, 9, 3, 32], "dtype": "float32"}, {"name": "StatefulPartitionedCall/transformer/contract/conv1/Conv2D_bn_offset", "shape": [32], "dtype": "float32"}, {"name": "StatefulPartitionedCall/InceptionV3/Conv2d_2a_3x3/Conv2D_weights", "shape": [3, 3, 32, 32], "dtype": "float32"}, {"name": "StatefulPartitionedCall/InceptionV3/Conv2d_2a_3x3/Conv2D_bn_offset", "shape": [32], "dtype": "float32"}, {"name": "StatefulPartitionedCall/transformer/contract/conv2/Conv2D_weights", "shape": [3, 3, 32, 64], "dtype": "float32"}, {"name": "StatefulPartitionedCall/transformer/contract/conv2/Conv2D_bn_offset", "shape": [64], "dtype": "float32"}, {"name": "StatefulPartitionedCall/InceptionV3/Conv2d_2b_3x3/Conv2D_weights", "shape": [3, 3, 32, 64], "dtype": "float32"}, {"name": "StatefulPartitionedCall/InceptionV3/Conv2d_2b_3x3/Conv2D_bn_offset", "shape": [64], "dtype": "float32"}, {"name": "StatefulPartitionedCall/transformer/contract/conv3/Conv2D_weights", "shape": [3, 3, 64, 128], "dtype": "float32"}, {"name": "StatefulPartitionedCall/transformer/contract/conv3/Conv2D_bn_offset", "shape": [128], "dtype": "float32"}, {"name": "StatefulPartitionedCall/InceptionV3/Conv2d_3b_1x1/Conv2D_weights", "shape": [1, 1, 64, 80], "dtype": "float32"}, {"name": "StatefulPartitionedCall/InceptionV3/Conv2d_3b_1x1/Conv2D_bn_offset", "shape": [80], "dtype": "float32"}, {"name": "StatefulPartitionedCall/InceptionV3/Conv2d_4a_3x3/Conv2D_weights", "shape": [3, 3, 80, 192], "dtype": "float32"}, {"name": "StatefulPartitionedCall/InceptionV3/Conv2d_4a_3x3/Conv2D_bn_offset", "shape": [192], "dtype": "float32"}, {"name": "StatefulPartitionedCall/InceptionV3/Mixed_5b/Branch_0/Conv2d_0a_1x1/Conv2D_weights", "shape": [1, 1, 192, 64], "dtype": "float32"}, {"name": "StatefulPartitionedCall/InceptionV3/Mixed_5b/Branch_0/Conv2d_0a_1x1/Conv2D_bn_offset", "shape": [64], "dtype": "float32"}, {"name": "StatefulPartitionedCall/InceptionV3/Mixed_5b/Branch_1/Conv2d_0a_1x1/Conv2D_weights", "shape": [1, 1, 192, 48], "dtype": "float32"}, {"name": "StatefulPartitionedCall/InceptionV3/Mixed_5b/Branch_1/Conv2d_0a_1x1/Conv2D_bn_offset", "shape": [48], "dtype": "float32"}, {"name": "StatefulPartitionedCall/InceptionV3/Mixed_5b/Branch_2/Conv2d_0a_1x1/Conv2D_weights", "shape": [1, 1, 192, 64], "dtype": "float32"}, {"name": "StatefulPartitionedCall/InceptionV3/Mixed_5b/Branch_2/Conv2d_0a_1x1/Conv2D_bn_offset", "shape": [64], "dtype": "float32"}, {"name": "StatefulPartitionedCall/InceptionV3/Mixed_5b/Branch_3/Conv2d_0b_1x1/Conv2D_weights", "shape": [1, 1, 192, 32], "dtype": "float32"}, {"name": "StatefulPartitionedCall/InceptionV3/Mixed_5b/Branch_3/Conv2d_0b_1x1/Conv2D_bn_offset", "shape": [32], "dtype": "float32"}, {"name": "StatefulPartitionedCall/InceptionV3/Mixed_5b/Branch_1/Conv2d_0b_5x5/Conv2D_weights", "shape": [5, 5, 48, 64], "dtype": "float32"}, {"name": "StatefulPartitionedCall/InceptionV3/Mixed_5b/Branch_1/Conv2d_0b_5x5/Conv2D_bn_offset", "shape": [64], "dtype": "float32"}, {"name": "StatefulPartitionedCall/InceptionV3/Mixed_5b/Branch_2/Conv2d_0b_3x3/Conv2D_weights", "shape": [3, 3, 64, 96], "dtype": "float32"}, {"name": "StatefulPartitionedCall/InceptionV3/Mixed_5b/Branch_2/Conv2d_0b_3x3/Conv2D_bn_offset", "shape": [96], "dtype": "float32"}, {"name": "StatefulPartitionedCall/InceptionV3/Mixed_5b/Branch_2/Conv2d_0c_3x3/Conv2D_weights", "shape": [3, 3, 96, 96], "dtype": "float32"}, {"name": "StatefulPartitionedCall/InceptionV3/Mixed_5b/Branch_2/Conv2d_0c_3x3/Conv2D_bn_offset", "shape": [96], "dtype": "float32"}, {"name": "StatefulPartitionedCall/InceptionV3/Mixed_5c/Branch_0/Conv2d_0a_1x1/Conv2D_weights", "shape": [1, 1, 256, 64], "dtype": "float32"}, {"name": "StatefulPartitionedCall/InceptionV3/Mixed_5c/Branch_0/Conv2d_0a_1x1/Conv2D_bn_offset", "shape": [64], "dtype": "float32"}, {"name": "StatefulPartitionedCall/InceptionV3/Mixed_5c/Branch_1/Conv2d_0b_1x1/Conv2D_weights", "shape": [1, 1, 256, 48], "dtype": "float32"}, {"name": "StatefulPartitionedCall/InceptionV3/Mixed_5c/Branch_1/Conv2d_0b_1x1/Conv2D_bn_offset", "shape": [48], "dtype": "float32"}, {"name": "StatefulPartitionedCall/InceptionV3/Mixed_5c/Branch_2/Conv2d_0a_1x1/Conv2D_weights", "shape": [1, 1, 256, 64], "dtype": "float32"}, {"name": "StatefulPartitionedCall/InceptionV3/Mixed_5c/Branch_2/Conv2d_0a_1x1/Conv2D_bn_offset", "shape": [64], "dtype": "float32"}, {"name": "StatefulPartitionedCall/InceptionV3/Mixed_5c/Branch_3/Conv2d_0b_1x1/Conv2D_weights", "shape": [1, 1, 256, 64], "dtype": "float32"}, {"name": "StatefulPartitionedCall/InceptionV3/Mixed_5c/Branch_3/Conv2d_0b_1x1/Conv2D_bn_offset", "shape": [64], "dtype": "float32"}, {"name": "StatefulPartitionedCall/InceptionV3/Mixed_5c/Branch_1/Conv_1_0c_5x5/Conv2D_weights", "shape": [5, 5, 48, 64], "dtype": "float32"}, {"name": "StatefulPartitionedCall/InceptionV3/Mixed_5c/Branch_1/Conv_1_0c_5x5/Conv2D_bn_offset", "shape": [64], "dtype": "float32"}, {"name": "StatefulPartitionedCall/InceptionV3/Mixed_5c/Branch_2/Conv2d_0b_3x3/Conv2D_weights", "shape": [3, 3, 64, 96], "dtype": "float32"}, {"name": "StatefulPartitionedCall/InceptionV3/Mixed_5c/Branch_2/Conv2d_0b_3x3/Conv2D_bn_offset", "shape": [96], "dtype": "float32"}, {"name": "StatefulPartitionedCall/InceptionV3/Mixed_5c/Branch_2/Conv2d_0c_3x3/Conv2D_weights", "shape": [3, 3, 96, 96], "dtype": "float32"}, {"name": "StatefulPartitionedCall/InceptionV3/Mixed_5c/Branch_2/Conv2d_0c_3x3/Conv2D_bn_offset", "shape": [96], "dtype": "float32"}, {"name": "StatefulPartitionedCall/InceptionV3/Mixed_5d/Branch_0/Conv2d_0a_1x1/Conv2D_weights", "shape": [1, 1, 288, 64], "dtype": "float32"}, {"name": "StatefulPartitionedCall/InceptionV3/Mixed_5d/Branch_0/Conv2d_0a_1x1/Conv2D_bn_offset", "shape": [64], "dtype": "float32"}, {"name": "StatefulPartitionedCall/InceptionV3/Mixed_5d/Branch_1/Conv2d_0a_1x1/Conv2D_weights", "shape": [1, 1, 288, 48], "dtype": "float32"}, {"name": "StatefulPartitionedCall/InceptionV3/Mixed_5d/Branch_1/Conv2d_0a_1x1/Conv2D_bn_offset", "shape": [48], "dtype": "float32"}, {"name": "StatefulPartitionedCall/InceptionV3/Mixed_5d/Branch_2/Conv2d_0a_1x1/Conv2D_weights", "shape": [1, 1, 288, 64], "dtype": "float32"}, {"name": "StatefulPartitionedCall/InceptionV3/Mixed_5d/Branch_2/Conv2d_0a_1x1/Conv2D_bn_offset", "shape": [64], "dtype": "float32"}, {"name": "StatefulPartitionedCall/InceptionV3/Mixed_5d/Branch_3/Conv2d_0b_1x1/Conv2D_weights", "shape": [1, 1, 288, 64], "dtype": "float32"}, {"name": "StatefulPartitionedCall/InceptionV3/Mixed_5d/Branch_3/Conv2d_0b_1x1/Conv2D_bn_offset", "shape": [64], "dtype": "float32"}, {"name": "StatefulPartitionedCall/InceptionV3/Mixed_5d/Branch_1/Conv2d_0b_5x5/Conv2D_weights", "shape": [5, 5, 48, 64], "dtype": "float32"}, {"name": "StatefulPartitionedCall/InceptionV3/Mixed_5d/Branch_1/Conv2d_0b_5x5/Conv2D_bn_offset", "shape": [64], "dtype": "float32"}, {"name": "StatefulPartitionedCall/InceptionV3/Mixed_5d/Branch_2/Conv2d_0b_3x3/Conv2D_weights", "shape": [3, 3, 64, 96], "dtype": "float32"}, {"name": "StatefulPartitionedCall/InceptionV3/Mixed_5d/Branch_2/Conv2d_0b_3x3/Conv2D_bn_offset", "shape": [96], "dtype": "float32"}, {"name": "StatefulPartitionedCall/InceptionV3/Mixed_5d/Branch_2/Conv2d_0c_3x3/Conv2D_weights", "shape": [3, 3, 96, 96], "dtype": "float32"}, {"name": "StatefulPartitionedCall/InceptionV3/Mixed_5d/Branch_2/Conv2d_0c_3x3/Conv2D_bn_offset", "shape": [96], "dtype": "float32"}, {"name": "StatefulPartitionedCall/InceptionV3/Mixed_6a/Branch_0/Conv2d_1a_1x1/Conv2D_weights", "shape": [3, 3, 288, 384], "dtype": "float32"}, {"name": "StatefulPartitionedCall/InceptionV3/Mixed_6a/Branch_0/Conv2d_1a_1x1/Conv2D_bn_offset", "shape": [384], "dtype": "float32"}, {"name": "StatefulPartitionedCall/InceptionV3/Mixed_6a/Branch_1/Conv2d_0a_1x1/Conv2D_weights", "shape": [1, 1, 288, 64], "dtype": "float32"}, {"name": "StatefulPartitionedCall/InceptionV3/Mixed_6a/Branch_1/Conv2d_0a_1x1/Conv2D_bn_offset", "shape": [64], "dtype": "float32"}, {"name": "StatefulPartitionedCall/InceptionV3/Mixed_6a/Branch_1/Conv2d_0b_3x3/Conv2D_weights", "shape": [3, 3, 64, 96], "dtype": "float32"}, {"name": "StatefulPartitionedCall/InceptionV3/Mixed_6a/Branch_1/Conv2d_0b_3x3/Conv2D_bn_offset", "shape": [96], "dtype": "float32"}, {"name": "StatefulPartitionedCall/InceptionV3/Mixed_6a/Branch_1/Conv2d_1a_1x1/Conv2D_weights", "shape": [3, 3, 96, 96], "dtype": "float32"}, {"name": "StatefulPartitionedCall/InceptionV3/Mixed_6a/Branch_1/Conv2d_1a_1x1/Conv2D_bn_offset", "shape": [96], "dtype": "float32"}, {"name": "StatefulPartitionedCall/InceptionV3/Mixed_6b/Branch_0/Conv2d_0a_1x1/Conv2D_weights", "shape": [1, 1, 768, 192], "dtype": "float32"}, {"name": "StatefulPartitionedCall/InceptionV3/Mixed_6b/Branch_0/Conv2d_0a_1x1/Conv2D_bn_offset", "shape": [192], "dtype": "float32"}, {"name": "StatefulPartitionedCall/InceptionV3/Mixed_6b/Branch_1/Conv2d_0a_1x1/Conv2D_weights", "shape": [1, 1, 768, 128], "dtype": "float32"}, {"name": "StatefulPartitionedCall/InceptionV3/Mixed_6b/Branch_1/Conv2d_0a_1x1/Conv2D_bn_offset", "shape": [128], "dtype": "float32"}, {"name": "StatefulPartitionedCall/InceptionV3/Mixed_6b/Branch_2/Conv2d_0a_1x1/Conv2D_weights", "shape": [1, 1, 768, 128], "dtype": "float32"}, {"name": "StatefulPartitionedCall/InceptionV3/Mixed_6b/Branch_2/Conv2d_0a_1x1/Conv2D_bn_offset", "shape": [128], "dtype": "float32"}, {"name": "StatefulPartitionedCall/InceptionV3/Mixed_6b/Branch_3/Conv2d_0b_1x1/Conv2D_weights", "shape": [1, 1, 768, 192], "dtype": "float32"}, {"name": "StatefulPartitionedCall/InceptionV3/Mixed_6b/Branch_3/Conv2d_0b_1x1/Conv2D_bn_offset", "shape": [192], "dtype": "float32"}, {"name": "StatefulPartitionedCall/InceptionV3/Mixed_6b/Branch_1/Conv2d_0b_1x7/Conv2D_weights", "shape": [1, 7, 128, 128], "dtype": "float32"}, {"name": "StatefulPartitionedCall/InceptionV3/Mixed_6b/Branch_1/Conv2d_0b_1x7/Conv2D_bn_offset", "shape": [128], "dtype": "float32"}, {"name": "StatefulPartitionedCall/InceptionV3/Mixed_6b/Branch_2/Conv2d_0b_7x1/Conv2D_weights", "shape": [7, 1, 128, 128], "dtype": "float32"}, {"name": "StatefulPartitionedCall/InceptionV3/Mixed_6b/Branch_2/Conv2d_0b_7x1/Conv2D_bn_offset", "shape": [128], "dtype": "float32"}, {"name": "StatefulPartitionedCall/InceptionV3/Mixed_6b/Branch_1/Conv2d_0c_7x1/Conv2D_weights", "shape": [7, 1, 128, 192], "dtype": "float32"}, {"name": "StatefulPartitionedCall/InceptionV3/Mixed_6b/Branch_1/Conv2d_0c_7x1/Conv2D_bn_offset", "shape": [192], "dtype": "float32"}, {"name": "StatefulPartitionedCall/InceptionV3/Mixed_6b/Branch_2/Conv2d_0c_1x7/Conv2D_weights", "shape": [1, 7, 128, 128], "dtype": "float32"}, {"name": "StatefulPartitionedCall/InceptionV3/Mixed_6b/Branch_2/Conv2d_0c_1x7/Conv2D_bn_offset", "shape": [128], "dtype": "float32"}, {"name": "StatefulPartitionedCall/InceptionV3/Mixed_6b/Branch_2/Conv2d_0d_7x1/Conv2D_weights", "shape": [7, 1, 128, 128], "dtype": "float32"}, {"name": "StatefulPartitionedCall/InceptionV3/Mixed_6b/Branch_2/Conv2d_0d_7x1/Conv2D_bn_offset", "shape": [128], "dtype": "float32"}, {"name": "StatefulPartitionedCall/InceptionV3/Mixed_6b/Branch_2/Conv2d_0e_1x7/Conv2D_weights", "shape": [1, 7, 128, 192], "dtype": "float32"}, {"name": "StatefulPartitionedCall/InceptionV3/Mixed_6b/Branch_2/Conv2d_0e_1x7/Conv2D_bn_offset", "shape": [192], "dtype": "float32"}, {"name": "StatefulPartitionedCall/InceptionV3/Mixed_6c/Branch_0/Conv2d_0a_1x1/Conv2D_weights", "shape": [1, 1, 768, 192], "dtype": "float32"}, {"name": "StatefulPartitionedCall/InceptionV3/Mixed_6c/Branch_0/Conv2d_0a_1x1/Conv2D_bn_offset", "shape": [192], "dtype": "float32"}, {"name": "StatefulPartitionedCall/InceptionV3/Mixed_6c/Branch_1/Conv2d_0a_1x1/Conv2D_weights", "shape": [1, 1, 768, 160], "dtype": "float32"}, {"name": "StatefulPartitionedCall/InceptionV3/Mixed_6c/Branch_1/Conv2d_0a_1x1/Conv2D_bn_offset", "shape": [160], "dtype": "float32"}, {"name": "StatefulPartitionedCall/InceptionV3/Mixed_6c/Branch_2/Conv2d_0a_1x1/Conv2D_weights", "shape": [1, 1, 768, 160], "dtype": "float32"}, {"name": "StatefulPartitionedCall/InceptionV3/Mixed_6c/Branch_2/Conv2d_0a_1x1/Conv2D_bn_offset", "shape": [160], "dtype": "float32"}, {"name": "StatefulPartitionedCall/InceptionV3/Mixed_6c/Branch_3/Conv2d_0b_1x1/Conv2D_weights", "shape": [1, 1, 768, 192], "dtype": "float32"}, {"name": "StatefulPartitionedCall/InceptionV3/Mixed_6c/Branch_3/Conv2d_0b_1x1/Conv2D_bn_offset", "shape": [192], "dtype": "float32"}, {"name": "StatefulPartitionedCall/InceptionV3/Mixed_6c/Branch_1/Conv2d_0b_1x7/Conv2D_weights", "shape": [1, 7, 160, 160], "dtype": "float32"}, {"name": "StatefulPartitionedCall/InceptionV3/Mixed_6c/Branch_1/Conv2d_0b_1x7/Conv2D_bn_offset", "shape": [160], "dtype": "float32"}, {"name": "StatefulPartitionedCall/InceptionV3/Mixed_6c/Branch_2/Conv2d_0b_7x1/Conv2D_weights", "shape": [7, 1, 160, 160], "dtype": "float32"}, {"name": "StatefulPartitionedCall/InceptionV3/Mixed_6c/Branch_2/Conv2d_0b_7x1/Conv2D_bn_offset", "shape": [160], "dtype": "float32"}, {"name": "StatefulPartitionedCall/InceptionV3/Mixed_6c/Branch_1/Conv2d_0c_7x1/Conv2D_weights", "shape": [7, 1, 160, 192], "dtype": "float32"}, {"name": "StatefulPartitionedCall/InceptionV3/Mixed_6c/Branch_1/Conv2d_0c_7x1/Conv2D_bn_offset", "shape": [192], "dtype": "float32"}, {"name": "StatefulPartitionedCall/InceptionV3/Mixed_6c/Branch_2/Conv2d_0c_1x7/Conv2D_weights", "shape": [1, 7, 160, 160], "dtype": "float32"}, {"name": "StatefulPartitionedCall/InceptionV3/Mixed_6c/Branch_2/Conv2d_0c_1x7/Conv2D_bn_offset", "shape": [160], "dtype": "float32"}, {"name": "StatefulPartitionedCall/InceptionV3/Mixed_6c/Branch_2/Conv2d_0d_7x1/Conv2D_weights", "shape": [7, 1, 160, 160], "dtype": "float32"}, {"name": "StatefulPartitionedCall/InceptionV3/Mixed_6c/Branch_2/Conv2d_0d_7x1/Conv2D_bn_offset", "shape": [160], "dtype": "float32"}, {"name": "StatefulPartitionedCall/InceptionV3/Mixed_6c/Branch_2/Conv2d_0e_1x7/Conv2D_weights", "shape": [1, 7, 160, 192], "dtype": "float32"}, {"name": "StatefulPartitionedCall/InceptionV3/Mixed_6c/Branch_2/Conv2d_0e_1x7/Conv2D_bn_offset", "shape": [192], "dtype": "float32"}, {"name": "StatefulPartitionedCall/InceptionV3/Mixed_6d/Branch_0/Conv2d_0a_1x1/Conv2D_weights", "shape": [1, 1, 768, 192], "dtype": "float32"}, {"name": "StatefulPartitionedCall/InceptionV3/Mixed_6d/Branch_0/Conv2d_0a_1x1/Conv2D_bn_offset", "shape": [192], "dtype": "float32"}, {"name": "StatefulPartitionedCall/InceptionV3/Mixed_6d/Branch_1/Conv2d_0a_1x1/Conv2D_weights", "shape": [1, 1, 768, 160], "dtype": "float32"}, {"name": "StatefulPartitionedCall/InceptionV3/Mixed_6d/Branch_1/Conv2d_0a_1x1/Conv2D_bn_offset", "shape": [160], "dtype": "float32"}, {"name": "StatefulPartitionedCall/InceptionV3/Mixed_6d/Branch_2/Conv2d_0a_1x1/Conv2D_weights", "shape": [1, 1, 768, 160], "dtype": "float32"}, {"name": "StatefulPartitionedCall/InceptionV3/Mixed_6d/Branch_2/Conv2d_0a_1x1/Conv2D_bn_offset", "shape": [160], "dtype": "float32"}, {"name": "StatefulPartitionedCall/InceptionV3/Mixed_6d/Branch_3/Conv2d_0b_1x1/Conv2D_weights", "shape": [1, 1, 768, 192], "dtype": "float32"}, {"name": "StatefulPartitionedCall/InceptionV3/Mixed_6d/Branch_3/Conv2d_0b_1x1/Conv2D_bn_offset", "shape": [192], "dtype": "float32"}, {"name": "StatefulPartitionedCall/InceptionV3/Mixed_6d/Branch_1/Conv2d_0b_1x7/Conv2D_weights", "shape": [1, 7, 160, 160], "dtype": "float32"}, {"name": "StatefulPartitionedCall/InceptionV3/Mixed_6d/Branch_1/Conv2d_0b_1x7/Conv2D_bn_offset", "shape": [160], "dtype": "float32"}, {"name": "StatefulPartitionedCall/InceptionV3/Mixed_6d/Branch_2/Conv2d_0b_7x1/Conv2D_weights", "shape": [7, 1, 160, 160], "dtype": "float32"}, {"name": "StatefulPartitionedCall/InceptionV3/Mixed_6d/Branch_2/Conv2d_0b_7x1/Conv2D_bn_offset", "shape": [160], "dtype": "float32"}, {"name": "StatefulPartitionedCall/InceptionV3/Mixed_6d/Branch_1/Conv2d_0c_7x1/Conv2D_weights", "shape": [7, 1, 160, 192], "dtype": "float32"}, {"name": "StatefulPartitionedCall/InceptionV3/Mixed_6d/Branch_1/Conv2d_0c_7x1/Conv2D_bn_offset", "shape": [192], "dtype": "float32"}, {"name": "StatefulPartitionedCall/InceptionV3/Mixed_6d/Branch_2/Conv2d_0c_1x7/Conv2D_weights", "shape": [1, 7, 160, 160], "dtype": "float32"}, {"name": "StatefulPartitionedCall/InceptionV3/Mixed_6d/Branch_2/Conv2d_0c_1x7/Conv2D_bn_offset", "shape": [160], "dtype": "float32"}, {"name": "StatefulPartitionedCall/InceptionV3/Mixed_6d/Branch_2/Conv2d_0d_7x1/Conv2D_weights", "shape": [7, 1, 160, 160], "dtype": "float32"}, {"name": "StatefulPartitionedCall/InceptionV3/Mixed_6d/Branch_2/Conv2d_0d_7x1/Conv2D_bn_offset", "shape": [160], "dtype": "float32"}, {"name": "StatefulPartitionedCall/InceptionV3/Mixed_6d/Branch_2/Conv2d_0e_1x7/Conv2D_weights", "shape": [1, 7, 160, 192], "dtype": "float32"}, {"name": "StatefulPartitionedCall/InceptionV3/Mixed_6d/Branch_2/Conv2d_0e_1x7/Conv2D_bn_offset", "shape": [192], "dtype": "float32"}, {"name": "StatefulPartitionedCall/InceptionV3/Mixed_6e/Branch_0/Conv2d_0a_1x1/Conv2D_weights", "shape": [1, 1, 768, 192], "dtype": "float32"}, {"name": "StatefulPartitionedCall/InceptionV3/Mixed_6e/Branch_0/Conv2d_0a_1x1/Conv2D_bn_offset", "shape": [192], "dtype": "float32"}, {"name": "StatefulPartitionedCall/InceptionV3/Mixed_6e/Branch_1/Conv2d_0a_1x1/Conv2D_weights", "shape": [1, 1, 768, 192], "dtype": "float32"}, {"name": "StatefulPartitionedCall/InceptionV3/Mixed_6e/Branch_1/Conv2d_0a_1x1/Conv2D_bn_offset", "shape": [192], "dtype": "float32"}, {"name": "StatefulPartitionedCall/InceptionV3/Mixed_6e/Branch_2/Conv2d_0a_1x1/Conv2D_weights", "shape": [1, 1, 768, 192], "dtype": "float32"}, {"name": "StatefulPartitionedCall/InceptionV3/Mixed_6e/Branch_2/Conv2d_0a_1x1/Conv2D_bn_offset", "shape": [192], "dtype": "float32"}, {"name": "StatefulPartitionedCall/InceptionV3/Mixed_6e/Branch_3/Conv2d_0b_1x1/Conv2D_weights", "shape": [1, 1, 768, 192], "dtype": "float32"}, {"name": "StatefulPartitionedCall/InceptionV3/Mixed_6e/Branch_3/Conv2d_0b_1x1/Conv2D_bn_offset", "shape": [192], "dtype": "float32"}, {"name": "StatefulPartitionedCall/InceptionV3/Mixed_6e/Branch_1/Conv2d_0b_1x7/Conv2D_weights", "shape": [1, 7, 192, 192], "dtype": "float32"}, {"name": "StatefulPartitionedCall/InceptionV3/Mixed_6e/Branch_1/Conv2d_0b_1x7/Conv2D_bn_offset", "shape": [192], "dtype": "float32"}, {"name": "StatefulPartitionedCall/InceptionV3/Mixed_6e/Branch_2/Conv2d_0b_7x1/Conv2D_weights", "shape": [7, 1, 192, 192], "dtype": "float32"}, {"name": "StatefulPartitionedCall/InceptionV3/Mixed_6e/Branch_2/Conv2d_0b_7x1/Conv2D_bn_offset", "shape": [192], "dtype": "float32"}, {"name": "StatefulPartitionedCall/InceptionV3/Mixed_6e/Branch_1/Conv2d_0c_7x1/Conv2D_weights", "shape": [7, 1, 192, 192], "dtype": "float32"}, {"name": "StatefulPartitionedCall/InceptionV3/Mixed_6e/Branch_1/Conv2d_0c_7x1/Conv2D_bn_offset", "shape": [192], "dtype": "float32"}, {"name": "StatefulPartitionedCall/InceptionV3/Mixed_6e/Branch_2/Conv2d_0c_1x7/Conv2D_weights", "shape": [1, 7, 192, 192], "dtype": "float32"}, {"name": "StatefulPartitionedCall/InceptionV3/Mixed_6e/Branch_2/Conv2d_0c_1x7/Conv2D_bn_offset", "shape": [192], "dtype": "float32"}, {"name": "StatefulPartitionedCall/InceptionV3/Mixed_6e/Branch_2/Conv2d_0d_7x1/Conv2D_weights", "shape": [7, 1, 192, 192], "dtype": "float32"}, {"name": "StatefulPartitionedCall/InceptionV3/Mixed_6e/Branch_2/Conv2d_0d_7x1/Conv2D_bn_offset", "shape": [192], "dtype": "float32"}, {"name": "StatefulPartitionedCall/InceptionV3/Mixed_6e/Branch_2/Conv2d_0e_1x7/Conv2D_weights", "shape": [1, 7, 192, 192], "dtype": "float32"}, {"name": "StatefulPartitionedCall/InceptionV3/Mixed_6e/Branch_2/Conv2d_0e_1x7/Conv2D_bn_offset", "shape": [192], "dtype": "float32"}]}]}